experiments/CharacterTrajectoriesRegression/logs/ncdeode_model.pth (torch, 54125 bytes, 20 tensors)

cde_func.linear1.weight f4 [32, 32]
000000 8c 24 e5 bd b2 28 b1 bc 43 fb 56 be d8 ff 09 3c
       -0.111886114 -0.02162585 -0.20994286 0.008422814
000010 df cb 24 bd e8 ae 0e be 07 d2 0f 3d 57 f3 04 bc
       -0.04023349 -0.13933909 0.035112407 -0.008114657
000020 ba bc 15 be 4a c2 1a bd fa 7a 81 3e cd c6 f3 3c
       -0.14622775 -0.037782945 0.25289136 0.029757882
000030 87 33 75 3d 48 19 c2 bd 9e 42 6c be 1d cc 8b be
       0.059863593 -0.09477478 -0.23072287 -0.27304164
000040 6e 7a 3f be 66 d1 47 3e 2f 7b 58 3e 9e d8 dd ba
       -0.18699047 0.19513473 0.21140741 -0.0016925519
000050 db 2c 43 ba a5 0b e6 bc b6 b9 ad bc 7f d2 53 bd
       -0.00074453437 -0.028081724 -0.021206718 -0.051714417
000060 3f 9d a9 3c b7 68 97 3d 50 c5 16 be 59 f2 b2 bd
       0.020704864 0.0739302 -0.14723706 -0.087376304
000070 1f 1c 4f 3d 92 ea 2d bd 35 e1 26 be 6e 4c 95 3e
       0.050563928 -0.04246003 -0.16296847 0.29159874
000080 00 87 30 3d 0a ac 91 3d e1 37 1c 3e f5 bd 57 3e
       0.043097496 0.07112892 0.15255691 0.21068557
000090 61 f9 35 bd 43 50 02 3e b5 e2 71 3d 12 ee 97 bd
       -0.04442728 0.1272593 0.059054095 -0.07418455
0000a0 50 4d 11 bc ae 42 63 bd d6 da 2e bd 31 61 39 be
       -0.00886853 -0.055483513 -0.042689167 -0.18103482
0000b0 d3 2a e8 bd 23 5a 46 3e 08 40 03 be 95 e7 5f 3e
       -0.11336293 0.19370322 -0.12817395 0.21865685
0000c0 73 61 bc 3d 88 eb 38 bc f6 2e 01 3f b9 f3 c6 3d
       0.091982745 -0.011286624 0.5046228 0.09714455
0000d0 7f b4 91 3d ee 22 00 be dc 5e 2f be 58 2b 61 3e
       0.07114505 -0.12513325 -0.1712603 0.2198919
0000e0 bd 18 3d bd b3 cf 10 bd 46 af 20 be 4c aa 73 3e
       -0.04616617 -0.035354327 -0.15691862 0.23795432
0000f0 02 87 2f 3d e7 ac 75 3e 19 09 44 3d f1 61 18 3e
       0.042853363 0.23991738 0.04786024 0.14881112
000100 74 40 1a be b9 f9 0a bd f2 26 60 bd 0a 6f d3 3c
       -0.1506365 -0.03392956 -0.05472464 0.025809783
000110 2f 32 85 3d c1 27 04 3d 25 9d 99 3e f6 18 35 bc
       0.065037124 0.032264475 0.30002704 -0.011053314
000120 79 98 5f 3e 1d 2a e0 3c e7 48 57 be 0e f2 a3 3d
       0.21835507 0.027363831 -0.21023904 0.08005153
000130 2d 0d 33 be 72 68 3e be 56 74 39 be 38 10 9b 3d
       -0.17485495 -0.1859453 -0.18110785 0.07571453
000140 7d 84 12 3d fa 80 98 bd 49 bb 8c 3c 33 b8 0f 3e
       0.035770882 -0.07446475 0.017179148 0.1403511
000150 d5 80 0d be 03 c5 da bd ac f9 92 bc 02 31 d1 3d
       -0.13818677 -0.10682108 -0.017941318 0.102144256
000160 0f dc 80 3d ac 3c 5d bd ec 42 71 3d d0 a2 6a 3e
       0.06291973 -0.05401294 0.058901712 0.2291367
000170 d5 c7 94 bd 97 2b 2b 3e 8b b8 19 be b8 8e 33 bd
       -0.072646774 0.16715847 -0.15011804 -0.04383728
000180 e3 a2 0f 3e 25 ec e1 3d 5c 3d d3 bc f3 3c 77 be
       0.1402698 0.11031369 -0.025786094 -0.24144344
000190 d9 b6 89 3e 27 70 99 3d b5 5a 62 bd 26 a9 2b bd
       0.26897314 0.074920945 -0.055262286 -0.04190936
0001a0 86 e0 29 be 4a 7b 18 be 86 ea 2e be 4a 6d 12 bd
       -0.16589555 -0.14890781 -0.17081651 -0.035748757
0001b0 90 f2 22 bd c0 a7 3b 3c b3 80 cf bc 4d 83 01 3e
       -0.039782107 0.011453569 -0.025329923 0.12647744
0001c0 7d 84 98 3d a1 43 0a 3e 3e 79 36 3d f2 e0 ea 3d
       0.07447145 0.13502361 0.04454922 0.11468686
0001d0 4c cd b2 bd 63 8b d5 3c ce 81 71 bd 1c f7 15 be
       -0.087305635 0.026067441 -0.058961682 -0.14645046
0001e0 ba 68 b2 3c 7b eb 16 be 10 79 07 be 35 11 f5 3d
       0.021778453 -0.14738266 -0.13229775 0.119661726
0001f0 6c 18 b2 bd cf 91 6e 3e 9e 88 de 3d 48 38 9f 3d
       -0.08696064 0.23297809 0.108659014 0.07774407
000200 3b 04 13 3d f9 ff 02 be 09 35 35 3e 38 52 86 be
       0.035892706 -0.12792958 0.17696013 -0.26234603
000210 b9 cd 73 3d d7 04 06 3d 6f 83 4d bd d1 7f 4c 3d
       0.059522364 0.03271946 -0.050174173 0.049926583
000220 26 7e 3c be 9b 3b a9 bd ff c9 8f bd 4e 78 6e be
       -0.18407497 -0.08263322 -0.070209496 -0.2328808
000230 89 9e dd bd bb 42 81 3c 83 89 72 bd 3a 08 3f 3e
       -0.10821254 0.01577889 -0.059213173 0.18655482
000240 00 e0 47 bc 96 11 b3 3d ea d1 bd 3d f4 04 1d be
       -0.012199402 0.087435886 0.092685536 -0.1533392
000250 89 63 dd 3d e9 44 15 3e 04 d3 81 bd d7 38 d8 bd
       0.108100004 0.14577068 -0.06339076 -0.10557716
000260 56 14 31 be d3 73 0d 3e f5 55 3b 3e 42 44 3b be
       -0.17292914 0.13813715 0.18294509 -0.18287757
000270 25 ac 3e be 56 3d b1 3d 3f da 5b bd a1 0d 10 3e
       -0.18620355 0.08654277 -0.053674933 0.14067699
000280 84 ce ae 3d 10 2e c2 3d a1 1f 77 be 21 6e 88 3d
       0.085354835 0.09481442 -0.24133159 0.066616304
000290 f0 f4 0e bd 51 5a 8a 3d 86 76 0b 3e e0 9a a3 bc
       -0.03490156 0.06755508 0.13619432 -0.019971311
0002a0 54 d4 a7 bb bb 71 93 bd e5 5f d2 bd 1a 35 18 be
       -0.005121747 -0.07199427 -0.10272197 -0.14864007
0002b0 b2 58 7a bd 9d 83 3b be ac 1e af 3d 18 90 56 bc
       -0.061119743 -0.18311925 0.08550772 -0.013095878
0002c0 02 56 a0 bd bb da e3 bd 3a 83 f5 3c 7b ab 9c 3e
       -0.07828905 -0.11125704 0.0299698 0.3059958
0002d0 94 0c 00 be 11 bd b8 3c 48 85 0f bd 63 c1 93 3e
       -0.12504798 0.022551091 -0.035039216 0.2885848
0002e0 18 fa 69 3e 8c 66 f1 3d b9 a2 4d 3c e4 84 fb 3c
       0.2284931 0.117871374 0.012551003 0.030703016
0002f0 e7 4c 51 bd 43 17 46 3e 9d fe 06 be b9 f1 1a 3e
       -0.05109873 0.19344811 -0.13183065 0.15131272
000300 b0 8b 20 3d 93 30 ef bd d5 7f 93 bd f6 8c d8 bd
       0.039195716 -0.11679187 -0.072021164 -0.10573761
000310 62 12 4e be db 3c b4 bd 05 1c 7b be 4c 48 88 be
       -0.201242 -0.0880067 -0.24522407 -0.26617658
000320 a3 97 18 be db 4e 9a be 94 4d 15 be e9 49 cd 3c
       -0.14901595 -0.30138287 -0.14580375 0.025059657
000330 af 3e 4e 3c e5 e2 51 be 76 69 75 be 44 73 cf bc
       0.012588187 -0.2049671 -0.23966011 -0.025323518
000340 c2 5a 5c 3c 67 25 06 be ac ca 99 bd 94 7d 75 3a
       0.013449373 -0.13100205 -0.0750936 0.0009364721
000350 8c ab 31 be 0b f9 63 be 44 ce 45 3d 3a 76 ca bc
       -0.17350596 -0.22262971 0.048292413 -0.024714578
000360 ac 09 9a 3d 8e bd d4 3d 95 78 31 bd ec c0 d1 bd
       0.07521376 0.10387717 -0.043327887 -0.10241875
000370 82 0d 1f 3e 45 1b 93 bd 57 22 96 bd 16 55 6b be
       0.15532497 -0.071829356 -0.073307686 -0.22981676
000380 e8 fb 60 3e ee 81 11 3e fe b7 a0 be be 49 66 be
       0.21971095 0.1420972 -0.31390375 -0.22489068
000390 77 82 36 3e 68 1b 47 3e ce fb 99 bd c8 67 a5 bc
       0.17823206 0.19444048 -0.07518731 -0.020191088
0003a0 f7 8d 1f be 9d a0 02 be 04 8f 76 be 17 c3 da 3c
       -0.15581499 -0.12756582 -0.24077994 0.026704354
0003b0 f9 c6 02 3e f5 57 82 3e 7b 13 a0 3d d2 b8 a1 be
       0.12771215 0.2545773 0.078162156 -0.3158632
0003c0 99 51 d4 bc 63 5e 1b 3e 82 36 6a 3e 8c 9b 6f be
       -0.025917815 0.15172724 0.22872356 -0.2339918
0003d0 8c e9 61 bd fd 18 df bd a1 61 87 bd f6 c4 29 3d
       -0.05515437 -0.10893438 -0.06610418 0.041447602
0003e0 e6 67 c0 bb eb 5e 4d 3e 30 6b 4f bc a1 38 dd bc
       -0.0058717607 0.2005574 -0.012659833 -0.027004542
0003f0 23 e0 2c 3e 5b e7 1f 3e c7 02 d3 bc b0 84 b1 3d
       0.16882376 0.15615599 -0.02575816 0.08667886

cde_func.linear1.bias f4 [32]
000000 a7 7c 36 3e 3d 9a 02 be af d1 d2 bd 45 a8 70 be
       0.17820989 -0.1275415 -0.102939 -0.2350169
000010 82 1f 1b 3e b4 79 20 be 1b d8 17 3e 76 d7 d2 bd
       0.15148738 -0.15671426 0.14828531 -0.10295002
000020 73 d6 c5 3c 36 05 f1 bb 9e 6b 41 bc 74 88 f9 bd
       0.024150109 -0.0073553575 -0.011805443 -0.121842295
000030 a5 a4 a7 3d d4 e1 47 bd 88 7d 75 3d 17 63 d8 3d
       0.081857 -0.04879935 0.05993417 0.10565775
000040 2a 23 f7 3c 60 c0 e2 bd 8b 32 03 3d 3b 2b 02 bc
       0.030168135 -0.11071849 0.032030623 -0.007944877
000050 82 b5 2f bd 25 a3 61 be 8d c0 0d 3e fe f4 17 3d
       -0.04289771 -0.22034891 0.13842984 0.037098877
000060 65 76 43 be 74 43 83 3d a3 b3 13 3c 6e 55 03 bc
       -0.19088133 0.0640935 0.009014997 -0.0080159735
000070 b2 53 a8 be 55 d4 5f be d2 17 84 3d 24 58 b9 bd
       -0.32876354 -0.21858342 0.06449856 -0.090500146

cde_func.linear2.weight f4 [32, 32]
000000 8c 76 3f 3e 7b c9 1c 3d d0 8b 11 be ba 7e 42 3d
       0.18697566 0.038278084 -0.1421349 0.047484137
000010 d3 9f a5 3d fd f5 6e 3e 90 35 88 bd 41 b5 2c 3a
       0.08087125 0.23336025 -0.06650841 0.0006588288
000020 6f e0 43 3d 95 6f 35 3c a0 d4 0d 3d 1a 54 7d 3b
       0.04782146 0.0110739665 0.034626603 0.0038654865
000030 4a 66 81 3e 35 cd 2b be e2 a5 f2 bd 11 71 09 be
       0.25273353 -0.16777499 -0.11848046 -0.13422038
000040 11 74 05 3e da 6b fb 3c 0b c1 8f 3e 97 43 95 3d
       0.13032557 0.030691076 0.28076968 0.07288282
000050 58 21 11 3d 31 d1 08 bd 95 3b 8f be ef c8 db bc
       0.03543219 -0.033402625 -0.27975145 -0.026829211
000060 3b b3 d8 3d e0 68 0a 3e 89 95 30 3d 06 c1 47 bd
       0.105810605 0.13516569 0.043111358 -0.048768066
000070 28 23 a2 bd c4 b4 a4 3c 52 4b 58 3e a1 5e 0f be
       -0.07916862 0.020105727 0.21122482 -0.14000942
000080 28 dc 98 bc de 78 4d 3e ae 53 e8 bd 7d 94 06 bd
       -0.018659666 0.20065638 -0.11344086 -0.032856453
000090 82 80 4d 3d fa b7 f8 3d b7 2f 5e bd 14 82 06 be
       0.050171383 0.12144466 -0.054244723 -0.13135558
0000a0 b7 0f 78 be ad 2d 0b be 0f 6e 20 bd cb c3 e0 bd
       -0.24224745 -0.13591643 -0.03916746 -0.109748445
0000b0 b1 f9 1b bd a0 3d 22 3d b4 7f e7 bd ba 94 6e 3e
       -0.03807992 0.03960955 -0.11303654 0.23298922
0000c0 c9 6e 2d bd 54 d8 8e 3d 2f 71 2b bd f6 c1 dc bc
       -0.04234198 0.06974855 -0.041855987 -0.026947957
0000d0 70 e1 8d 3e cf 5d 1d bd 95 e0 8a bd ce cb 8d bd
       0.27711058 -0.03841954 -0.06781117 -0.06923638
0000e0 a2 0c c7 bb 36 69 cb 3d 42 17 c3 bd 11 5b 5d bd
       -0.006074504 0.09932177 -0.095259205 -0.054041926
0000f0 30 74 aa 3d 68 0e bf bd 8d de 8d 3d e6 6d 20 3d
       0.08322942 -0.0932892 0.06927214 0.039167307
000100 d2 93 bd 3b 02 2d e9 bc bd 77 87 3d a6 a0 6d bd
       0.005785444 -0.028463844 0.06614635 -0.058014534
000110 67 8b c9 3d 70 ce e8 3c 64 83 59 3e 03 32 3e 3e
       0.09841042 0.02841875 0.21241528 0.18573765
000120 02 70 77 bd 87 2f 81 3c 48 59 9a 3d 48 d1 a1 3e
       -0.060409553 0.015769733 0.0753656 0.3160498
000130 09 06 fb 3d b6 e2 b9 bd 77 eb c5 3d d5 73 52 be
       0.122570105 -0.09076445 0.09664052 -0.20551999
000140 91 f5 b7 bd 51 f8 2b 3e 51 97 b7 bd 1e 4e 47 3e
       -0.08982385 0.16793944 -0.08964408 0.19463393
000150 1d 16 e8 bc 4a bc 1c bc 51 e3 07 3e 38 da 95 bd
       -0.028330857 -0.009566376 0.13270308 -0.073170125
000160 2e 4f 0e bd dc 35 95 3e c3 a7 37 be 7c 33 9a 3c
       -0.03474348 0.29142654 -0.1793509 0.018823378
000170 7f 9b 3d bc bb fb 87 3c 5a 3a 20 3d 52 31 95 bd
       -0.011572718 0.016599527 0.03911815 -0.07284798
000180 fe 5b a3 3d 86 aa f2 bd 92 55 d2 bc fe 34 ce bd
       0.079765305 -0.11848931 -0.025675569 -0.10068701
000190 36 b4 2c bd 5f 86 0d 3e 00 7a 2f 3e 74 89 77 be
       -0.04216405 0.1382079 0.17136383 -0.24173528
0001a0 8e 9a e2 bd 77 bc 86 be cb 3d 13 3e cf a0 04 be
       -0.11064635 -0.26315662 0.14379041 -0.12951969
0001b0 cf d9 23 bd ca ff 05 3d 38 06 25 bc ca e1 41 bd
       -0.04000264 0.032714643 -0.010072283 -0.04733447
0001c0 00 95 c7 bd bc d1 41 3e 1b b5 85 bb ea 76 da bd
       -0.09745216 0.18927664 -0.0040804273 -0.10667212
0001d0 46 0e 83 be f4 b4 0e be 8d 07 fd 3d f3 d5 8e 3d
       -0.25596827 -0.13936216 0.12354956 0.06974401
0001e0 58 53 db 3b f4 1e 32 be 42 2d 8a bc 03 fe 1d 3d
       0.006693285 -0.1739462 -0.016867284 0.038572323
0001f0 a4 d4 96 3d 45 8d 02 3e c3 5d d2 bd 69 3a 33 3d
       0.07364777 0.12749203 -0.1027179 0.043756876
000200 9b 58 7a 3e 81 8f 9d 3c 0c d1 fb 3d 2d f1 41 be
       0.24447863 0.019233467 0.12295732 -0.18939658
000210 6a 19 3b be 1b bf 3f be dc f8 40 bc 28 b9 54 3c
       -0.18271413 -0.18725245 -0.011778083 0.012983598
000220 36 7e 46 3d f0 0f 08 be d8 2e 78 3d b7 d0 9c ba
       0.048460208 -0.1328733 0.06059155 -0.0011964057
000230 f4 f7 54 3b 17 3b f9 bc b0 94 4d be 03 7f e3 3d
       0.0032496424 -0.030423684 -0.20076251 0.1110821
000240 1e 78 ce bd 19 57 42 be 20 b2 53 bd 85 18 f2 bd
       -0.10081504 -0.18978538 -0.051683545 -0.11821083
000250 3f 4f e2 3d 9a a3 f7 3d cd 48 90 bd 59 5e 20 bd
       0.11050271 0.120917514 -0.07045136 -0.039152477
000260 1f 9c 34 3e b4 f6 36 3e 79 2b 94 bc 36 aa 2d 3e
       0.1763768 0.17867547 -0.018087136 0.16959462
000270 0f fa dd bd f3 c3 a8 3d 10 e5 63 be e4 d1 06 be
       -0.108387105 0.08240499 -0.22255349 -0.13166004
000280 12 25 cf b9 c7 c3 1e 3e 23 bc 0f bd dd c3 fb 3d
       -0.00039509736 0.1550437 -0.03509153 0.12293217
000290 bb fb 1f 3e f2 21 52 bd 49 ca 41 be df a3 aa 3d
       0.15623371 -0.051301904 -0.18924822 0.08332037
0002a0 2d 5a 8c 3d 26 0c a5 bd b3 1a 7c be 87 ff af bd
       0.06853137 -0.08058958 -0.2461956 -0.0859366
0002b0 08 9e 01 be b5 fa a1 bd 22 3a 98 bd 16 3d e4 3d
       -0.1265794 -0.07909147 -0.07432963 0.11144464
0002c0 53 a1 14 be 1a 8f 3c 3d 11 33 45 3e 97 7a 21 3e
       -0.14514665 0.04603491 0.19257762 0.1576942
0002d0 8c 12 47 3e c4 99 3e be f5 33 80 bd 13 62 23 3e
       0.19440669 -0.18613344 -0.0625991 0.15955381
0002e0 07 d5 ed 3d f8 ed ad bd 55 09 f3 bd a1 d3 68 be
       0.11612897 -0.084926546 -0.11867014 -0.2273698
0002f0 cb 98 34 bb 95 7b 8a be 0b bb 54 bd fd 51 90 bd
       -0.0027556892 -0.2704741 -0.05193619 -0.07046888
000300 50 68 b2 3c f6 68 3f 3d aa 1b 1c be 8b e3 d3 3e
       0.021778256 0.046730958 -0.15244928 0.4138454
000310 95 b7 90 3e ed df 00 bc e8 12 9c be 4a f8 72 3c
       0.28265062 -0.007865888 -0.30483174 0.014829705
000320 aa 67 4c be a6 83 e1 3b ea 01 79 be b6 95 46 be
       -0.1996142 0.006882149 -0.24317136 -0.19393048
000330 56 c9 38 be ba 5f 4f 3d c0 0a 21 3e a1 a4 be bd
       -0.18045554 0.0506284 0.15726757 -0.09308744
000340 88 3e 94 bd cf 0c 00 3d 92 a7 a8 3e 8b 80 23 3e
       -0.072384894 0.031262215 0.32940346 0.15967004
000350 51 69 a8 3e 3f c0 a2 bd cb 99 00 be ef cd 9f bd
       0.3289285 -0.07946824 -0.12558667 -0.078029506
000360 fa 13 95 3d 64 5a 9d be dc 0f 1f bd 57 d1 e8 bd
       0.07279201 -0.30733025 -0.038833484 -0.113680534
000370 b9 f3 7e 3e 3e c8 c9 3d 2d cc fc 3c 64 0e b4 bc
       0.2489766 0.09852646 0.030859077 -0.021979518
000380 e0 01 69 bd 58 96 35 3c ca 33 1a be 7d db e5 3d
       -0.056886554 0.011083208 -0.15058818 0.11223505
000390 10 88 da bd 41 41 40 bd 7a 51 8e 3d c1 ec d3 bd
       -0.10670483 -0.04693723 0.06949134 -0.103478916
0003a0 83 c9 18 bd a8 7e e2 bd 96 61 4f be 5d e5 b7 bb
       -0.03730155 -0.11059314 -0.2025207 -0.005612059
0003b0 17 c2 8f bd d6 a9 04 3e d1 7f fc bd 48 ac 1f bc
       -0.070194416 0.12955412 -0.123290665 -0.009745665
0003c0 fa 9a 17 3e e8 65 81 3c ba 9d b6 bd fb b3 09 bc
       0.14805213 0.015795663 -0.08916803 -0.008404727
0003d0 2b ea b2 3c 9b d8 6d bd be 1b 3a bd f6 c2 e8 3d
       0.021840176 -0.0580679 -0.045436613 0.11365311
0003e0 4b d0 19 bd a4 e1 5f 3d a0 2a 87 3d 00 b1 bf 3d
       -0.03755216 0.054658547 0.06599927 0.09359932
0003f0 fa 6a 92 be 16 10 5c 3e b8 de 4d be f6 b3 b0 3d
       -0.28597242 0.21490511 -0.20104492 0.08628075

cde_func.linear2.bias f4 [32]
000000 3c c1 2e be 3d c7 4e be 1a 54 49 3d fb e5 42 3d
       -0.170659 -0.20193191 0.04915247 0.047582608
000010 63 c7 75 bd 03 d2 9f bd 87 96 66 3d 68 40 e1 3d
       -0.060004603 -0.078037284 0.056295898 0.10998613
000020 ee 66 0e 3e 36 fb d7 3c 8f 9f 3e be 6f 6d 01 3e
       0.13906452 0.026364904 -0.18615554 0.12639402
000030 77 c0 ec bd 39 d6 ab 3d bf e0 ec bd 80 d2 4e 3e
       -0.11560147 0.08390469 -0.115663044 0.20197487
000040 91 b5 83 3c 1b 97 2a bd 2e d1 99 bc 91 3b ba 3c
       0.016077789 -0.04164801 -0.018776502 0.022733482
000050 82 64 41 be e4 f0 02 be c5 3f d9 bd 44 18 41 bc
       -0.18885997 -0.12787205 -0.10607866 -0.0117855705
000060 b0 ad 15 bc c0 5d d4 bd 82 ea 12 bc 8b 30 3f bb
       -0.009135649 -0.10369444 -0.008967044 -0.002917322
000070 10 6f 55 be e0 67 87 bd 56 8d a2 bd e9 90 10 3e
       -0.20843148 -0.066116095 -0.07937114 0.14117779

cde_func.linear3.weight f4 [32, 32]
000000 0b 5d 0b bc 35 65 08 be 7c 12 56 be f2 68 be bd
       -0.00850607 -0.13319857 -0.20905489 -0.092973605
000010 be 0a 30 be ca db 88 be 47 9d 59 bd 73 7c b4 3d
       -0.17191598 -0.26730186 -0.053128507 0.08812799
000020 70 e4 48 be 91 6e 06 3d 55 9a 80 ba e0 0e 34 3d
       -0.19618392 0.032820288 -0.000981162 0.0439595
000030 b7 70 76 be 3e dd 23 3c f6 e6 03 be 7a 36 1a be
       -0.24066435 0.010001479 -0.12881073 -0.15059844
000040 ed 10 05 3e 7a 89 58 3d af a1 c1 3d b1 86 e9 bd
       0.12994738 0.052865483 0.09454667 -0.114026435
000050 8c 7f 18 be d0 28 5f be df 53 2f 3d 3c 61 c8 3c
       -0.14892405 -0.21792912 0.042804595 0.024460427
000060 3c 6c cf 3d 17 e9 9c 3d 31 de 8c be 69 2f 8f be
       0.10128066 0.07661646 -0.2751327 -0.2796586
000070 2c 52 96 3d cc c6 87 3d 88 4c fe 3d 67 6d 40 3e
       0.07339892 0.06629714 0.12416941 0.18791734
000080 8d 0a e3 3c f9 ac 08 3e ad 27 31 3e 93 13 09 3b
       0.027714992 0.13347234 0.17300291 0.0020916208
000090 ed ab 34 3b 13 42 d6 bd cb 2b 02 3e 1f 6d 89 3d
       0.0027568296 -0.104618214 0.12712018 0.06710266
0000a0 bf fa 8a be 88 1e 36 be 2b c5 9e bd 89 c3 e6 3d
       -0.2714443 -0.17785084 -0.077524506 0.11267764
0000b0 1f f2 38 be 0a 39 87 be 8d b1 70 bd 46 fe 3a 3e
       -0.18061112 -0.26410705 -0.058763076 0.1826106
0000c0 07 00 03 3e 4d 7e 04 3d be 72 0c 3e 31 58 42 3e
       0.12792979 0.032347012 0.13715646 0.18978955
0000d0 1a af 3e be 1a 78 aa be 04 95 1c be 8f d3 14 3e
       -0.18621483 -0.33294755 -0.1529122 0.14533828
0000e0 91 32 ca 3b cd cc 8e 3c 70 ef 50 3d 87 d9 80 3d
       0.0061705788 0.017431641 0.051009595 0.0629149
0000f0 3e 70 94 3d 1d 59 90 3e 71 2b 62 3e d6 b1 d2 bd
       0.07247971 0.28192988 0.22086884 -0.10287826
000100 1b 6e 37 bc c1 7d 96 3d 6c ee b3 3d 94 5b 97 bd
       -0.011195685 0.073482044 0.0878571 -0.07390514
000110 c8 6f af bd 80 69 9e bd 54 22 1c 3d 4a 2f 2b 3e
       -0.085662425 -0.07734966 0.038118675 0.16717258
000120 a2 c7 0b 3c ae da cd bb 41 87 49 3e 90 a4 f0 bd
       0.008531483 -0.006282172 0.19680502 -0.11750138
000130 a2 44 d0 3d a7 71 eb 3d ec 22 7c bd e3 8e b1 bc
       0.10169341 0.11496287 -0.06155674 -0.021674579
000140 be f4 90 be 26 9b 39 be 98 cf 07 3e da 15 8b be
       -0.28311723 -0.1812559 0.13262784 -0.2716511
000150 46 04 27 3e ed a3 a7 3d 08 e8 83 bb a6 08 b1 3d
       0.16310224 0.08185563 -0.004025463 0.08644228
000160 59 13 d7 bc cd 63 7a 3b 62 86 82 3e b4 07 94 bd
       -0.026254343 0.0038206459 0.2549315 -0.07228032
000170 ab 40 35 be 34 b2 14 be 59 93 b4 bd 55 f5 7a be
       -0.1770045 -0.14521104 -0.08817167 -0.24507649
000180 04 0e ce bd d3 f3 09 be 61 51 0c 3c 53 65 00 3d
       -0.10061267 -0.13471918 0.008564324 0.03134663
000190 45 8a 2d bd 0c c2 60 be 3c 80 44 be 48 56 20 3e
       -0.042368192 -0.21949023 -0.19189543 0.15657914
0001a0 a4 11 af bd 20 4d 9b bd 98 56 14 be 2e 98 2d 3d
       -0.085482866 -0.0758307 -0.14486158 0.042381458
0001b0 f7 b7 d6 bd 54 89 8a be 7e 89 cd 3d cf 5f 1c be
       -0.10484307 -0.27057898 0.1003599 -0.15270923
0001c0 4c 69 9c be 08 c2 87 be 5a 98 33 be 8c 14 4a be
       -0.30549085 -0.26515222 -0.17538586 -0.197344
0001d0 0d c4 b2 bd a4 dd d1 3e 00 87 e4 bd 84 cc d0 bd
       -0.087288 0.4098941 -0.11158562 -0.10195258
0001e0 4d 3e 28 bd 03 35 c6 bd c0 c9 81 3d cb 9c 08 3e
       -0.04107504 -0.0967808 0.06337309 0.13341062
0001f0 1a c3 aa bd d2 23 0d 3e be 75 1d be 99 51 41 3d
       -0.08337994 0.13783196 -0.15376946 0.04719696
000200 50 f8 50 bd 78 ef ac 3d a0 a5 31 be b4 b1 64 be
       -0.05101806 0.084441125 -0.17348337 -0.22333413
000210 e0 28 b4 3d 91 66 b8 3d 43 b8 03 3e 99 bd 04 be
       0.08796859 0.09003938 0.12863259 -0.12962951
000220 56 a5 c9 3d 6e 3f 72 3d aa ca 20 be e1 ab 16 3e
       0.098459885 0.059142523 -0.1570231 0.14714004
000230 7c 1d e8 bd 27 37 26 3d 80 65 5e 3d 48 73 47 be
       -0.11333749 0.04057994 0.054296017 -0.1947757
000240 ba 2e c9 be fe be 8c bd 09 d5 de 3d 04 17 92 3d
       -0.39293462 -0.06872366 0.10880477 0.07133296
000250 ce 28 00 be f9 99 c0 3d 42 23 9c bd 65 f2 40 be
       -0.12515566 0.09404368 -0.076239124 -0.18842466
000260 67 10 88 bc 0a ef fb 3d 72 e9 19 be ec c8 36 3d
       -0.016609384 0.123014525 -0.15030459 0.044625208
000270 f1 5c 4f be 7d 7f f3 bc 1c 32 93 bd cb 09 ba 3d
       -0.20250298 -0.029723877 -0.07187292 0.09083899
000280 de f1 b4 3d 42 92 3c 3e 11 97 09 be ad 4f 05 be
       0.08835195 0.18415168 -0.13436534 -0.13018675
000290 c0 07 72 be 5d c5 86 be d9 23 0c bd d9 e4 e0 3c
       -0.23635769 -0.2632245 -0.034213874 0.027452873
0002a0 92 73 fd bc e2 81 4c 3d ca db 33 3d b0 bd 8f bd
       -0.030938897 0.049928553 0.04391078 -0.07018602
0002b0 86 8e 13 be 38 fa 0a 3e a9 d4 93 bd 3d d7 e2 bd
       -0.14409837 0.13572013 -0.07218296 -0.1107621
0002c0 b0 86 74 3d 7d b7 74 3e 3b 05 1d 3e 05 fb 1c 3e
       0.05969876 0.2389812 0.15334027 0.15330131
0002d0 99 41 31 bc 08 47 82 be a9 55 26 be 00 27 70 be
       -0.010818862 -0.25444818 -0.16243614 -0.23452377
0002e0 97 c0 0f 3c 8e 1c e3 3d 07 28 c0 bd a9 19 60 be
       0.008773944 0.11089431 -0.093826346 -0.21884789
0002f0 59 2f 3e 3e a2 ba 60 3e e9 90 e8 3b 1b bd a6 be
       0.18572749 0.21946195 0.0070973528 -0.3256615
000300 ad a4 60 3c f2 65 1e be d9 fd 85 bc 68 ab c5 3c
       0.013711137 -0.15468577 -0.016356396 0.024129584
000310 e7 12 d3 bb 7f ea 9d bd 8a 3a 08 be cf 34 20 bd
       -0.0064414623 -0.07710742 -0.13303581 -0.039112862
000320 65 60 a0 bd 4d 5e 38 3e bd 03 ab bd 0b cb b6 3d
       -0.07830886 0.18004723 -0.083503224 0.08925446
000330 59 10 ca 3d 8d cd 5a 3d 7c d9 59 3d 50 78 94 bd
       0.09866399 0.053418685 0.053185925 -0.0724951
000340 8e b2 0a be 47 6b e1 bd a3 f4 b1 3d c9 89 67 be
       -0.13544676 -0.1100679 0.08689239 -0.22611155
000350 5b a3 6e bd c9 2e 53 bd a6 c7 86 be ad 7e f1 3d
       -0.058261257 -0.05155829 -0.26324195 0.117917396
000360 bd 68 79 bd 3c ee 4f bd e5 f0 83 3d d4 f0 19 be
       -0.0608909 -0.050764307 0.06442431 -0.15033275
000370 6f 98 0b 3d a8 93 bc bd d8 60 74 3d e1 2a 97 bd
       0.03408092 -0.09207851 0.05966267 -0.073812254
000380 95 93 c5 bd fa 08 86 3d 99 ab ee 3d fb e7 5c bc
       -0.0964729 0.06544681 0.116538234 -0.013483043
000390 1a 68 8b be 52 f2 84 3c 50 59 58 3d ed d6 80 be
       -0.2722786 0.016228829 0.05281955 -0.25163975
0003a0 71 3c 5c be 9b 93 88 be d4 81 68 3d 43 8d 24 3d
       -0.21507432 -0.26675114 0.05676444 0.04017378
0003b0 43 60 a3 bd c1 e3 f6 bd c8 81 3d bc 57 13 25 be
       -0.07977345 -0.12055159 -0.011566587 -0.16120659
0003c0 73 e0 2b 3e d7 02 8a 3b 6c 93 26 be 80 9a 0d 3e
       0.1678484 0.0042117643 -0.16267174 0.13828468
0003d0 44 03 63 3d ec a3 52 bd 3f fc af bd fa a7 8c 3d
       0.055423036 -0.05142586 -0.08593034 0.068679765
0003e0 46 a9 8f bd 0b b3 7c 3e e1 ff d2 3d 52 da c8 bc
       -0.07014708 0.24677674 0.10302711 -0.024518166
0003f0 56 f2 a6 3d 09 a8 e9 3c 43 4a 94 3e fb cf bf bd
       0.08151691 0.028522508 0.28962907 -0.09365841

cde_func.linear3.bias f4 [32]
000000 d1 7a 24 3e 8a b7 13 bd 51 92 cb bd 8d cb 19 3e
       0.16062476 -0.03606371 -0.09940017 0.15019055
000010 b3 21 db 3d 37 ca bd bd 30 ca 0e 3e 31 9c f8 3c
       0.10699787 -0.09267085 0.13944316 0.030347915
000020 ea 47 17 3d 80 df fb bd d0 65 ce 3d c6 3d d7 bc
       0.036933817 -0.122984886 0.10078013 -0.026274573
000030 2b ba 94 3d ea e8 10 3e 1a 7e 32 bd ec 78 8e bb
       0.07262071 0.1415135 -0.04357729 -0.004347911
000040 70 ba 05 be 00 71 84 bc e2 c3 b7 bd fa 10 83 bd
       -0.13059402 -0.016167164 -0.089729086 -0.063997224
000050 bc bb 08 bd 2f 3a 33 3d 8f 5f 09 3e 6e 97 4f 3d
       -0.033382162 0.04375666 0.13415359 0.050681524
000060 f0 03 17 bd 52 3b 96 3d fd 48 4f 3d d0 8f 04 3e
       -0.03686899 0.07335533 0.050606716 0.12945485
000070 9d 81 a7 bd 40 c0 c4 3d 95 f7 d9 3c d7 b5 10 3e
       -0.08179019 0.09606981 0.026607314 0.14131866

cde_func.linear4.weight f4 [128, 32]
000000 42 6b d7 bd e3 68 90 bd a5 fa 6e 3e 6d 69 4e bd
       -0.10518505 -0.070512556 0.23337801 -0.05039351
000010 f9 23 15 3e 71 49 3c 3d 1d 73 7a 3d 61 b6 67 3d
       0.14564504 0.045968477 0.061144937 0.056570414
000020 04 f8 49 be 09 a6 dc 3d c1 dd b9 3d 61 76 00 be
       -0.19723517 0.10773856 0.09075499 -0.12545158
000030 67 8e 53 3e b8 89 45 3d b6 1b e5 bd c5 af 29 3e
       0.20659791 0.048227042 -0.11186926 0.16570957
000040 9c e4 a0 be d0 9b 75 3e 6f 9d 9b bd cc 9c 60 3e
       -0.31424415 0.23985219 -0.075983874 0.21934813
000050 62 bf 44 be c1 96 9b 3d c0 d2 34 3e 38 25 d1 bd
       -0.19213632 0.075971134 0.1765852 -0.10212177
000060 42 0c 1a be 0b a4 e6 3d f4 52 b5 bd 8f 23 a8 3d
       -0.15043738 0.112617575 -0.08853713 0.08209907
000070 1f 3f 4e 3e ce 8d 34 be ef f4 95 bc 0d be c9 bd
       0.20141266 -0.17632219 -0.01830527 -0.098507024
000080 2f 26 b8 3d 71 e3 97 3b e9 cb 87 3e b8 a4 13 be
       0.08991658 0.0046352674 0.2652276 -0.14418304
000090 b8 49 a1 bd 5f 37 aa bd e5 ea 83 3c b9 04 b5 bd
       -0.07875389 -0.083113424 0.016103217 -0.088387914
0000a0 40 3b fd bd 9c da d4 3d 8f 3e 50 3f 3b 1d d6 bc
       -0.12364817 0.10393259 0.81345457 -0.026136985
0000b0 ab c1 cb 3e db 49 ed 3d 6f b0 1e 3e 69 25 bf 3d
       0.39796194 0.115863524 0.15496992 0.09333307
0000c0 12 ed 06 be 30 27 27 3d 5f 84 fa 3e 60 77 f3 3c
       -0.13176373 0.040808856 0.48929116 0.029720008
0000d0 ad a2 cc 3c d4 5b ce 3d de 6e 80 be 83 4f 24 3c
       0.024979914 0.100761086 -0.25084585 0.010028723
0000e0 ab bf e7 3d c6 99 98 bd 55 fb f4 3d 00 e5 d5 3b
       0.11315855 -0.07451205 0.11962 0.006527543
0000f0 d4 ba 88 be 14 95 3f 3e e7 7c 82 3e 15 57 a8 bd
       -0.2670504 0.18709213 0.25485918 -0.082197346
000100 54 8a 54 bd e1 1b 93 3e 75 51 32 3e 10 a2 19 be
       -0.051889732 0.28732207 0.17413886 -0.15003228
000110 08 4b 75 be 88 ae 49 3e 35 83 a8 be 81 4e 88 3e
       -0.23954403 0.19695485 -0.32912603 0.26622394
000120 a4 50 86 bd e3 9e 89 bd 9b 98 a2 3d 97 17 06 3e
       -0.0655835 -0.06719758 0.079392634 0.13094936
000130 5d cd f6 3d a8 c3 0b 3d fb ed 10 3e c2 f7 5e 3e
       0.12050889 0.03412214 0.14153282 0.217742
000140 09 10 32 3e 45 94 95 3e db af 28 be fa f4 aa 3d
       0.1738893 0.29214683 -0.16473334 0.08347507
000150 18 08 9f bd 06 cd 83 3e 25 f1 2b be 7d 35 f3 bb
       -0.07765216 0.25742358 -0.16791208 -0.007422148
000160 a0 2e 97 be 05 d0 4e bd 96 0c 0f 3e bf 07 cf be
       -0.2952776 -0.05049135 0.13969645 -0.40435597
000170 7f 05 4f be 84 eb 26 bd ea 32 95 bc f0 05 8e bd
       -0.2021694 -0.04075195 -0.018212754 -0.06934726
000180 b8 85 80 be 4d 05 ad 3c fa 94 84 bc d2 f6 b8 be
       -0.2510202 0.021120692 -0.016184319 -0.3612581
000190 36 37 09 be 36 12 61 be 17 1e 5b bd 67 03 c9 bd
       -0.13399968 -0.21979603 -0.053495493 -0.09815102
0001a0 35 e8 38 3e fa 7a 47 bd 1c 42 0a 3c 01 8a 15 3e
       0.1805733 -0.048701264 0.008438613 0.14603426
0001b0 63 31 11 3e 30 a5 19 be 59 c0 22 bd 30 0f 1a 3e
       0.14178996 -0.1500442 -0.03973422 0.15044856
0001c0 b7 ee 9c bd dd d7 36 3e 29 61 08 bf 8c 64 d3 bd
       -0.07662719 0.17855783 -0.53273255 -0.10321912
0001d0 fc a5 35 bd 42 5f 35 3d f4 f3 92 bd 78 55 14 3e
       -0.04434775 0.044280298 -0.071754366 0.14485729
0001e0 5b 1a a4 bd 0a f9 30 bd f2 e7 87 bd 2b ea 9a bd
       -0.080128394 -0.043206252 -0.06636037 -0.07564195
0001f0 3b b6 ca 3a 51 48 21 3c c2 a4 89 bd 30 f4 e2 bd
       0.0015465686 0.009843902 -0.06720878 -0.11081731
000200 e6 2f 1c bd d2 19 3d be 9f 5c 3f 3d 99 78 d1 bd
       -0.038131617 -0.18466881 0.04671919 -0.1022808
000210 ac e4 39 39 42 a9 cc bc 92 aa 00 3e da c5 79 bd
       0.00017728162 -0.024983052 0.12565067 -0.0609797
000220 53 bf a6 bc 7c 28 40 be 3c df fc 3c 1a 99 16 3c
       -0.020354902 -0.18765444 0.030868165 0.009191776
000230 54 ec 57 be 69 9c 12 be ed 6d 60 3d cc e1 38 3d
       -0.21086246 -0.14317478 0.054792333 0.04513721
000240 79 1e 87 bd c2 3d 8f 3d 67 9f 83 3d 45 ee fe bb
       -0.06597609 0.06994201 0.06426888 -0.007779869
000250 38 7c d0 bd a6 77 e1 bd f5 9d 95 bc 4b 2c de bd
       -0.10179943 -0.11009149 -0.018263796 -0.10848292
000260 76 93 e8 bd ab 94 c3 bb 88 75 e0 bb 54 1e c8 3d
       -0.11356251 -0.0059686503 -0.0068499483 0.0977141
000270 10 76 fc bd 3c a3 df 3c 61 bb 19 be 1d a6 73 bd
       -0.12327206 0.027299516 -0.15012886 -0.05948459
000280 2b 87 1c 3d 50 40 e1 bc d7 02 09 bf ba f9 80 be
       0.038214844 -0.027496487 -0.5351996 -0.25190526
000290 f2 3c a7 3d 69 7d 35 3e b0 14 a4 be ef 31 30 3e
       0.08165921 0.17723621 -0.32047033 0.17206548
0002a0 3d d9 d5 be b0 d0 3b 3e c1 00 3e be ba db 49 be
       -0.41767302 0.18341327 -0.18554975 -0.19712725
0002b0 04 a5 09 be f2 6a 6d be 91 52 e4 bb 8e 68 02 3d
       -0.13441855 -0.23185328 -0.0069678505 0.031837992
0002c0 0f 24 cb bd 18 ab f1 3d 35 cb 5f 3d 35 00 d3 bc
       -0.09918987 0.11800212 0.054637153 -0.025756935
0002d0 b6 a6 0a 3d 37 c8 b2 bd d4 7d 74 be a7 97 54 3c
       0.033850394 -0.08729594 -0.23876125 0.01297561
0002e0 11 3e 3a bc 7e a1 b8 be a8 b5 a5 be 79 ed 5f be
       -0.011367337 -0.3606071 -0.32365155 -0.21867932
0002f0 82 80 36 be 2e e6 5e bc 2e 78 f8 bc d6 28 65 3e
       -0.1782246 -0.013604684 -0.030330744 0.22378859
000300 43 73 c4 bd a5 df 20 be cd ac d5 be 60 52 cc be
       -0.09592297 -0.15710314 -0.417334 -0.39906597
000310 c4 3b 3d bd 12 ab 2b 3e f7 5e de be e0 e3 66 3e
       -0.046199575 0.16764477 -0.43431827 0.22547865
000320 ff 94 54 bd e7 74 9b bd 02 4f be be 1d a8 2c 3e
       -0.051899906 -0.07590657 -0.37169653 0.16861005
000330 6d 9e a1 bd 4d f6 d8 be b7 dc 2a 3e e2 9a bf 3e
       -0.078915454 -0.42375413 0.16685759 0.37422854
000340 fb 43 3a 3e 8c 6d 8f 3c 73 2d 6b 3e 4c 3a ab be
       0.18189995 0.01750829 0.22966556 -0.33442914
000350 a3 f0 d5 3d 52 b4 3b 3c f0 24 aa be 36 a9 12 be
       0.104462884 0.011456566 -0.33231306 -0.14322361
000360 31 81 12 bf 98 7c f7 be 3d 26 6a be af 1b 21 bb
       -0.5722838 -0.48337245 -0.22866149 -0.002458315
000370 26 2f 0f be fd 95 49 bb 04 c0 c4 3c 30 4b b3 3e
       -0.1398283 -0.0030759566 0.024017341 0.350183
000380 e8 5e 36 3d e3 51 89 3d ec 74 79 3d fd 5e ec bc
       0.044524103 0.06705072 0.06090252 -0.028853888
000390 6a d9 3e be 3a 4b 49 3e a8 13 03 bd be 6e 7b 3e
       -0.18637624 0.19657603 -0.032001168 0.24553964
0003a0 02 7d 95 bd e1 1c dd bd 28 ff 12 bd 0b 0a bf 3d
       -0.07299234 -0.10796524 -0.035887867 0.093280874
0003b0 86 48 32 3e 8a 8e 35 be a5 8d 58 3d 4f 95 08 3e
       0.17410478 -0.17730156 0.052869458 0.13338207
0003c0 3d 3d 5a 3b ea 41 07 3d c9 0c b6 bc 5a de 25 3e
       0.003330066 0.033021845 -0.022222893 0.16198102
0003d0 9f c8 44 3e d6 da 10 3e d1 75 63 be 0b 1c 0b be
       0.19217156 0.1414598 -0.22212912 -0.13584916
0003e0 43 53 3c bd e9 b0 52 be 16 af c7 3d ea 6d 3d bc
       -0.045977842 -0.20575298 0.09750192 -0.01156185
0003f0 7b 9b 0b 3e e9 ab ca 3d db 30 09 3c 8c df 1e 3e
       0.1363353 0.098960705 0.008373464 0.15514964

cde_func.linear4.bias f4 [128]
000000 ad df 20 be 95 33 63 3d 0d bd ca bd 74 cb 06 3e
       -0.15710326 0.055469114 -0.0989934 0.13163549
000010 bb 85 db 3d a7 a8 f1 be ba ff 3b be 8c c7 9c bd
       0.107188664 -0.47198984 -0.1835927 -0.07655248
000020 de 67 27 be 14 c2 45 3e 6f 95 17 be 08 e3 3f 3d
       -0.16348216 0.19312316 -0.14803098 0.046847373
000030 01 a0 0c be 0e 01 8d 3d 43 5e 9d bd e3 13 9e 3e
       -0.13732912 0.06884967 -0.076839946 0.30874547
000040 a3 ab 1c be e1 80 22 3e a9 c5 ad 3e f0 e6 84 3e
       -0.15299849 0.15869476 0.33939865 0.2595744
000050 ad cd 23 be 84 75 4a 3c b9 12 85 3e f4 12 80 bd
       -0.15996428 0.0123571195 0.25990847 -0.06253615
000060 1b ac 23 be 05 04 e4 bc 1a fc f5 bd 8f 0d 19 be
       -0.15983622 -0.027833948 -0.12010975 -0.14946578
000070 6d 1f 69 bd b0 68 77 bd 78 e9 83 3d 02 e8 dd bd
       -0.056914736 -0.060402572 0.06441015 -0.108352676
000080 38 ef 0d be 43 e4 c4 bd 75 55 bf 3e a2 a7 c5 bc
       -0.13860786 -0.0961385 0.37369886 -0.024127785
000090 ff 93 e5 3d 1c 3d 42 3d e5 4d 14 be f4 61 53 3e
       0.11209869 0.04742156 -0.1448284 0.20642835
0000a0 4a 09 36 3e e4 fa ad 3d 71 25 9f bd d7 95 5e bd
       0.17776981 0.08495119 -0.07770813 -0.054342117
0000b0 72 10 ad bd 1d dd 29 bd 5d 75 f5 bd 70 da 64 be
       -0.08450402 -0.041470636 -0.11985276 -0.22348952
0000c0 20 02 12 3e 63 5d 5b 3e 29 f7 df 3c c1 d6 90 bd
       0.14258623 0.21422343 0.027339535 -0.07072211
0000d0 53 28 c4 bd 8a 49 ff 3d 9d 2c cf 3d 92 d5 65 3c
       -0.09578004 0.12465198 0.10115931 0.01402797
0000e0 15 f3 b0 bc d8 60 89 be a5 57 ae 3d e8 5f 80 3e
       -0.021600286 -0.26831698 0.085128106 0.2507317
0000f0 b4 a4 09 be 31 84 a6 3e 95 43 13 3d 03 b1 e5 bd
       -0.13441736 0.3252273 0.035953123 -0.11215403
000100 9a 54 bd bd 4e 00 9b be 97 b5 0b be b7 ba 87 3e
       -0.09244652 -0.3027367 -0.1364349 0.2650964
000110 67 0c 19 bd 23 25 e6 3d 51 b7 76 3e cc 61 28 3e
       -0.037365343 0.11237552 0.24093367 0.16443557
000120 1b 3d e4 bd b9 e0 88 be 35 d6 98 3c ba 7b 09 3e
       -0.111444674 -0.2673395 0.01865683 0.13426104
000130 7b 73 2c bd 3d 47 dd 3d b1 bc ad 3c 9f e5 07 3e
       -0.04210232 0.10804603 0.02120814 0.13271187
000140 ea 29 93 bd c8 12 83 3e 0d 69 9f bd b3 58 ac 3e
       -0.07185729 0.25600266 -0.07783709 0.33661422
000150 3b c0 80 bd 43 9b 2d 3e d0 52 98 bc 8c 26 77 3e
       -0.06286665 0.16953759 -0.018594176 0.24135798
000160 fa 63 00 bd 6f 82 ac bd 2f a3 22 bd 5b e6 2d 3e
       -0.031345345 -0.08423316 -0.039706405 0.16982405
000170 c4 16 60 bd 1a d6 02 3e bd 63 22 3e 67 41 f6 bd
       -0.05470921 0.12776986 0.1585836 -0.12024193
000180 2b f2 99 3c 35 76 c2 be 6d cf 89 be 0d 27 94 3e
       0.018792232 -0.3798081 -0.26916066 0.28936043
000190 2e f2 1c 3d 80 2d 93 3d 48 1f fc 3d 0a 29 18 3e
       0.038316898 0.07186413 0.12310654 0.14859405
0001a0 06 47 8b 3d c1 c1 f8 3e 7d 7f 48 3e ac 66 c4 bd
       0.06800656 0.48585322 0.19579883 -0.095898956
0001b0 0f 33 f9 bc b1 42 48 bc 94 af 27 3e 00 70 dd 3d
       -0.030419854 -0.012222932 0.16375571 0.10812378
0001c0 27 df a4 bd 7b fa 3a 3e 76 4e 28 bb 62 87 e4 3d
       -0.080503754 0.18259613 -0.0025681532 0.11158635
0001d0 41 94 a7 bd 04 42 6f 3d 62 17 f9 bd 30 27 20 be
       -0.08182574 0.058412567 -0.12162663 -0.15639949
0001e0 96 d8 df 3c e5 57 02 38 77 a5 84 3d 88 09 0f 3e
       0.027324956 3.1076273e-05 0.064768724 0.1396848
0001f0 e1 c1 d4 3d 97 73 96 3d 8d ec 6f bd a3 d0 76 bd
       0.10388542 0.07346266 -0.0585752 -0.060257565

cde_initial.weight f4 [32, 4]
000000 6c 9f 33 3e bc 01 00 bf 57 8d 8c bc 97 1b be bc
       0.17541283 -0.50002646 -0.01715724 -0.023206515
000010 70 e2 5b 3d 5b 47 61 bf 2e 5b f9 be 02 33 81 3e
       0.053682745 -0.87999505 -0.48702377 0.25234228
000020 7a d7 ea be 59 f1 b5 3e 7c 24 e0 3d b8 ef 57 3e
       -0.4586752 0.35535696 0.10944459 0.21087539
000030 52 8e af be fb 1c 39 3e 92 0b af 3d ba 0a 96 bd
       -0.3428827 0.18077461 0.08547129 -0.07326265
000040 60 4b b8 bd 8d b4 50 3a c7 7e 52 be 01 48 8f be
       -0.08998752 0.00079614745 -0.20556174 -0.27984622
000050 d4 ba b4 3e c2 9e 8c 3e 9c 6a 16 3c 51 07 2a be
       0.3529879 0.27464873 0.009180691 -0.16604353
000060 ea a6 84 be cb 67 a7 3e 5e 0b a8 3e ad 26 20 bd
       -0.25908595 0.32696375 0.32821172 -0.039099384
000070 20 ca dd 3c c0 67 e5 3d 7b ee 22 3e b7 71 00 3d
       0.02707392 0.11201429 0.15911286 0.031358447
000080 88 67 eb 3e ed 41 d0 bd 2e 17 eb 3e a8 f3 a5 3d
       0.45977426 -0.10168824 0.45916122 0.08103114
000090 fe 0e ef be 65 60 e2 bc d7 47 30 3e 55 7a 93 be
       -0.46691126 -0.027633855 0.17214905 -0.2880427
0000a0 e8 92 29 be 6b ed c5 be 2d 57 97 3d ad 46 68 3e
       -0.16559947 -0.38657698 0.07389674 0.2268321
0000b0 d8 bd 64 3e 23 b2 a9 3d 89 e3 de be f1 2b f9 be
       0.22338045 0.0828593 -0.4353297 -0.48666337
0000c0 30 21 ae 3e a3 72 bf bd 16 f9 a6 be 36 27 1e be
       0.34009695 -0.09348037 -0.32611912 -0.15444645
0000d0 1c dd 3f be ba 95 a4 3e b5 b1 47 3e 65 56 73 be
       -0.1873669 0.32145482 0.19501384 -0.23763426
0000e0 0c 63 94 be 5c 09 a0 3d 55 29 63 3e 06 d2 bb 3e
       -0.28981817 0.07814285 0.22183736 0.36683673
0000f0 d8 b5 67 be 03 17 9f 3e 7c 17 df 3e 31 c0 06 3f
       -0.22627962 0.31072244 0.43572605 0.5263701
000100 1e 7e 86 be be d9 58 be 81 79 2a bf 32 9c 20 be
       -0.26268095 -0.21176812 -0.6659165 -0.15684584
000110 44 fd 51 3e f1 ac 53 be c7 f8 c0 3e 06 79 16 3e
       0.2050677 -0.2067144 0.37689802 0.14694604
000120 4c f8 19 3e 09 e3 45 be b4 73 c1 3d 5b df ae 3e
       0.15036124 -0.19324888 0.09445897 0.34154782
000130 80 e1 d6 3b 5b 9c b4 3d 6b 00 03 3d a9 ef 00 3e
       0.0065576434 0.08818885 0.03198282 0.12591423
000140 e4 12 93 3e 9d b3 81 3e e6 53 27 bf 03 16 b1 3e
       0.2872535 0.25332347 -0.65362394 0.34587106
000150 80 12 5f 3c 78 76 5a 3e 9a 51 97 be 5b 8d 5a be
       0.013615251 0.21334255 -0.29554445 -0.21342985
000160 50 03 96 bd 28 11 da 3e b6 c3 57 3e 37 09 f8 be
       -0.073248506 0.42591214 0.21070752 -0.4844453
000170 66 0c e9 be ec 1b d3 3d 94 83 35 be 4f ad cb bd
       -0.45517272 0.1030806 -0.17725974 -0.09945165
000180 f2 40 82 3e f3 2b 2b bd ce 97 33 bc dd 8c d4 3d
       0.25440174 -0.04178996 -0.010961486 0.1037843
000190 ee bc e7 be 22 d2 94 3e 7f 95 83 3d c3 ed 30 be
       -0.4526133 0.2906657 0.064249985 -0.17278199
0001a0 44 0d 80 3e 5f 51 a3 3e 41 83 69 3e 4b 1b 30 bd
       0.2501012 0.3189802 0.22803976 -0.04299478
0001b0 82 f3 e7 be 30 df ce 3d a6 f6 55 3e 4c 9e c5 be
       -0.4530297 0.101011634 0.2089487 -0.38597333
0001c0 48 76 85 bd 75 3b e5 be 13 53 7e 3e f7 8f 80 3e
       -0.06516701 -0.44771925 0.24836378 0.25109836
0001d0 44 5c 0c be 38 f6 ee 3e 6c 94 31 be 18 b5 14 3e
       -0.13707072 0.46672225 -0.17341775 0.14522207
0001e0 f0 0d f4 be 1c 94 66 bd c2 ee 15 bd 75 fd ca bc
       -0.47666883 -0.05629359 -0.03660465 -0.02477906
0001f0 7a 03 d5 be 3a 4f e8 3b 82 8d e3 3d b8 18 8a 3e
       -0.41604215 0.0070895227 0.11110975 0.26971984

cde_initial.bias f4 [32]
000000 88 27 ee bd 34 be a1 be 29 26 ec 3d 88 cf 36 3e
       -0.11628634 -0.31590426 0.11530716 0.17852604
000010 7a 1f 8e be cf 89 fa 3c 1f e0 3f 3e ad 7a ba be
       -0.2775839 0.03058329 0.18737839 -0.3642172
000020 81 a7 0c 3f a1 9e 5a 3e cf 81 c1 3d ed 2c bf 3e
       0.5494309 0.21349575 0.09448587 0.37338963
000030 8f 42 9b be 5e 9c e6 3e 51 c9 1e be 6d 33 fc 3e
       -0.30324218 0.45041174 -0.15506484 0.49257985
000040 cf d8 f8 3d 68 69 0a 3f 77 6c 87 3c f5 1d 16 3e
       0.12150728 0.5406709 0.016531212 0.14659865
000050 c0 2c 27 3f 2d a3 96 3e ef e5 f5 be b7 c5 a5 3e
       0.6530266 0.29421368 -0.48026988 0.32377407
000060 14 c7 26 3e b7 fa 89 be e5 56 82 3e ad c3 01 3d
       0.1628688 -0.26949093 0.2545692 0.03168075
000070 6c 19 80 be 5e ab 0b be 8d 17 11 3e e0 da a1 be
       -0.25019395 -0.1363959 0.1416914 -0.316123

ode_func.linear1.weight f4 [32, 32]
000000 66 ef dc 3d 59 75 0a 3e dd 7f ef 3d 21 65 f6 3c
       0.10787849 0.13521327 0.1169431 0.030077519
000010 83 b8 15 3e ec 26 0f bd c3 23 69 bd 04 53 0e 3c
       0.14621167 -0.03494923 -0.05691887 0.008686785
000020 c8 24 c5 bd 47 7c c6 bd aa 6e 43 bd e1 12 7a 3e
       -0.09626156 -0.09691673 -0.04771296 0.24421264
000030 a5 ab 8c 3c bd a0 98 3d a2 24 56 3d ca 31 98 3d
       0.01717169 0.074525334 0.05228103 0.074313715
000040 3b 87 5a 3d 40 bd 65 be a6 8f 25 3d 7d b7 d8 3d
       0.053351622 -0.22435474 0.040420197 0.105818726
000050 06 47 81 3e c9 cf 5b bd c8 a4 8a bd 43 23 d8 be
       0.252495 -0.053664956 -0.06769711 -0.42214403
000060 ad 81 4a be 58 f6 fb 3c a8 17 a5 3d 68 69 ac bd
       -0.1977603 0.030757114 0.08061153 -0.08418542
000070 35 34 4d 3e 59 2d bf bd 25 c1 51 be 48 2e 1b 3d
       0.20039447 -0.09334821 -0.20483835 0.037885934
000080 3f f6 1d bb 5a 58 08 be 41 e1 49 3e 69 e5 e9 bb
       -0.0024103073 -0.13314953 0.19714834 -0.0071379435
000090 8b 89 52 bd 36 ca 39 3d 9c 49 a6 3d 75 d5 fc bd
       -0.051400702 0.04535886 0.081195086 -0.12345401
0000a0 7f b8 7e 3d 96 a6 1e 3d db 77 ac b9 e0 3d 49 bb
       0.062187668 0.038733087 -0.00032895696 -0.0030707046
0000b0 c6 b8 3c bd a1 8c 08 be a1 b1 e2 bd 69 bc cf bd
       -0.04607465 -0.13334896 -0.11069036 -0.10143358
0000c0 d1 0c f1 bc 93 81 00 3d dd fb 90 3e bd 6c 9d bb
       -0.029425057 0.03137357 0.28317156 -0.0048042224
0000d0 9d 6f 04 bd aa f4 1a be 45 27 ed bc 0d 70 bb bc
       -0.032333005 -0.15132394 -0.02894939 -0.022880578
0000e0 f4 73 8d 3e af 9e 09 3d f8 6c 9f bc 0d 30 9a bd
       0.27627528 0.033598598 -0.01946114 -0.07528696
0000f0 43 ec 0e be 01 8e 1d be 57 40 e3 bd e5 86 3e bd
       -0.13957314 -0.15386201 -0.11096256 -0.046515364
000100 ab 5b 27 3e bb 66 d2 3c 98 e1 67 bc 06 04 0f 3d
       0.16343562 0.025683751 -0.014152907 0.034915946
000110 64 25 26 3e be 72 be 3d 76 8a 1e 3d 3b fb 17 3e
       0.16225201 0.09299229 0.038706265 0.1484193
000120 ce cf e7 3c 55 92 2f 3d c0 b3 f9 bd 62 04 ed 3c
       0.028297331 0.042864162 -0.12192488 0.028932754
000130 17 18 10 be fc 3a f9 bd 92 ac f8 3d 68 ca 0e 3e
       -0.1407169 -0.121694535 0.1214229 0.139444
000140 17 e0 f1 3d 3d 24 b3 3c 89 f8 35 3d 8f 60 56 bc
       0.1181032 0.021867866 0.044426475 -0.013084545
000150 49 0e 8f 3e cd 42 76 3e fd c5 4b 3e 21 0a 89 3d
       0.27940586 0.2404892 0.19899745 0.06691385
000160 24 0c a2 3d 42 33 c8 bd 21 86 13 be 8e 00 5a be
       0.07912472 -0.09775402 -0.14406635 -0.21289274
000170 cd f3 0f 3e b8 29 a6 ba 6f 5c 8e bd 34 a7 d2 bd
       0.14057846 -0.0012677228 -0.06951224 -0.10285798
000180 58 b3 70 3c 5a 1e 1d be 60 57 08 3e 8d f6 55 3d
       0.014691196 -0.1534361 0.13314581 0.052237082
000190 d8 a1 16 be 12 43 0c 3e 72 90 26 be 71 68 3a bc
       -0.14710176 0.1369746 -0.16266039 -0.01137744
0001a0 2c c4 85 3b c6 80 c5 3d fb f8 a5 be fd 49 2e 3d
       0.0040822234 0.09643702 -0.3241652 0.04255103
0001b0 7c 8a 9a be f6 ac 92 be db 1d ab 3d 18 d3 4f 3e
       -0.3018378 -0.28647584 0.08355304 0.2029537
0001c0 77 b4 b9 bd b1 32 17 3e 2d bc 84 3d f5 c9 f3 bd
       -0.09067624 0.14765431 0.06481204 -0.119037546
0001d0 78 28 03 3e 57 2d 51 3e b2 c5 05 bd 03 40 fc 3c
       0.12808406 0.20427452 -0.03265924 0.030792242
0001e0 18 0d 16 3e 88 d9 a4 bd 21 64 1c 3e a2 03 ef bd
       0.14653432 -0.08049303 0.15272571 -0.11670615
0001f0 bd 6f c8 bd 95 be 12 3e cd 97 38 bd 9d 96 ca 3e
       -0.097869374 0.14330514 -0.045066644 0.39568034
000200 2e 19 94 3d 49 b2 0b 3d c8 0e 3d be ea e1 dd 3d
       0.07231365 0.034105573 -0.1846267 0.10834105
000210 2b 6d 41 3e 45 f0 1f 3d f7 a7 c4 3d 89 42 af 3c
       0.188893 0.0390475 0.09602349 0.021394031
000220 b9 58 1e bd 42 e0 ba 3d 2a a6 0d bc 84 92 d7 bc
       -0.03865883 0.09124805 -0.008645574 -0.026314981
000230 4e 27 93 be 20 30 cf bd 34 f8 01 3d e9 03 d9 bc
       -0.28740925 -0.10116601 0.031730846 -0.026491122
000240 b4 ee 0a be 6a ee a7 bd 4d 9a 24 3e 06 6a 40 bd
       -0.1356762 -0.08199771 0.16074486 -0.04697611
000250 50 99 18 bd 47 8a 2a be 53 8e 61 be 78 ae c6 3d
       -0.037255585 -0.16654311 -0.22026949 0.09701246
000260 8d e0 b9 bd f0 41 16 be b7 75 06 be 11 a8 21 3e
       -0.09076033 -0.1467359 -0.13130842 0.15786768
000270 ca fc 10 be d1 41 68 3d 12 97 60 bd 81 aa f9 3c
       -0.14158931 0.056703392 -0.054831572 0.03047681
000280 96 84 37 bd 65 af 81 3e b3 ec 3b be fa b4 0b be
       -0.04480418 0.25329128 -0.18352012 -0.13643256
000290 3d f1 80 3c 6c 17 ac bd df ec 86 bd 8c 48 3c be
       0.015740031 -0.08402905 -0.06588148 -0.1838705
0002a0 37 19 d8 3c 13 91 b4 bc e7 25 2c 3e db ee 8c bd
       0.02637921 -0.022041833 0.16811334 -0.068814956
0002b0 1e 7e 29 3d 22 47 da 3d d2 4f 51 3c a3 e8 e8 3d
       0.04138004 0.10658099 0.012775378 0.11372497
0002c0 b7 23 09 3e 72 41 a0 be a6 cd 34 bd 9a a8 c2 bc
       0.1339253 -0.3129993 -0.044141434 -0.023762036
0002d0 5f 2f 08 3e ea 84 b8 bc 7b d5 86 bd 1b 7d 96 be
       0.1329932 -0.022524316 -0.06583687 -0.29392323
0002e0 42 7a 21 be 98 48 cc bc 14 c3 32 be 0b 5a 85 3c
       -0.15769294 -0.02493696 -0.17457229 0.016278287
0002f0 7a 9b 0c bd 46 80 d9 bc 68 38 8c bd ab 5e 23 be
       -0.03432796 -0.026550423 -0.06846696 -0.15954082
000300 fa 5b e1 3c 7b 0a 2e 3e d2 53 36 be e2 29 7d be
       0.027509678 0.16996185 -0.17805412 -0.24723008
000310 21 4a 1b be a2 73 28 3e bb 6f fe 3b ad 0f 4a 3e
       -0.15164997 0.1645036 0.007764784 0.19732542
000320 c8 73 b0 bc 9d 68 4e be f9 69 98 3c 06 be 01 bd
       -0.021539584 -0.20157094 0.01860522 -0.03167536
000330 e8 cc a8 bd fd 40 23 3e 08 c9 8c be 45 da eb 3d
       -0.08242208 0.1594276 -0.27497125 0.11516241
000340 aa ba b0 be b1 1c ca 3d 4c bc 88 3d 9a 45 ef bc
       -0.34517413 0.09868754 0.0667654 -0.029207993
000350 31 1c 37 be 5b 4e c7 bd c7 2c 2e be f3 a7 e8 bd
       -0.17881848 -0.09731742 -0.17009269 -0.11360159
000360 cc 7d 78 be 84 98 22 3e a1 2c 00 bd f1 13 e9 bc
       -0.24266738 0.15878493 -0.03129256 -0.028451892
000370 a5 d4 84 3b 8b 57 d6 3d be b8 b9 3d a0 26 3f 3e
       0.0040536695 0.10465916 0.0906844 0.18667078
000380 61 b0 3c be a7 38 26 3e 6c e8 5c 3e f5 02 26 be
       -0.18426658 0.16232549 0.21573037 -0.16212066
000390 60 3b 0a be df 27 38 bd f1 58 50 bd 30 d6 84 3d
       -0.13499212 -0.0449599 -0.05086607 0.064861655
0003a0 90 3c 17 be 31 cb 03 be 7c 6a 28 bd 44 66 b4 3d
       -0.14769197 -0.1287048 -0.041117176 0.08808568
0003b0 0e 5e fc bd e4 59 ec bd f9 43 ae be 54 57 50 bd
       -0.12322627 -0.11540583 -0.34036234 -0.050864533
0003c0 ea 19 15 be 6c 00 a6 bb b4 fa 25 be 6a f8 3c be
       -0.14560667 -0.0050659683 -0.16208917 -0.18454137
0003d0 d8 1f 8a be 54 0b 25 3d cc 35 1e be 91 04 3a 3d
       -0.2697742 0.040294006 -0.1545021 0.04541451
0003e0 97 67 e3 bd 0d 41 16 3e 6a cc 5a 3d d4 b5 17 3e
       -0.111037426 0.14673252 0.0534176 0.14815456
0003f0 20 65 11 be a5 32 2c 3e 1d cd 0b 3e 90 98 24 3e
       -0.14198732 0.16816194 0.13652463 0.16073823

ode_func.linear1.bias f4 [32]
000000 97 75 d4 3b 2c cb 36 bd 7e d7 ac bc 78 b9 1c 3d
       0.0064837444 -0.044627354 -0.021098848 0.038262814
000010 27 15 41 bd 66 43 a5 3d 7c d7 8d bd 6a e8 67 3d
       -0.047139313 0.08069496 -0.06925866 0.05661813
000020 f0 de 1d bd 8e 64 22 3d 66 c9 93 bc 1d 14 5b bd
       -0.038542688 0.039646678 -0.01804037 -0.05348598
000030 2b f7 80 bd ef af aa bd 06 f8 cd bc bb d8 55 bc
       -0.062971435 -0.08334338 -0.02514268 -0.013052161
000040 d7 31 99 bd 28 50 6b bd 72 d5 8f bd 63 04 3c 3d
       -0.07480209 -0.05744949 -0.07023133 0.04590262
000050 6f 6e 05 3e f8 c2 95 3c ec 00 2b bd c1 0c 20 bd
       0.13030408 0.018281445 -0.041748926 -0.039074663
000060 08 49 7c bd 5b fc 7b bd 69 b1 c5 bc 8f b6 15 bd
       -0.061593086 -0.06151996 -0.024132447 -0.036551055
000070 3c 64 6a bd 4b b5 3d bd 62 57 1c 3e 5f 97 ab bc
       -0.057224497 -0.046315473 0.15267709 -0.020946203
