experiments/ERA5Forecasting/logs/lstm_model.pth (torch, 801778 bytes, 10 tensors)

lstm.weight_ih_l0 f4 [512, 2]
00000000: aa1a 633c f558 cd3d 7620 3fbc 2aa7 df3d
00000010: 5560 ccbd cfd2 fc3d 3b9a 663d 1660 803d
00000020: a346 27be 7dda ca3d 580c 23be 2eec 023e
00000030: c275 b03c d37b 81bc 74f5 243b b81d 843d
00000040: e389 0abe b3c1 6f3e b894 a3bb b597 df3d
00000050: 56d1 75bd f940 043e 12a6 14be 1c63 9b3d
00000060: 09fb c5bc d458 b0bc 4364 bb3d 85eb 983c
00000070: 6f4a 50be f2bb d53d f14d 13be 92f8 183d
00000080: 6d8a 3a3d 36c3 a2bd af0f 7a3b a2f2 1d3c
00000090: c49b ad3d 8d9b 5d3c a9ef e03a 742f 073d
000000a0: 298a e5ba a3fa d23d 0cc1 333d a081 9c3d
000000b0: 3cb3 8ebc 7d61 9bbd 99ca e9bd d99e 433d
000000c0: d73b c9bb e4a2 803d cd60 86bd c64f 083d
000000d0: bd1f 5cbc ffe3 9e3d 2e07 04be 2710 c43d
000000e0: 040f 8f3d 9034 2b3d 311e a5bd ead7 a63d
000000f0: eb52 a3bc ff7d be3c 1495 afbd df84 3e3d
00000100: 296a 36bd 1686 023c 079e 8bbd 5d1c 31bd
00000110: ceda 23bd 4f55 60bb 15bc 82bd f4ce d63b
00000120: 758b 76bd d6f0 27bc e1a1 16bd c09a 1abd
00000130: 1807 613d a69f 29bd 0486 0abe 2b4b 4e3e
00000140: 906c 12bd 2573 993d d164 64bc bb4e baba
00000150: 1d10 00be 2879 9c3d d917 633d 80ea 0a3d
00000160: fefe 1ebe f1e1 213e 68dc 533d 6d8b 713d
00000170: 818b 03bc 4486 14bd 85bf 2dbd 8880 0e3e
00000180: 9485 4dbb 8a96 42bd 2668 a43d c8a0 b7bd
00000190: 85e3 debd bafa 6f3d b380 c6bd 4288 62bd
000001a0: 433c b13d 952e d2bd 51e5 c2bd e293 813d
000001b0: f145 3dbd b509 1d3d 7295 bdbd 77ad 043e
000001c0: 0663 74bd 2c40 42bc 820b 8cbd 8014 b63d
000001d0: e43f 85bd 5b7e c63d 7e48 10be 7349 033e
000001e0: 69a5 05bc ff40 e43d 5850 5abc 79fd cd3c
000001f0: 98a9 063c 6c93 423d 5ed0 edbc 53c6 9c3c
00000200: 586a 37bc 114c 42bc 4367 28be 83bb df3d
00000210: 9843 03be 60be f53d cfc6 c8bd 4880 2f3e
00000220: 9d2c debd bdf4 343e 899a 81bd d397 853d
00000230: e4d6 383d c953 c93a 489d 06bb 4904 853d
00000240: dd80 51bd 9829 c73d 9e69 fc3c 063b 4a3d
00000250: f2e6 56be 9481 e53d 0c27 96bd e690 263e
00000260: ec2f 31be 208f c43d bbe2 fbbc 3591 ab3c
00000270: 5e87 75bd 6f93 403d c4c5 93bd dd2c 0e3e
00000280: 29d5 93bd dfbd 45bd 581e 153d 38f1 1b3b
00000290: 55d7 573d b230 58bb 6424 e6bd 7056 123e
000002a0: 6e9d 99bd 0c04 b53c a1bd aa3d 0df7 67bc
000002b0: 9289 9bbd c77b 68bd 54a2 48be 8b01 c23c
000002c0: 37ac 08be d290 93bc 3b01 c83b 7ea5 153e
000002d0: fe29 31bd f4d5 91bd 76d3 19bd 752a 513e
000002e0: 8fe8 a7bd d6e6 3b3e 9e31 58be 0bc0 1a3e
000002f0: d2f9 33bd 89b2 093e fb3d 58ba c4ef 553b
00000300: 1290 d8bd 74d2 c93d 808d 3d3d c6a7 e53d
00000310: f90a b63d 4570 b9bd 7f64 86bd de8a 3d3e
00000320: 0769 23bd e827 6f3c f36a 903d eeff 94bd
00000330: 17f4 00bd 2ccf ef3b 7112 ab3b 5b1b 203d
00000340: 7f5b 81bd 2cf4 2b3e 9faf ffbd 7023 093d
00000350: cc0c 9bbd b23b cd3d 67a7 673c 7781 cd3d
00000360: 26d8 033c 0f6e ae3d 7cac 413c 7453 c3bc
00000370: 3325 9d3a 2e74 44bd 9003 0a3d 5069 343d
00000380: 832c d5bb 0898 8c3c 3645 cdbd d02e 8a3d
00000390: b231 f13b aa8e 383e cfbe 273d 7e89 91bd
000003a0: d304 9abc 991f ff3c b37f 05be a747 ea3d
000003b0: 5f4c b6bc 774c d53d f048 3cbc 9609 213d
000003c0: 5325 983c 8c2d 89bd 1a31 f9bd 0674 4b3e
000003d0: aef4 b5bd f6bd aabd f882 a7bd e7bb ca3d
000003e0: da3d 81bd 2c10 4a3d ab49 ebbd b2f7 a23c
000003f0: 004c 0f3d 4b69 8abd 5fc8 843c d700 55bd
0.013861338 0.10026733 -0.011665454 0.10920556 -0.099793114 0.12344896 0.05629943 0.06268327
-0.1633554 0.099049546 -0.15922678 0.12785408 0.021540526 -0.015806114 0.0025170716 0.06450981
-0.13529162 0.23413734 -0.004992094 0.10917608 -0.06001409 0.1291541 -0.14516476 0.07587263
-0.024167554 -0.021526732 0.09149983 0.018666992 -0.20340894 0.10436238 -0.14385201 0.03734643
0.04554217 -0.0794739 0.003815632 0.009640368 0.084769756 0.013525856 0.0017161268 0.03300424
-0.0017512488 0.103017114 0.043885276 0.076419115 -0.01741945 -0.07586954 -0.114155956 0.04775891
-0.0061411667 0.06281069 -0.06561432 0.033279203 -0.013435301 0.077583306 -0.12893364 0.09573393
0.06985286 0.041798174 -0.08062399 0.08146651 -0.019937 0.023253439 -0.08573356 0.046513434
-0.044534836 0.007966539 -0.06817251 -0.04323994 -0.04000359 -0.0034230535 -0.0638353 0.0065554325
-0.06019159 -0.010250291 -0.036775474 -0.037745237 0.054938406 -0.04141202 -0.13527685 0.20145862
-0.035748065 0.07492665 -0.013940052 -0.0014214137 -0.12506147 0.07640296 0.055442665 0.033915043
-0.1552696 0.15808846 0.051723868 0.058970857 -0.008028866 -0.03626086 -0.042418975 0.13916218
-0.0031360136 -0.047506846 0.08027677 -0.089662135 -0.1088324 0.05858872 -0.09692516 -0.055305727
0.08654072 -0.10262791 -0.09516395 0.063270345 -0.04620928 0.038339335 -0.0925702 0.12956797
-0.05966475 -0.01185612 -0.068381324 0.08890629 -0.06506327 0.09692069 -0.14090154 0.12820987
-0.008157113 0.111452095 -0.0133248195 0.02514528 0.008219145 0.047503874 -0.029030021 0.019137537
-0.011194788 -0.011858956 -0.16445641 0.10924437 -0.12818754 0.11999202 -0.09803545 0.17138779
-0.10848353 0.17671485 -0.06328303 0.06523099 0.04512681 0.0015360053 -0.0020540524 0.06494958
-0.051148284 0.0972473 0.030812081 0.049372695 -0.20986536 0.11206356 -0.07331666 0.16266212
-0.17303437 0.095976114 -0.030747762 0.020943264 -0.05994355 0.047015604 -0.07215455 0.13884301
-0.072183914 -0.04827678 0.03640589 0.00237949 0.05269559 -0.003298801 -0.1123741 0.14290786
-0.075007305 0.022096656 0.0833695 -0.014158023 -0.07594599 -0.05675867 -0.19593173 0.023682376
-0.13346945 -0.018013392 0.0061036623 0.14613912 -0.043252937 -0.071208864 -0.03755518 0.20426352
-0.08198654 0.18349776 -0.21112677 0.15112321 -0.04393942 0.13447012 -0.0008248982 0.0032644132
-0.10574354 0.09854594 0.046277523 0.11213641 0.088888116 -0.09054617 -0.06562137 0.18510005
-0.039895084 0.014596917 0.07051649 -0.07275377 -0.031482782 0.007318398 0.0052207042 0.03908859
-0.063162796 0.16792363 -0.12484669 0.03348106 -0.075708 0.100211516 0.014139033 0.10034459
0.008047139 0.08517086 0.011820909 -0.023843504 0.0011989236 -0.04796236 0.033694804 0.044045746
-0.0065055504 0.017162338 -0.100229666 0.0674721 0.0073606605 0.18023172 0.040953454 -0.07106303
-0.018801128 0.031142997 -0.13036995 0.11439448 -0.022253213 0.10414975 -0.011491999 0.039315782
0.018572485 -0.066981405 -0.121675685 0.19868478 -0.088845596 -0.083370134 -0.08179277 0.09899121
-0.063106254 0.04933183 -0.114886604 0.019893501 0.03498459 -0.06758364 0.016208826 -0.052002754

lstm.weight_hh_l0 f4 [512, 128]
00000000: bed7 003d 0f7c 703d 47c8 873d 8c76 e7bc
00000010: 814c 703d 5163 5ebd 3ae3 843d fa3f 92bc
00000020: 36e3 873d 775d 84bd 8fdb 85bc f5c5 d9bc
00000030: aaf3 9cbd c442 d2bc 7716 8ebb ea85 153d
00000040: 695d 0e3d 5ff8 b9bd 7130 90bd eaa6 2e3c
00000050: f304 92b9 7550 903d 50ab 08bd 48a6 0bbd
00000060: d45c 333d 96b3 14bd 36b1 4b3d e4bc 153d
00000070: 8e12 e03b f11c 4dbd 0184 273d 18eb cbbd
00000080: 3b15 9b3c 748c a2bd 1c80 83bc d9d9 f43c
00000090: a061 cabc cc64 8cbd 20b4 acbd 0f45 af3d
000000a0: 0a9e 6ab9 8614 823d 93c3 143d 5245 97bb
000000b0: b4cb ab3c a2e4 8cbd f34c b33c 1c57 b83d
000000c0: 2a53 ea3c 384b 23bd 6326 d4bd d132 243d
000000d0: c918 dcbc e98c a6bd 2c5d c83d f4b4 4d3d
000000e0: 8274 4f3d c5e5 29bd 467d 8a3d 8e68 86bd
000000f0: 6f02 a73d 4800 3c3d 9189 11bd a9ab 923d
00000100: a18a 3f3d ce26 26bd e8e6 85bb 00e5 963c
00000110: 9ece 873d 8585 34bd baf2 aabc 0471 91bc
00000120: 05b7 c7bb 9845 62bc 697b 9d3d 26dc e23a
00000130: 56e2 c53c 24db 953d b177 b23d 0fcb 75bd
00000140: 5930 da3d ba85 a9bd b360 833c 4f10 f8bc
00000150: b728 a6bd 455c d2bd f7e3 9ebb b0c0 50bc
00000160: 439d 92bd 33c1 d03d 7286 173d 899e c43d
00000170: de52 80bd 3df5 75bd 11ad 2c3d 24c2 9cbd
00000180: fc80 733d eaf2 4d3d 2553 33bd 87bb 92bd
00000190: 1fbd 55bd afcb d6bc e16f c33c 28c9 6a3b
000001a0: 3c4e 843c 0a08 6a3c 0c2a 9ebd 5b02 883d
000001b0: 12fc 8ebd 27f3 38bd 1404 a5bd 38cd 143d
000001c0: afe9 8c3c 94f8 09bd 2496 9ebd db42 59bd
000001d0: 3bb8 423c bd08 95bb 4a55 96bd 7cba 4d3d
000001e0: 13cf 82bc d74b 51bd a00b 83bd 56ef b33d
000001f0: ff05 febc 39f4 1c3d c69c 69bc 5a5d dbbb
00000200: e4a0 84bb 8164 3abd 6c1d 34bd df74 0abd
00000210: 3433 91ba ee25 bd3b 121d 00be 67d8 87bd
00000220: 1f65 07be 5ea9 613d b617 b1bd 3e9e a73d
00000230: e7e3 b6bc a7c0 88bd 192b 6a3d b9ed bf3d
00000240: e708 ed3c 6d32 9fbd caa1 d93d e98c 933d
00000250: 783b 673c 016a c13b c0ae 5bbd 0748 613d
00000260: bdd9 f7bb 95dd c43c fe88 5a3c 38cc d63c
00000270: 1e99 2dbc 0ea5 a3bc 42f7 32bd 254c 93bd
00000280: 19d7 b8bd 9f74 4c3d 49d6 96bd 58aa 1f3c
00000290: df7e 853d 8337 6bbd d155 4a3d e1e4 333d
000002a0: aede 5cbd 9a96 043d c49b 0cbd b1cf 333d
000002b0: 179e c2bc e716 cebd a5cb 493d 0da6 13bd
000002c0: 3038 a13d 0c80 bdbb aa54 f53d 93e6 4abd
000002d0: 2750 c7bd a0bf 4bbd 1eeb 47bd dabc 883d
000002e0: 37b1 afbb 58d4 cdbd feb5 123d 5e93 4e3d
000002f0: 6156 b0bd 168d a6bc 4de3 813d 1acd 803c
00000300: 5b83 963d e6c2 81bd 4897 0dbd 932d 92bd
00000310: 4c38 df3a 7c53 d43a 56d8 d6bc 873b f2bc
00000320: aa81 943c 1513 72bd 4027 09bc 96fc 80bd
00000330: c769 24bd 40ba b0bd b4f8 7dbd a208 1abd
00000340: bb05 0a3c df7a 793d 952a 9ebd 4708 c3bc
00000350: a04e 14bd 1f6c 8ebd 23d2 be3d 346a ccba
00000360: dfe2 dc3d bfc6 fbbc 7819 5b3c 259c aabd
00000370: fa43 8bbd 933f 01bc f21f d4bd bb15 84bd
00000380: e6af 8d3b a8e9 863c 5e00 933d c89f 10bd
00000390: 8eba a9bd d4e5 8abd ed41 b33d 9a01 003e
000003a0: 6d49 60bd aba6 8a3d d65c 7d3d 9337 033e
000003b0: 0a9e c4bd c634 73bd 14ff 2abd c91c 14bc
000003c0: 29d4 37bc 9b12 ebbb 98e3 463d fff7 633b
000003d0: 841f a0bd 6415 c9bc 8d1d 693d 1733 72bd
000003e0: 05d6 35bd 34fe a6bd 0bb7 b33c 9e13 d33c
000003f0: 2e5d babc 5978 3bbc fa19 95bc 3468 22bc
0.031455748 0.05871206 0.06629997 -0.02825477 0.05866671 -0.054293934 0.064886525 -0.017852772
0.06635134 -0.064631395 -0.016340045 -0.026583651 -0.07663663 -0.025666602 -0.004336174 0.036504664
0.03475705 -0.09080576 -0.070404895 0.010659913 -0.00027850977 0.07046596 -0.0333665 -0.034094125
0.0437897 -0.03630408 0.04972955 0.036557093 0.0068381494 -0.05007643 0.040897373 -0.0995695
0.018931022 -0.079369456 -0.016052298 0.029889034 -0.024704754 -0.06855163 -0.084327936 0.08558094
-0.00022374853 0.06351571 0.036319327 -0.004616418 0.020971157 -0.06879546 0.021887278 0.0900099
0.028604109 -0.039866656 -0.10358884 0.040087525 -0.026867287 -0.08132345 0.09783396 0.0502214
0.05064822 -0.04147889 0.06762175 -0.06562911 0.08154761 0.045898706 -0.035531584 0.07161648
0.046763066 -0.04056435 -0.004086364 0.018419743 0.06631206 -0.044072647 -0.020867694 -0.017754085
-0.0060948157 -0.013810538 0.07689554 0.0017308041 0.024155777 0.073171884 0.087142356 -0.060008105
0.10653753 -0.082774594 0.01603732 -0.030281214 -0.081132345 -0.10271505 -0.004848953 -0.012741253
-0.071589015 0.101931 0.03699345 0.09600551 -0.06265806 -0.06004833 0.042157236 -0.07654217
0.05944918 0.05028049 -0.043780465 -0.07164674 -0.052182313 -0.02622017 0.023857059 0.0035825465
0.016150586 0.014284143 -0.077228636 0.06641074 -0.06981672 -0.045153763 -0.080574185 0.036328524
0.017201273 -0.03368433 -0.07743481 -0.053042274 0.011884744 -0.004548161 -0.07340486 0.050226673
-0.015967881 -0.051097717 -0.06398702 0.08785884 -0.031008719 0.038318846 -0.014258569 -0.006694478
-0.0040475 -0.045506004 -0.04397337 -0.033802863 -0.0011077882 0.005772344 -0.1251109 -0.06633072
-0.13222168 0.05509316 -0.086471006 0.08184479 -0.02232547 -0.066773705 0.057170007 0.09371514
0.028934909 -0.0777329 0.10626562 0.07204611 0.0141133 0.005902529 -0.05363345 0.05500033
-0.007563798 0.02403144 0.013338326 0.026220426 -0.010595588 -0.019976165 -0.043692835 -0.07192258
-0.090254016 0.049915906 -0.073650904 0.009745203 0.06518339 -0.057425987 0.049398247 0.043919448
-0.0539233 0.032370187 -0.034328237 0.04389924 -0.023757024 -0.10062962 0.049266476 -0.03604703
0.07872045 -0.0057830866 0.11979039 -0.0495363 -0.09732085 -0.049743295 -0.04880821 0.066766456
-0.005361702 -0.10050267 0.035818093 0.05043351 -0.086102255 -0.020330947 0.06342182 0.0157228
0.07349273 -0.06336002 -0.0345681 -0.07137599 0.0017030328 0.0016199197 -0.026226204 -0.0295694
0.018128235 -0.05910023 -0.008371174 -0.06298177 -0.04013994 -0.08629274 -0.06200476 -0.03760589
0.008424218 0.060908195 -0.07722966 -0.023807658 -0.036207795 -0.06954216 0.09317424 -0.0015595616
0.1078546 -0.030734418 0.013372771 -0.083305635 -0.06800075 -0.007888692 -0.103576556 -0.06449457
0.0043239472 0.016468838 0.071778044 -0.03530863 -0.082875356 -0.067821175 0.08752809 0.12500611
-0.054757524 0.06770071 0.061856113 0.12814169 -0.09600456 -0.0593765 -0.041747168 -0.009040066
-0.0112200165 -0.007173849 0.048556894 0.0034785268 -0.07818511 -0.024546333 0.056912947 -0.059130754
-0.044393558 -0.08153954 0.021937868 0.02576619 -0.02274951 -0.011442267 -0.018200863 -0.009912539

lstm.bias_ih_l0 f4 [512]
00000000: aff9 1bbd 763a 6c3d 37a9 033e e842 9ebc
00000010: 1f79 1a3e 5b4f 3f3d 1282 73bb cdb3 693d
00000020: c4c8 d73d 9e74 d43c 6254 de3d 76a2 0e3e
00000030: d161 c13c 4867 d43c ab3c b63d 3a4c da3d
00000040: 8c4c 60bc 9ef2 bf3b fbb5 ab3d 166d 873d
00000050: 9e17 60bc f519 c1bc c64a 84bd 6b24 0c3d
00000060: eeb6 42bd b08a 453d 85ab 81bd 9821 bf3d
00000070: dcaf 5ebd 0b63 75bc 34ab e03d 9052 823d
00000080: 501a 76bc 746f 80bd 1cba 9abc ec35 ef3c
00000090: ee20 d0bb 7d1d 363d 624a 6d3d e2d4 27bc
000000a0: 637f 953d 5eeb 993d d3d0 f43c 72e6 803d
000000b0: fa7f 9f3c 689a cb3d ff89 c33d 99b5 21bd
000000c0: 9476 25bd be61 86bd db44 d23d 40a8 83bd
000000d0: 523b 38bd c280 b03d afa7 ae3d 8ff3 8fbc
000000e0: 44cf b63d 3c96 d43d 3e8d f33d aa66 0b3e
000000f0: be1e 40bd 0127 9e3b d952 d4bc 33e6 6fbd
00000100: 7815 8dbc f989 fe3b 164b 7bbb 4c48 973d
00000110: 476e e93d 9221 8c3c d807 903d 51f6 c23c
00000120: 1ea5 4bbd 5d05 e93c 6732 5b3e be68 923d
00000130: f77d b93d 0104 3cbc 6928 8eba 82a8 ec3d
00000140: 42de 9f3c 0d76 dd3d 0d52 3cbd a228 d7bc
00000150: 6dd0 963c 25f9 b03c 8241 6e3d 65fe 0d3e
00000160: 286b 93bd 7c71 883d 1d9d e13c cdf8 883d
00000170: 653f c83d 3f1b 023e aa22 393d 7126 82bd
00000180: 0941 053e dda7 99bd 5a1f 0e3d db0b da3c
00000190: 61ef 82bd 798e 953c ee25 33bc 3b47 b4bd
000001a0: 533e 2b3d 4855 eb3d 69b9 703d 087e f13b
000001b0: 05c9 6e3c 6af6 a7bd b8ba 523d 5d5b babb
000001c0: b773 f13c 05ba 293d 305e 763d ecf8 56bd
000001d0: d63f 023e a25e ed3d d4d6 173e dc1a f13b
000001e0: 1c86 973b 0d70 2b3d e0b4 5f3d 94bb 893d
000001f0: b442 113e 772f a13d 2005 273d a2e1 793d
00000200: 06e5 5a3c 874b 923c 1587 b5bc 2a85 7cbd
00000210: ff64 b1bc 4c0c 8cbd 403e a1bc be2c 883d
00000220: 1d75 86bd f371 263c 3ca7 a2bd 3c1b c0bd
00000230: 14aa 8b3d 6e1c 863d d598 7ebd a776 a23c
00000240: ab4c ecbb 0eb1 963d bc01 ef3c bc8b 9c3c
00000250: 5cdd c13d 7bbe d23c 643b ca3d 7299 95bd
00000260: db9b 9d3c 1df8 213d cc0e 82bd b080 1e3d
00000270: 4b35 163d 40b0 be3d d5d5 40bd 7c00 acbd
00000280: 1610 92bd fda6 89bd 4415 0d3c 064a 363d
00000290: a034 6abd db74 e03c 248c a6bd 7892 823d
000002a0: 33a8 5a3c 9499 21bd 5562 82bd 9f9d 50bd
000002b0: 675e 66bc bc9e 83bd fe3b 843d 267f 893d
000002c0: 97cf a2bd 7745 1d3a f426 c1bc 6341 4cbc
000002d0: 4200 de3c d48b d43b 90d1 49bc 1c58 d5bc
000002e0: 7e6a 7c3d 4942 153c 198c bd3c a9c5 94bc
000002f0: 3ec2 83bb 6a84 e53c 6e44 c5bc 63ec b3bc
00000300: f119 333d e373 553d c088 433d 3a26 34bc
00000310: e077 a3bc 8ad0 b03c 4284 a8bd d897 793d
00000320: 7771 a73d cd82 9dbd cda1 06be 81d8 6e3d
00000330: 429d 7abd 8748 56bd 3ce5 d33c c4cb be3d
00000340: 59cb dcbc 8e22 4d3d 8700 3a3c a892 2f3d
00000350: 3e27 983d 2ed1 01bb 8845 1b3d 44ff d9bd
00000360: b277 9a3d 3c41 793d fb5e 843d b863 243d
00000370: 3f2f 83bd bf1a f33b 5f6b b7bc 8826 943d
00000380: d2bd 83bd b455 05bb a2d3 b13d 187c 8e3c
00000390: 312c 8d3d ef9a b7bc 16aa 75bd 766d 79ba
000003a0: 6fe7 653c ee2d ac3c ee69 ac3c 0232 3e3d
000003b0: 1dba 62bd e06d a33d 748f 06bd 68de 993d
000003c0: 3444 bb3d 3f79 473d e86c 79bd 74d5 b9bd
000003d0: 998e b7bc ea07 4e3b 3cab 7c3d b519 a2bd
000003e0: eab4 9b3d 2ea1 27be eb5a 403d 2b6b 313d
000003f0: f0a6 153d 517e c43c 9b59 b43d 456e 4abb
-0.038079914 0.05767294 0.12857519 -0.019319013 0.15085267 0.04670654 -0.0037156385 0.057056237
0.1053634 0.025934514 0.108559385 0.13929161 0.023606213 0.025928155 0.0889829 0.1065907
-0.013690125 0.0058577796 0.083843194 0.06612603 -0.013677506 -0.023571948 -0.064595744 0.03421442
-0.047537737 0.048227966 -0.06331543 0.093325794 -0.05436693 -0.014977227 0.109701544 0.06363404
-0.015020922 -0.06271258 -0.018887572 0.029200517 -0.006351582 0.044461716 0.057932265 -0.010243626
0.07299688 0.07515596 0.029884731 0.06293954 0.019470204 0.0994156 0.09547805 -0.039479826
-0.040396288 -0.065616116 0.102670394 -0.064285755 -0.044978447 0.086183086 0.08528077 -0.017572192
0.089262515 0.103802174 0.11892174 0.13613382 -0.046904318 0.004826427 -0.025918411 -0.058569144
-0.017222151 0.0077679125 -0.0038344315 0.073868364 0.11397987 0.017105851 0.07032746 0.023799093
-0.049718015 0.02844494 0.21405946 0.07148884 0.09057229 -0.011475564 -0.0010845783 0.11555578
0.01951516 0.10813532 -0.045976687 -0.026264492 0.018409932 0.021603176 0.058167942 0.13866575
-0.07198173 0.066622704 0.027540738 0.0668808 0.097777165 0.12705706 0.045199074 -0.06354988
0.1301309 -0.075027205 0.034697868 0.026616981 -0.06393314 0.018256413 -0.010934336 -0.08802649
0.041807484 0.114908755 0.05877057 0.0073697604 0.014574294 -0.08201297 0.0514476 -0.005687161
0.029474122 0.041437168 0.060148418 -0.052483484 0.12719664 0.115903154 0.14828044 0.007357938
0.0046241414 0.041854907 0.054615855 0.06725231 0.14185601 0.07870381 0.040776372 0.061006196
0.0133602675 0.01785828 -0.022159139 -0.061650433 -0.021654604 -0.06838283 -0.019683003 0.06649159
-0.06565306 0.010159004 -0.07942054 -0.093801945 0.06819549 0.06548391 -0.06215747 0.019831968
-0.007211288 0.07357989 0.029175632 0.0191096 0.09466049 0.025725594 0.09874609 -0.07304658
0.019239357 0.03954326 -0.063504785 0.038696945 0.036671918 0.09310961 -0.047078926 -0.0839853
-0.071319744 -0.067213036 0.008611027 0.044504188 -0.057179093 0.027399471 -0.081321985 0.06375593
0.013345766 -0.039453104 -0.063664116 -0.05093157 -0.014060593 -0.064267606 0.06456755 0.06713705
-0.07949751 0.0005999426 -0.023578145 -0.012466761 0.027099732 0.0064863954 -0.01231803 -0.02604299
0.061624996 0.009110042 0.023138093 -0.018160658 -0.004020958 0.028017242 -0.024080481 -0.021963304
0.04372591 0.05211247 0.047737837 -0.010995442 -0.019954622 0.021583814 -0.08228351 0.060935825
0.081759386 -0.07690964 -0.1314766 0.058311943 -0.06118513 -0.05231526 0.025866143 0.09316209
-0.026952432 0.050081782 0.011352665 0.04286447 0.0742936 -0.0019808519 0.037908107 -0.10644391
0.07542361 0.060853228 0.064634286 0.04013416 -0.06405496 0.00741896 -0.022390066 0.07233912
-0.0643269 -0.0020345272 0.08682944 0.017393157 0.068931945 -0.022412745 -0.05997666 -0.0009514907
0.014032229 0.021017995 0.021046605 0.04643441 -0.055353273 0.07979941 -0.03285165 0.07513124
0.09143868 0.048699614 -0.060894877 -0.09073916 -0.022406863 0.0031437823 0.06168674 -0.079150595
0.07602866 -0.16370079 0.046961706 0.043315094 0.036536157 0.023986014 0.088061534 -0.003088848

lstm.bias_hh_l0 f4 [512]
00000000: 8634 ffbc 5460 d63d f715 1e3c e2b4 16bd
00000010: 7cdc 843d 7bdb 103e 2c38 bf3d 0282 303d
00000020: 518d 983d b51a 823d ee9b 1abd 8630 523d
00000030: b158 443d 4442 edbc aaed f23d d71e 36bc
00000040: bcb8 13bd 7a7c 593d face 97bc ee59 a43d
00000050: 1af6 833b 7b52 e7bc 1449 61bd 8ae6 5a3d
00000060: ef8d be3d 441f b03d 3248 b73d fbdb b93d
00000070: 536d ca3b dcf1 d63d f702 65bc 3102 963c
00000080: 2704 01bd 66dc a23d 2e64 e9bc e520 3ebd
00000090: a68e 5f3d 5c97 ff3c 7539 153d df38 8a3d
000000a0: 4f8a 353d 2390 2e3d 9d09 273d fd33 413d
000000b0: 4aef bb3d 7c9b 473c 1e17 cf3d 163a 25bc
000000c0: 2676 893d c352 cc3d 9584 51bc 4230 f5bc
000000d0: fe57 7ebd 38a0 da3d a983 d93d c867 03bd
000000e0: 1a74 7ebc 22e7 0a3e 5dd9 143e d1db b23d
000000f0: 04c8 bc3d 9b56 143e eeee 963b 1b1a 093b
00000100: 73e7 953d 6632 573d 4ffa 093e e747 873c
00000110: 2936 c93d 4201 113e c94e 903d 04f9 c53c
00000120: 219a 983d df3e b53a 03c1 bb3d 093f 883d
00000130: 1e0a 223e 3c1f e33c 40c3 853c 03dd 203c
00000140: 1c0b 163d 0d0f 8f3d d1b3 d0bc a6c8 ae3d
00000150: e610 943d 72f7 703d 5398 c33c afc7 f73d
00000160: fb90 9cbd d87e fd3d 91e6 2f3d b30e 323e
00000170: ace3 da3d f1a3 a83d c1dd e13d 9d11 d4bb
00000180: 0a9b 1e3b 7006 363d 3bca f8bc be80 c83c
00000190: 1445 16bd a701 b93d 3854 5b3c 4e23 b0bd
000001a0: 1338 e0bc d83c 0b3d aa39 c83d d55d 0fbd
000001b0: 2e71 00bd 5d49 873d 256b 933c ed7d b53c
000001c0: a9a9 0ebd e408 cc3d cb67 8b3d af00 003d
000001d0: 8a2a 563d 8202 e43d d294 bd3d be44 66bd
000001e0: eacb 1abd b37a af3d d191 ca3c c68a b53d
000001f0: 7f49 053e 4584 0d3d 3843 9bbd 4099 113c
00000200: 20ba 90bc 6467 fbbc 362b 1b3d 442f 3c3c
00000210: ed74 7dbd 71a4 09bd f0e1 833d b0d6 19bc
00000220: ffd0 30be ec24 85bd 770c 6ebc 583e 2fbd
00000230: d8c4 aebc ec39 583d 08ca e7bd 721e 183c
00000240: 873d 0f3d c4ca 833d 43af 963c 725f a93d
00000250: b01c 9f3d 5347 913c 99d8 95bb dd84 143d
00000260: 22b3 003c fdd3 913d 4c1b f53c ce93 503d
00000270: 46af 95bb 2546 60bb 52f7 863d a662 8fbd
00000280: 4ffa 523d 8b9d 3cbc 61aa b63d 2d9b 74bd
00000290: 2f56 953d 428f 143c 0854 58ba 21d8 b7bc
000002a0: 6f02 7fbd 2541 60bd 8cec e63b 4925 1cbd
000002b0: a57f be3d 8dde 0ebd 78f0 d03d 19cd d43c
000002c0: 49d7 a5bd fab6 2f3d bbff 2d3d fd59 a2bd
000002d0: b0cf ad3d b1a7 833c 3175 b5bd efc5 0c3c
000002e0: a034 973d e97c f7bb a54f 963d b15d 973d
000002f0: 845f 8cbd 8e33 9c3d b0b3 283d 2ea1 04bc
00000300: f1f1 77bd 0441 cd3d 9bb6 64bd df3f 99bd
00000310: 3d32 a93d 32da 74bd f920 51bc 1e2d 72ba
00000320: 1111 d6bb cb93 253d 73e1 afbd 050b 013d
00000330: 3e5e 2e3d dbf5 67bd 8170 3fbb f516 9f3a
00000340: d0b4 913d 9d43 1c3c 20c7 5dbd 5a98 43bc
00000350: 614a 913c 89e4 b4bd ab2f 82bd 7c2d 7b3b
00000360: eaa3 883d 8a0b 8e3c 16d1 6abd a684 193d
00000370: b7df 84bd fd07 17be 88d2 16bd ee92 9ebd
00000380: 9dbf ec3c da44 51bc 238f 443d 29fc 96bd
00000390: 69e5 06bd cd15 843c 90fb 9e3d acbf 773c
000003a0: 1dfb b6bd 0c1c 5d3d 9418 8a3d 5593 7e3c
000003b0: b38d a33d 60a7 48bd 3bbe 533d d7d5 ffbc
000003c0: f3ce ad3d f021 d0bc 43c4 02bd f73c a2bd
000003d0: 9910 12bd 136f b6bc 558e 29bc 40a1 263d
000003e0: 7d2d 853d b26d ffbd 8d09 01bd 6015 96bd
000003f0: 9db4 653c f691 b33c 608d 913d 9526 75bd
-0.031152975 0.10467592 0.0096487915 -0.036793597 0.064873666 0.14146225 0.09336886 0.043092735
0.07448829 0.0635275 -0.037746362 0.051315807 0.047936145 -0.028962262 0.11861737 -0.011115751
-0.03606485 0.053097226 -0.018531311 0.08024965 0.0040271403 -0.028237572 -0.055001333 0.053442515
0.093044154 0.085997134 0.08949317 0.09075161 0.0061775832 0.1049535 -0.013977758 0.018311592
-0.0314981 0.07952194 -0.028490152 -0.04641809 0.0545794 0.031200103 0.03643175 0.067491286
0.044321354 0.04261793 0.040780652 0.04716872 0.091765 0.012183066 0.10111831 -0.01008465
0.06711988 0.09976723 -0.012787958 -0.029930238 -0.062095635 0.106750906 0.10620815 -0.032081395
-0.01553061 0.13564733 0.14536043 0.08733333 0.092178375 0.14486162 0.0046061194 0.00209201
0.07319536 0.052538298 0.13474391 0.016513778 0.09824783 0.14160636 0.07046277 0.024166591
0.07451273 0.0013827941 0.091676734 0.06652648 0.15824172 0.027724855 0.016328454 0.009818318
0.03663169 0.069852926 -0.025476368 0.085343644 0.072297856 0.058829732 0.023876345 0.120986335
-0.0764484 0.12377709 0.042944495 0.1738842 0.10687956 0.08234394 0.11028624 -0.006471826
0.0024201297 0.044439733 -0.030369869 0.024475452 -0.03668697 0.09033518 0.0133867785 -0.08600484
-0.027370488 0.033993572 0.097766235 -0.035001595 -0.031357937 0.0660579 0.017995426 0.022154773
-0.03482977 0.09962633 0.06806906 0.031250652 0.052286662 0.11133291 0.09256901 -0.0562179
-0.037792124 0.08568325 0.024727734 0.088643596 0.13016318 0.03454997 -0.0758118 0.008886635
-0.017666876 -0.030688949 0.037883006 0.011485878 -0.061879087 -0.03360409 0.064395785 -0.009389564
-0.17267226 -0.06501183 -0.014529339 -0.042784065 -0.021334097 0.052789614 -0.11317831 0.0092846025
0.034970786 0.06435159 0.018394118 0.08270158 0.077691436 0.017734205 -0.0045729396 0.03625952
0.007855209 0.07120512 0.029920243 0.050922208 -0.0045680134 -0.0034221497 0.06590141 -0.070012376
0.051508244 -0.011512171 0.08919216 -0.0597183 0.07291829 0.009067358 -0.0008252268 -0.022441925
-0.06225818 -0.054749627 0.0070472416 -0.038121495 0.0930169 -0.03488021 0.10202116 0.025976704
-0.08097703 0.04289911 0.04248021 -0.0792732 0.08486879 0.016071172 -0.08860243 0.008592113
0.07383084 -0.0075527322 0.0733941 0.07390917 -0.06854156 0.07627021 0.04118699 -0.008095069
-0.060533468 0.10022166 -0.05583821 -0.074828856 0.08261535 -0.0597784 -0.012764209 -0.00092382904
-0.006532796 0.04042415 -0.08587923 0.03150465 0.042570345 -0.05663095 -0.0029211345 0.0012137579
0.07114565 0.009537605 -0.05414498 -0.011938179 0.017735662 -0.08832652 -0.06356748 0.0038326671
0.06671889 0.017339487 -0.057328306 0.03748002 -0.06487983 -0.14749141 -0.036821872 -0.07742868
0.028899962 -0.012772763 0.04798807 -0.073723145 -0.032933626 0.016123677 0.077628255 0.015121382
-0.08934615 0.053981826 0.06742969 0.015538056 0.07986011 -0.048987746 0.05169509 -0.031229896
0.08486738 -0.025406808 -0.03192545 -0.07921784 -0.03566036 -0.022269761 -0.010348876 0.040681124
0.06502817 -0.124720946 -0.03150325 -0.07328296 0.014020112 0.021920186 0.07107043 -0.059851248

lstm.weight_ih_l1 f4 [512, 128]
00000000: 7992 93ba 39bf 503c 282c 08bc 8859 fcbd
00000010: 7b4b dbbd 900b 033c 969d 4ebc 0788 283d
00000020: 7053 0e3e 0537 b63c b894 15bb 3c63 3cbd
00000030: c069 37bd 12cd 503c f800 2a3c 06f7 08be
00000040: 20e4 d2bc 41e2 083d b793 82bd a10a 8fbd
00000050: 53cc e63d 8c2b 62bd 9463 db3d acd4 783d
00000060: b830 dc3d 12da 5bbd f4aa 81bd f98f 093c
00000070: c432 d93c ea8d 13be 36e1 613c e829 d3bd
00000080: e20b 253d e620 cd3d b839 5cbd 17ed 50bc
00000090: 2d7c dcbc e016 92bd 6145 71bd bfea 0e3e
000000a0: e79e f1bc 1b09 4e3d 5e4d 3cbd 2a61 7dbd
000000b0: 8322 61bd 14d8 703d 0c09 4f3b 9cf0 e73d
000000c0: 25af 9d3d 3037 2b3d a9c8 0ebc 7c93 fabc
000000d0: 8cde 2cbb 0f73 8ebc eca8 99bc f92a 9bbc
000000e0: 2cbc e33d e456 9c3d 4baa e13c cdd3 02be
000000f0: c13e 473d 0459 013d b390 f1bc 4778 893d
00000100: 2ba4 56bd 6e6a b2bd f076 2bbd 579d 4e3c
00000110: 7879 3abd 5873 18bd a31c f73d cce1 ec3c
00000120: 8502 4d3c 4ef2 263d 18a1 0e3e 333f c5bb
00000130: 7537 e2bc 63f4 de3d 1507 f83c a1bc b53c
00000140: b98a 153c 8d5d 983d 4bef 57bc 1f62 80bd
00000150: f167 063d c641 e338 3fed 44bd a87c efbc
00000160: 0208 1c3d ff3f 66bc e6a7 04bd df2b b63d
00000170: 849a ed3d 5d6c 1bbe cc84 0d3e 0eea 83bb
00000180: 2365 393c c0a6 f53d ad53 9a3d 6af6 3cbd
00000190: 0bd6 8d3d 628b b43c bf44 54bd 6d3c 853c
000001a0: 3d23 8d3d 340c 003e 6d21 073d f885 433d
000001b0: 7bea bf3c fe89 a23d e854 f03d 5238 72bc
000001c0: 69fd 8cbd 8b72 c3bc 4b95 26be 2278 943d
000001d0: 5d44 05bd b5e9 a43c c930 77bd 556a f2bd
000001e0: e04c 18bd f54a be3d c33e 743c f72f 253d
000001f0: 5f6f 6fbc 1d92 6e3d 84b5 783d ee92 f93b
00000200: ae9b 2bbc 173c 313e 16ad 443d 4f83 ccbc
00000210: 84dd 4bbd 2e96 39bd 71bb 923b ad68 053e
00000220: 6509 093e c09b 273c 8e6a abbd 3c49 babd
00000230: 246b 87bd 0493 893d ea9c ffbd 204f 55be
00000240: 9d17 cf3d 9909 aebd 897a 00bd 60fb 913d
00000250: 09c0 1d3e 71ea e7bd 196d 0e3e 1fc8 1e3e
00000260: 4f4f fc3c 65bc b6bd fbb5 11be 9bee b43d
00000270: 7c3b a73d 1651 31be 3d51 eabd ed95 a7bd
00000280: 8892 ec3d 04be d93d 7a18 cabd 6027 073e
00000290: 5088 77bc 729b a23c 632b 34bd 68c1 093e
000002a0: 0597 afbd 85d3 4a3e 99e9 01be 75de 503c
000002b0: 350a dfbd 1655 353c d2fb f13c 91f2 073d
000002c0: b69e 1a3e 566b 04bd 220c eabd cd94 63bd
000002d0: 7afb 81bd da0a e83d 6b80 4e3d e5f2 39be
000002e0: ec32 6e3d 4b25 213e 3e1d c93d 50cb 25be
000002f0: dc1f 0d3e 2835 b33d ef09 bfbd 2dbd 08bc
00000300: 1839 b8bd 5ab7 18be 4bbe 42bd d68a 073e
00000310: e0d7 eebd 0822 55be 7b2e 1d3d 719c dbbd
00000320: 5dc9 de3d 44b1 303c 93ca 413e 3cc1 31be
00000330: ff21 2cbe 5df5 44bd 1897 d93d 2ce8 623e
00000340: c767 e93c c430 aabd 43b3 08bd ca9b 6dbe
00000350: 2524 11be d755 203d 4bcc fc3d f694 523e
00000360: 735f 15bd 7c10 923d 8928 10bd 2961 313e
00000370: 1569 433e aae2 77bd b289 1a3e 9555 b33d
00000380: 6453 443e 0809 983d dd0d 2bbe 2ebc 61be
00000390: 0bc5 243e a560 dd3d 2d16 79bd 48ee acbd
000003a0: bb64 193e 5260 843d acf5 29be e17d cdbd
000003b0: c3d4 4b3c 5940 98bd dec8 5b3d 55af 20bc
000003c0: 93d9 c3bd d74b bcbd 5f1d 83bd ae8c 3e3e
000003d0: 1bb9 9b3d a477 463e feca 31be 35b1 2ebd
000003e0: 213d 043d 0864 a23d 457b 91bd 92d0 173d
000003f0: 1004 cebd 541a a13d fc24 e1ba 2409 203c
-0.0011258862 0.0127409035 -0.008311309 -0.12321764 -0.10707756 0.007998362 -0.012610814 0.04114535
0.13899016 0.022243032 -0.002282424 -0.045993075 -0.044778585 0.012744205 0.0103762075 -0.13375482
-0.025743544 0.033418898 -0.063758306 -0.06984449 0.112694405 -0.05521731 0.107123524 0.060749695
0.1075148 -0.053674765 -0.06331435 0.008396142 0.026513465 -0.14409605 0.013786605 -0.10310727
0.040294535 0.100160405 -0.053765982 -0.012751839 -0.02691468 -0.07133269 -0.058904056 0.13956736
-0.029494716 0.050301652 -0.04597222 -0.06186024 -0.054964554 0.05879982 0.0031591086 0.113251895
0.07699422 0.041800678 -0.008714833 -0.030587904 -0.0026377765 -0.017388849 -0.018757306 -0.01894139
0.11119875 0.076337606 0.027547022 -0.12776108 0.04864383 0.031579033 -0.029487943 0.06712394
-0.052402657 -0.08711706 -0.041861475 0.012610755 -0.045525998 -0.037219375 0.12066009 0.028916262
0.012512808 0.040758424 0.1392864 -0.006019497 -0.027614335 0.10886457 0.030276814 0.022184672
0.009127312 0.074397184 -0.0131796105 -0.06268715 0.03281397 0.00010836455 -0.048077818 -0.029234245
0.038093574 -0.014053344 -0.032386683 0.088950865 0.11601737 -0.15178056 0.13820189 -0.004025704
0.011315617 0.11994696 0.07535491 -0.046133436 0.06925591 0.02203912 -0.051823374 0.016264165
0.06891487 0.12504655 0.03299086 0.047735184 0.023427239 0.07936476 0.117349446 -0.014783936
-0.06884272 -0.02385833 -0.16267888 0.07249476 -0.0325359 0.020130971 -0.06034926 -0.118366875
-0.03718269 0.09291641 0.014907542 0.040328946 -0.014613955 0.058244813 0.06071998 0.0076163923
-0.010474129 0.17308079 0.04801663 -0.024964957 -0.0497718 -0.045309238 0.004477911 0.13028212
0.1338249 0.010230005 -0.08369933 -0.090959996 -0.06612232 0.06717494 -0.12481101 -0.20830965
0.10111926 -0.08497924 -0.03136686 0.07128024 0.15405287 -0.11324013 0.13908805 0.15506028
0.030799536 -0.08922652 -0.14229576 0.08834573 0.081656426 -0.17316088 -0.11441276 -0.08182893
0.11551386 0.10631946 -0.0986795 0.13198614 -0.015108183 0.019849513 -0.04398669 0.13452685
-0.085737266 0.19807251 -0.12686767 0.01274835 -0.10890619 0.011067649 0.029539023 0.033190314
0.15099606 -0.032328926 -0.114280954 -0.05556183 -0.063467935 0.11330195 0.050415438 -0.18159063
0.05815403 0.15736882 0.09820031 -0.16190839 0.13781685 0.08750373 -0.093280666 -0.008345884
-0.08995265 -0.14913693 -0.04754476 0.13236555 -0.11662269 -0.20813763 0.038374405 -0.10723198
0.10878251 0.010784451 0.18924932 -0.1735887 -0.16809843 -0.04808556 0.10624522 0.22158879
0.028491868 -0.083100826 -0.033374082 -0.2320396 -0.14173944 0.039144363 0.12343653 0.20564637
-0.03646798 0.071320504 -0.035194907 0.1732222 0.19083054 -0.060518898 0.15091589 0.08756558
0.19172436 0.074235976 -0.16704507 -0.22044441 0.16090791 0.10809449 -0.060812164 -0.08443886
0.14979832 0.06463684 -0.16597623 -0.10033775 0.012440863 -0.07434148 0.05365836 -0.009807427
-0.09562983 -0.09194153 -0.064020865 0.18608353 0.076036654 0.19381577 -0.17362592 -0.042649467
0.03228486 0.07929236 -0.0710359 0.037064143 -0.100593686 0.0786635 -0.001717716 0.009767804

lstm.weight_hh_l1 f4 [512, 128]
00000000: 8f2a 813d 9566 b13d 5513 70bd 9634 c3bd
00000010: 61a1 e93c 9691 cabd bb7e bdbc 9e5a 033d
00000020: 0ec9 cfbc 06d3 00bd 70fc bf3c 7a4b 1bbd
00000030: 5b0a c13d c221 1dbd 7a4c 8d3d 5241 983d
00000040: c60c 41bd e884 dfbc 4339 a93d 5d0a 81bb
00000050: a993 40bc 0660 4cbd b421 e3bd 7daf 443d
00000060: 2bcf 403d a76f 5cbd b37d b2bd c40d 6e3d
00000070: 9195 993d 3890 a2bd 30a6 ca3d 6dfe d8bd
00000080: 9c94 093a 349a ccbd 929c f4bc 0c4e 833c
00000090: ed1c 2e3c 2705 2d3d 40fd 1c3d cc68 69bd
000000a0: 93dd e4bc 7f0e 60bb e245 de3c cb46 033d
000000b0: f1ad ed3c 413e f13c 30cd d1bd 5803 4bbd
000000c0: f68c a9bc 0fe6 b23d 0d99 b73b d2e0 7ebd
000000d0: 13f9 0c3b a2ff fbbc d3ec 543d 84e4 e2bc
000000e0: 8e7e 7c3d 1216 a43c 540a ca3c fda5 e4bb
000000f0: f90e f9bc 72b3 92bd 7605 883d 64f8 8d3d
00000100: 4c45 8abd 0f1b 843b 54f8 cebc 9d5a 17bc
00000110: 75b4 07bd 81a0 903d 8a15 8ebb f5d1 483c
00000120: 7343 bfbd a03a 6bbd 4b76 f53c f703 f63d
00000130: eef8 0abe 23ee 5bbd f544 1a3c c012 9cbd
00000140: dc84 e0bc e861 b9bb eb75 c1bc 0875 c8bc
00000150: d632 b5bb 9503 00bd 8866 86bd 65dd f8bc
00000160: fd27 743c fca7 1f3d 842b b53c 18e6 84bd
00000170: c44c 303c 728e 47bc 8528 1c3d 5a60 91bc
00000180: 0418 4fbd 85d9 43bd 5a5c 78bd f073 8c3b
00000190: e4d7 923b ae6b 84bd abc8 71bd 9cb5 653c
000001a0: 4e87 a9bd 703a bbbd e345 a53d dd74 a6bb
000001b0: d7c6 e93d 6c73 813d c6cd a73b a031 81bd
000001c0: 5c50 cebc 2484 f33c b320 e23c 3823 c7bc
000001d0: 85b6 80bd b53d 5e3d b062 6abd 221f acbd
000001e0: 1c9f 41bd 3a8d 283d b8d5 ef3d eb6b 44bd
000001f0: 658b c43d b929 8e3d 2420 263d 00e8 2abd
00000200: 6560 29bd 9444 0b3e 29f9 a43d d05e 213d
00000210: 8932 09bb ff43 b33d 7250 3ebe 44d0 c0bd
00000220: 1fe0 9bbd fe12 10bd f426 e23d 2610 e1bd
00000230: 3897 e7bc fb56 62bd cc5b ef3d 327a 4bbd
00000240: d8a8 dbbd 7909 3b3e eb44 643d 7e75 a63d
00000250: 8be9 7e3d ac87 963d 2d93 a13d f2bd 02bd
00000260: 8859 2d3e 95d5 55bc 97a8 d6bd f64a 8cbd
00000270: 0208 4abe 5895 02bd c6f4 c03d fb75 80bb
00000280: 2006 ef3d 0a0a 2a3d ffeb 2eba e6d5 7a3d
00000290: ee24 6cbc bc99 d43b 487c 4f3b e51e 9cbd
000002a0: 35d3 a5bd 1861 fa3d d17f 5cbd d3d5 953d
000002b0: 1d6b c33d d7bf 063d 54fb 2fbe 80ee 2cbb
000002c0: 0478 8c3d bc36 f9bb cd16 273d 3a53 1a3e
000002d0: 8ebd 89bd 9924 a63d ad21 7f3c e63d ed3d
000002e0: d9c1 c6ba dbb4 85bc 0a25 50bd 3c12 d7bd
000002f0: b630 3bbe 67b0 75bc 886f e33d 0dd8 2dbd
00000300: 29d3 18bd c101 a43c 5626 fdbd 9308 8bbc
00000310: 83e5 92bd 9173 c43d 734d 803d 79f3 833c
00000320: a546 bdbd 033e a3bd a2ca d53d 4f57 933d
00000330: ddb2 3b3d 10bd 57bd 3874 64bc 859c 76bd
00000340: efd5 d4bc 609d 7a3c 6329 c9bd 031c c6bd
00000350: 2317 30be a869 e03c 53c3 e3bd 2c6a b1bc
00000360: 1864 e93c 384f c33d fdf5 2ebe 39f7 c5bd
00000370: 1ebf 9dbd d433 86bd 51a2 cc3d 847a 95bc
00000380: 1fd9 ba3a 2209 d03c dca2 02be dfab e33c
00000390: 4bca 58bc 8467 cebc 39f9 493b de14 0ebe
000003a0: 7dab 7dbc 1578 c83a 9119 e03d 113e 583c
000003b0: 1c44 ae3c ea29 5e3e 8315 04bd eda4 e53d
000003c0: 3880 5fbd 7870 82bd 1369 a2bc 2678 a5bd
000003d0: 1599 323d 7360 9f3d 3e0b 12be e241 9cbd
000003e0: d2c3 ca3d 0a22 443d 36c8 cabd cec8 743d
000003f0: 08dc 1f3e b078 b2bc 079a 5a3d ee30 833d
0.063069455 0.08662144 -0.058612186 -0.09531514 0.028519334 -0.098910496 -0.023131719 0.03206884
-0.025364425 -0.031451248 0.023435801 -0.037913777 0.09425803 -0.038362272 0.06899352 0.07434334
-0.047131322 -0.027285054 0.08262875 -0.003938003 -0.011753955 -0.049896263 -0.11090413 0.04801892
0.04707257 -0.053817417 -0.087153815 0.058118597 0.07499231 -0.07937664 0.09894979 -0.10595403
0.000524828 -0.099903494 -0.029859815 0.016028427 0.010627014 0.04224124 0.038327456 -0.056984708
-0.027937686 -0.0034188328 0.027132932 0.032049935 0.029013606 0.02944863 -0.102442145 -0.049563736
-0.020697098 0.087352864 0.005602962 -0.062226124 0.0021510764 -0.030761544 0.051983666 -0.027696855
0.06164413 0.020030055 0.024663128 -0.006977795 -0.030402647 -0.07163133 0.066416666 0.069321424
-0.067514986 0.004031546 -0.025264896 -0.0092379125 -0.03313108 0.07061864 -0.0043360638 0.012257089
-0.09339037 -0.057428956 0.029963633 0.12012475 -0.13571522 -0.0536939 0.009415855 -0.07620764
-0.027407102 -0.0056574233 -0.023615798 -0.024469867 -0.0055297418 -0.031253416 -0.06562525 -0.030379007
0.014902112 0.03897856 0.022115476 -0.064891994 0.01076049 -0.012179958 0.03812458 -0.01774614
-0.050560012 -0.047814865 -0.06063495 0.0042862818 0.0044813026 -0.06465851 -0.059029263 0.01402035
-0.082777604 -0.091420054 0.080699705 -0.005079849 0.11414879 0.06320843 0.0051209657 -0.06308293
-0.025184803 0.029726095 0.027603483 -0.024308786 -0.06284813 0.054258067 -0.057223022 -0.084043756
-0.04727088 0.04115031 0.117106855 -0.04795448 0.095969 0.06941552 0.040557995 -0.04172516
-0.041351695 0.13600379 0.08055336 0.03939706 -0.0020934662 0.087532036 -0.18585375 -0.094147235
-0.07611107 -0.035174362 0.11042586 -0.10989408 -0.028270349 -0.055258732 0.11687431 -0.04967708
-0.10725564 0.18265332 0.055729788 0.081278786 0.062234443 0.07350096 0.078894 -0.031919427
0.16928685 -0.01305141 -0.10481375 -0.06850235 -0.19729617 -0.031880707 0.09421687 -0.0039203144
0.1167109 0.04151348 -0.00066727394 0.061239146 -0.014413102 0.006488053 0.003165977 -0.0762308
-0.08096925 0.122255504 -0.053832833 0.07316174 0.095419146 0.032897796 -0.17185718 -0.0026387274
0.06858829 -0.007605402 0.04079323 0.15070811 -0.06725608 0.08112449 0.015571994 0.11584072
-0.0015163972 -0.01632159 -0.050816573 -0.10501525 -0.182803 -0.014995671 0.11105257 -0.04244237
-0.037310753 0.020020368 -0.123608276 -0.016971862 -0.07172682 0.09592355 0.06264772 0.016107308
-0.0924199 -0.07970812 0.1043904 0.07194387 0.045824874 -0.05267054 -0.013943724 -0.060207862
-0.025980918 0.01529631 -0.09822347 -0.096733116 -0.17196326 0.02739413 -0.111212395 -0.021657072
0.028490111 0.09536594 -0.17086025 -0.096662946 -0.07702468 -0.06552854 0.09991897 -0.018246897
0.0014255381 0.02539498 -0.12757438 0.027791915 -0.013231824 -0.025195844 0.0030818714 -0.13875148
-0.0154827805 0.0015294576 0.109423764 0.013198392 0.021272711 0.21695676 -0.032247078 0.11213098
-0.05456564 -0.06369108 -0.019825494 -0.08079557 0.04360302 0.07782068 -0.14262101 -0.07629754
0.09900631 0.047884025 -0.099014685 0.059761815 0.15611279 -0.021786064 0.05336955 0.06405817

lstm.bias_ih_l1 f4 [512]
00000000: 73b9 b2bc c4db ad3d 516f 4c3d 809d c63d
00000010: dbc2 a73d 2847 ca3d 6736 b73c d464 0dbd
00000020: 6281 d73d 0cb9 dd3d 576e cabb ba34 f23d
00000030: fa2a 973d 513d 5abc 370b 083e 8574 f03c
00000040: 8cf1 afbc cf3a 913d e760 a13d a3b3 8c3d
00000050: 97ca d33d 5306 bf3c 98ab 6abc 4983 eb3c
00000060: d344 93bc b7e9 58bc 419d 06bd a361 3f3c
00000070: aec5 2f3d 3cb9 fa3d a8b0 063e 71fb 983d
00000080: dd80 3539 dde5 67bd a834 e7bc aae7 ca3d
00000090: 8265 fb3d 47f3 6bbb 9d4a 383c 0664 bf3d
000000a0: 7264 b63d a013 193d f128 10bd 4aeb f33d
000000b0: 54c0 a7bb 229d 2f3e 9123 0dbd 0227 2a3d
000000c0: 96f1 043e 2847 633d c8a5 21bd 10f7 0abd
000000d0: 8878 b73d cce5 f53d 5fc1 963d 443f 4a3d
000000e0: 29e1 2fbd ae38 b83b 155d e93d 53b8 9a3d
000000f0: 591e 193e a965 933d 2ffb b93d 20e8 90bd
00000100: dc88 303c e11f a13c 0f2b db3c b8c8 683b
00000110: e916 923d 2dac c3bc 1e9a f03a aa83 c63c
00000120: c627 9bbc b772 bb3d b18d 093e 855f 0e3d
00000130: ac78 933d c828 ebbc d698 f13d ac86 a43d
00000140: 0cf7 92bd 6979 a43c 6e8f 063d 2444 cb3c
00000150: f185 48bd 4175 7dbd e919 003e ba8f ee3d
00000160: cedd 223e 3a6c 613d bdd0 573d efa0 29bd
00000170: f964 c0bb 7cea 3abd 93d8 2cbd a947 2f3d
00000180: 466c 573c 07d3 063d f956 f93d aafd 953d
00000190: 6e52 f0ba af67 a33d 5e41 0e3d 83b3 0d3e
000001a0: 7539 d23d 5d0a 9cbb 06cf fd3c 9864 9b3d
000001b0: 8ee3 d53d 29f5 d73c 5cef d23b a45e f4bb
000001c0: 68ba 033e 338c 063d 3fc6 b23c 9ce6 e33d
000001d0: c3df b4bd 3c1a 28bc 5350 ba3d e34f 4fbd
000001e0: 0740 64bd 7fac 4f3d 1f7a 013e 5a4c 9d3d
000001f0: f7c9 0d3d baee 133c 50ad 8f3d 9f2f b93d
00000200: 4731 e63a 9b22 053d 4e6f 913d 5443 4dbd
00000210: 2048 a33d a136 a93d 58f3 8cbd 9220 bebc
00000220: f0d7 01bc 0685 e63c 1c47 303d a9a5 32bd
00000230: 2ef4 803d c783 e8bc 2b87 8abd cb6d 903d
00000240: 6c25 cf3d 35b8 883d 96de a0bc c069 c93d
00000250: 9aa2 8a3d bbdd 953d 4a54 dabd fd98 b63c
00000260: 7af0 323c e4bc 23bc 39b5 ebbc f64e fd3c
00000270: 273a ad3d d02d acbd 1fb0 e9bd 5079 dbbc
00000280: e3d0 293d 590f 99bc c4ce 353d 819d b53c
00000290: 8569 ba3d 1ccc b9bd ad9a 8fbd 3e95 5ebd
000002a0: f84e 72bd 2c51 953d 7635 a53c fffa 323b
000002b0: 0fb6 a83b e3ba 6abc bd48 c53c c7c3 0a3d
000002c0: db7e 15bc 521f b5bc 9742 5a3d 21e3 6e3d
000002d0: 90dd 9fbd 10a9 a23c d3fe 6fbb d0b2 363d
000002e0: f316 99bd 541a a0bc 8d48 7d3d a264 d63d
000002f0: 6a39 6fba 8ea9 713d 2430 913d 314b c83d
00000300: 81e2 62bd 04d0 21bc beba b63b 01cc 86bd
00000310: 8b20 30bd 25e9 92bc 51c2 263d 4282 97bd
00000320: 4311 cdbc 7aa6 443c 6868 00be 7f4c 703d
00000330: b2b9 a23d 4ae9 063d b6b5 72bd 444c 9a3d
00000340: e831 08bc 83fd 3dbd 6f25 583d ff09 113d
00000350: fc31 9d3c 128d d3bc 475f 8cbd 8464 22bd
00000360: d358 95bb 1ffc c73c a043 aebb 2f61 353d
00000370: 9c75 d1bc dbab eebc 3bff 973c 9ee0 b33b
00000380: 2183 1bbd 7872 a0bd 3041 853d 3381 d73c
00000390: 095f a33d ef00 9a3c 3f58 023d c3ed 87bd
000003a0: d769 83bd 6404 c5bd acf5 b13b 067f 003d
000003b0: b5a0 a03d 51b9 eaba a6c8 4d3d 1477 87bc
000003c0: 6bbd a1bb 0f92 b3bc bdc5 dc3d d9de 06bd
000003d0: e5a7 803d f844 293c e990 be3d 7b79 05bd
000003e0: 2083 39bd db4a 7dbd c98b 063d f4a1 8cbd
000003f0: e979 4cbd ed75 b63d 0a1c 993d 4e14 323d
-0.021816945 0.084891826 0.049910847 0.096980095 0.081914626 0.09876853 0.022364808 -0.034519985
0.10522725 0.108263105 -0.0061777043 0.11826463 0.07381244 -0.013320283 0.13285528 0.029352436
-0.021477483 0.07091295 0.07879811 0.068702005 0.10341375 0.023318445 -0.014323138 0.028749125
-0.017977154 -0.013239316 -0.032864813 0.011680993 0.04291313 0.12242362 0.13153327 0.07469834
0.0001730951 -0.0566157 -0.02822335 0.09907468 0.122752205 -0.003600316 0.011248258 0.0934525
0.08905877 0.03737223 -0.035195295 0.11910112 -0.005119363 0.17149785 -0.034457747 0.041541107
0.12982783 0.05548778 -0.039464742 -0.033927023 0.089585364 0.12006721 0.07361101 0.04937674
-0.04293934 0.005621991 0.11394707 0.07554688 0.14952983 0.071971245 0.090811126 -0.07075524
0.010774817 0.019668521 0.02675393 0.0035520028 0.07133276 -0.02388581 0.0018356477 0.024232704
-0.018939864 0.091527395 0.13432957 0.034759063 0.07200751 -0.02870597 0.11796729 0.08033499
-0.07176027 0.020077424 0.03285163 0.024812765 -0.04895586 -0.0618794 0.12509884 0.116485074
0.15904924 0.055034854 0.052689303 -0.041413244 -0.005871412 -0.045633778 -0.04219873 0.04279295
0.013148373 0.032916095 0.12174792 0.07323773 -0.0018335113 0.079787605 0.034730308 0.1383801
0.10264865 -0.0047619776 0.030982506 0.07587546 0.10443793 0.026362019 0.0064372253 -0.007457571
0.12864077 0.03284855 0.021823047 0.111279696 -0.08831742 -0.010260161 0.09097352 -0.050613295
-0.055725124 0.050701614 0.12644242 0.076805785 0.034616437 0.009029085 0.070154786 0.09042286
0.0017562293 0.032503705 0.07101308 -0.050113037 0.07972741 0.08262373 -0.06882352 -0.02320889
-0.007925019 0.028139602 0.043036565 -0.043615017 0.062965736 -0.028383149 -0.067640625 0.07052191
0.101145595 0.0667576 -0.019637387 0.09834623 0.06769295 0.07317682 -0.10660608 0.022289747
0.010921592 -0.0099937655 -0.028772937 0.03092144 0.08458357 -0.084071755 -0.114105456 -0.026791245
0.041458976 -0.018684076 0.04438664 0.02216983 0.091021575 -0.09072134 -0.07011924 -0.054341547
-0.05915734 0.07290873 0.020167094 0.002731025 0.005148656 -0.014326784 0.024082536 0.033878114
-0.009124483 -0.022109661 0.05328616 0.058322076 -0.078059316 0.019856006 -0.0036620393 0.044604123
-0.0747508 -0.019543804 0.061836768 0.10468413 -0.0009125682 0.05899959 0.0708926 0.097799666
-0.055391792 -0.009876255 0.0055764606 -0.065818794 -0.042999785 -0.017933438 0.04071266 -0.073978916
-0.025032645 0.012002582 -0.12539828 0.058666702 0.07945575 0.032937326 -0.059255324 0.07534078
-0.00831268 -0.046384346 0.052770074 0.035409924 0.019188873 -0.025824104 -0.0685411 -0.03964664
-0.004557708 0.024412213 -0.00531812 0.044282135 -0.025568776 -0.029134681 0.01855432 0.005489423
-0.03796685 -0.07834333 0.06506574 0.026306724 0.07977111 0.018799273 0.03182244 -0.06637146
-0.06416672 -0.09619978 0.0054308977 0.03137114 0.078431524 -0.0017908012 0.05024018 -0.016536273
-0.0049359105 -0.021920232 0.10779903 -0.032927368 0.06282023 0.010331385 0.09304983 -0.032586556
-0.045291066 -0.061838966 0.032848153 -0.068668276 -0.04992095 0.08909211 0.07476051 0.043476395
