experiments/ERA5Forecasting/logs/lstm_model.pth (torch, 54450 bytes, 10 tensors)

lstm.weight_ih_l0 f4 [128, 2]
0	0xbce7044f	-0.028200297
1	0x3d8554c6	0.0651031
2	0xbe7a12ed	-0.24421282
3	0x3e979873	0.29608497
4	0xbd9c9d6b	-0.076472126
5	0x3da632a8	0.08115131
6	0xbe9b7c60	-0.30368328
7	0x3d431cac	0.047634766
8	0xbe50c9e3	-0.20389514
9	0x3ea07473	0.31338844
10	0xbd8dcf4a	-0.06924303
11	0xbdbd2aee	-0.09236704
12	0xbe8acd0b	-0.2710956
13	0x3e461aa4	0.193461
14	0xbd97f915	-0.074205555
15	0xbc248e5e	-0.010043709
16	0xbde2013f	-0.11035394
17	0x3ea1db83	0.31612787
18	0xbddc7e40	-0.10766268
19	0x3d607a82	0.054804333
20	0x3c806970	0.015675277
21	0x3deabe31	0.114620574
22	0xbd4a4783	-0.049384605
23	0xbe462759	-0.19350947
24	0x3ded5887	0.11589151
25	0xbe3ef66e	-0.18648693
26	0x3df8abbd	0.121421315
27	0x3dba1d06	0.09087567
28	0xbc056f0c	-0.008144151
29	0x3e91e8ec	0.28498018
30	0x3df5c566	0.120005414
31	0x3dc49007	0.095977835
32	0xbe35c006	-0.17749032
33	0x3e2a7bd4	0.16648799
34	0xbe5bc772	-0.21462801
35	0x3e0bf8a4	0.13669068
36	0xbe7a6baa	-0.24455133
37	0xbc3f7bcd	-0.011687231
38	0x3d3139c1	0.04326797
39	0x3ddfc3fa	0.109260514
40	0xbe162bb3	-0.14665107
41	0x3ec57ed7	0.38573334
42	0xbe3e8b96	-0.18607935
43	0xbcb24856	-0.021763008
44	0xbcd2f077	-0.025749428
45	0x3ca123f9	0.019670473
46	0xbdcc76da	-0.09983607
47	0x3e8f62b3	0.2800499
48	0xbe95a0c6	-0.29224223
49	0x3df66fbb	0.1203303
50	0xbd0c245e	-0.03421437
51	0x3e4ce6e1	0.20009948
52	0xbe9a334a	-0.30117255
53	0x3d3bb0e9	0.04582301
54	0xbe1322fe	-0.14368817
55	0x3db65375	0.08902637
56	0xbe214926	-0.1575056
57	0x3d5ffad7	0.05468258
58	0x3ca9f7f1	0.02074811
59	0x3d75617d	0.059907425
60	0xbe71a5ae	-0.23598358
61	0xbb273a2e	-0.0025516856
62	0xbe54083e	-0.20706269
63	0x3d8115b7	0.0630297
64	0xbab262b2	-0.0013609736
65	0x3d89e86c	0.06733784
66	0xbdad01f3	-0.084476374
67	0x3dfba568	0.12287408
68	0x3e528177	0.205572
69	0xbe209e54	-0.15685397
70	0x3cc72086	0.0243075
71	0xbe0c4232	-0.13697127
72	0x3e3c4caf	0.18388627
73	0xbe0d590f	-0.13803504
74	0xbd6f856a	-0.058476843
75	0xbe4794bc	-0.19490331
76	0x3d041336	0.032244883
77	0x3d1a2851	0.037636105
78	0x3d69bcba	0.05706475
79	0x3cf2d14f	0.029640822
80	0x3de2df2a	0.110777214
81	0x3da701a1	0.081546076
82	0x3d8f35db	0.06992694
83	0xbdea6d49	-0.11446626
84	0x3dadf28c	0.08493528
85	0xbe41d421	-0.18928577
86	0xbd250afd	-0.040293682
87	0xbb9c12ad	-0.0047629685
88	0xbde6055c	-0.11231491
89	0xbd8da78b	-0.06916722
90	0x3de2eaef	0.11079966
91	0xbd1d1520	-0.038350224
92	0xbd7464cb	-0.059666436
93	0xbe5c5dee	-0.21520206
94	0x3cb3ebc0	0.021963
95	0xbd7c0dfe	-0.06153678
96	0xbe180437	-0.14845358
97	0xbc7bc2ca	-0.015366266
98	0xbd85198b	-0.064990126
99	0xbd47d5ac	-0.048787758
100	0xbdd56d3d	-0.10421226
101	0xbe04ddc3	-0.1297522
102	0x3e0d1611	0.13777949
103	0x3c964917	0.018345399
104	0xbc9efb00	-0.019406796
105	0xbd491885	-0.04909565
106	0xbe2324b3	-0.15931968
107	0x3dc5d58c	0.096598715
108	0x3c817386	0.015802156
109	0xbe168724	-0.1469999
110	0x3e175a28	0.14780486
111	0xbe62a42f	-0.22132944
112	0x3d19c2b8	0.037539214
113	0x3dcd9f03	0.10040095
114	0x3c9d121e	0.019173678
115	0x3d6caff1	0.05778498
116	0xbd05208d	-0.032501746
117	0xbd7da01b	-0.061920267
118	0x3bc0711a	0.0058728578
119	0xbe5961eb	-0.21228759
120	0xbccaa146	-0.024735104
121	0xbe695de4	-0.22789723
122	0x3db031c8	0.08603245
123	0x3d395b06	0.045252822
124	0xbe3dfc41	-0.18553258
125	0xbaf18797	-0.001842725
126	0x3df58ca1	0.119897135
127	0xbb48c21b	-0.0030633274
128	0xbe896536	-0.2683503
129	0x3e7f1c23	0.24913077
130	0xbe7919d8	-0.24326265
131	0x3e227499	0.15864791
132	0xbe79ccf7	-0.24394594
133	0xbd5f4949	-0.05451325
134	0xbe8cfc61	-0.275363
135	0x3e7eb4ce	0.24873659
136	0x3e0d3993	0.13791494
137	0xbe465b5b	-0.19370787
138	0xbe00ed17	-0.12590443
139	0x3e02b6c3	0.1276503
140	0x3e31d4f5	0.17366393
141	0xbe9b09be	-0.3028087
142	0x3d8d56e3	0.06901338
143	0xbe31742d	-0.17329474
144	0xbe090eba	-0.13384524
145	0x3dcbe808	0.09956366
146	0x3d496dc9	0.049176965
147	0xbe19b15c	-0.15009063
148	0xbe535431	-0.20637585
149	0x3da02c42	0.078209415
150	0x3d54f256	0.051988922
151	0x3d5b74fd	0.053578366
152	0xbe10b9ff	-0.14133452
153	0xbd4ca1a3	-0.049958836
154	0x3df3b416	0.11899583
155	0xbcd70e0a	-0.026251812
156	0xbde2487d	-0.11048982
157	0x3e954cef	0.29160258
158	0x3d2bf38e	0.04198032
159	0x3e642aec	0.22281998
160	0xbe47d4d0	-0.19514775
161	0x3ddcc6d5	0.10780112
162	0xbe62bd63	-0.22142558
163	0x3e6667f8	0.22500598
164	0xbd2c696a	-0.04209272
165	0xbc0b0d14	-0.008487005
166	0xbe6a0f2c	-0.2285735
167	0x3d88384c	0.06651363
168	0xbe853ced	-0.26023045
169	0x3d9adece	0.07562028
170	0xbe6a1170	-0.22858214
171	0x3ce164a9	0.027513819
172	0x3e681d96	0.22667536
173	0xbcdc7dd3	-0.026915466
174	0x3e6e3464	0.23262173
175	0xbe90c1b8	-0.28272796
176	0x3e78c8ff	0.24295424
177	0xbe6163a1	-0.22010662
178	0xbe0ee82e	-0.13955757
179	0x3c42a4fa	0.011880154
180	0xbe711aad	-0.23545332
181	0x3e5258fb	0.20541756
182	0xbe491187	-0.19635592
183	0x3dbb60e5	0.091493405
184	0xbd71ea11	-0.059061114
185	0x3e63a937	0.22232519
186	0x3dcc714d	0.09982548
187	0x3d85526d	0.06509862
188	0x3e4b589b	0.19858019
189	0xbd5a81f9	-0.053346608
190	0xbe6aa1b8	-0.22913253
191	0x3e2d660a	0.16933456
192	0xbe81eec5	-0.2537748
193	0x3e91417b	0.2837027
194	0xbdd7e7b8	-0.10542244
195	0x3d11697f	0.035501
196	0x3e2948ca	0.16531673
197	0xbe41696d	-0.18887873
198	0xbe88f3e9	-0.2674859
199	0x3da3632c	0.079779
200	0xbe0576c5	-0.13033588
201	0x3e2c62d0	0.16834569
202	0xbb034892	-0.002003227
203	0xbdc3a0c9	-0.09552152
204	0xbe51161f	-0.20418595
205	0x3e343729	0.17599167
206	0xbe0cb43b	-0.13740627
207	0x3df0e3b5	0.11762182
208	0xbdf22c0e	-0.11824809
209	0x3e6131fd	0.21991725
210	0x3ddde064	0.10833815
211	0xbe045075	-0.12921317
212	0xbe881251	-0.26576474
213	0x3e3044d6	0.17213759
214	0x3c8755d5	0.01652042
215	0x3ca64a4a	0.020299096
216	0xbe20306c	-0.15643471
217	0xbc300fd9	-0.010745966
218	0xbdc76ef6	-0.09737961
219	0xbe1a8f92	-0.1509383
220	0xbd39e9f1	-0.04538912
221	0x3e0c0f83	0.13677792
222	0xbd024df6	-0.03181263
223	0xbe26d76d	-0.16293116
224	0x3b822c58	0.0039725713
225	0xbda084ac	-0.07837805
226	0xbe4c711b	-0.19965021
227	0x3e8f8c97	0.2803695
228	0xbdd90be2	-0.105979696
229	0x3c963121	0.018333973
230	0xbe2d6031	-0.16931225
231	0x3cdf6730	0.027270883
232	0xbe5753a7	-0.21028005
233	0x3e95a9c2	0.29231077
234	0xbdeee2ab	-0.11664327
235	0x3e0aaa61	0.13541557
236	0xbe741d72	-0.23839357
237	0x3c6ed13d	0.0145762535
238	0xbea74753	-0.32671604
239	0x3e319894	0.1734336
240	0x3c51a09c	0.01279464
241	0x3e4f87ab	0.20266597
242	0x3dbea4fc	0.09308812
243	0xbce7ea29	-0.028309898
244	0xbc84455d	-0.016146356
245	0x3e850a99	0.25984648
246	0xbe72cad3	-0.23710184
247	0x3e825cfc	0.25461566
248	0xbe0fd53c	-0.14046186
249	0x3e1876e8	0.14889109
250	0xbe4982ac	-0.19678754
251	0xbe316c3e	-0.17326447
252	0x3d1c2f45	0.038131017
253	0x3dd8dea1	0.10589338
254	0xbd59391e	-0.053032987
255	0x3e13ddeb	0.14440124

lstm.weight_hh_l0 f4 [128, 32]
0	0x3c9f2a4e	0.019429352
1	0x3d63cb8b	0.055614036
2	0xbe0de26e	-0.13855907
3	0x3dde2f43	0.10848858
4	0x3e1df32b	0.15424792
5	0x3db8c805	0.09022526
6	0xbdb6e7fa	-0.08930965
7	0x3d9f993e	0.077929005
8	0x3e62f685	0.22164352
9	0x3e17386f	0.14767621
10	0x3cc6c46a	0.02426358
11	0xbdec18a5	-0.11528138
12	0xbe52e081	-0.20593454
13	0x3e319877	0.17343317
14	0xbe071cf6	-0.13194641
15	0xbe013457	-0.12617622
16	0xbdf21ceb	-0.11821922
17	0x3c230dd8	0.009952031
18	0xbdd1f6f9	-0.102521844
19	0x3d9a0d14	0.07522026
20	0xbe3fd84c	-0.18734854
21	0x3e305eec	0.1722371
22	0x3d977213	0.07394805
23	0xbd1434fd	-0.036183346
24	0x3dd86fdf	0.10568213
25	0x3da52821	0.080642946
26	0x3c742496	0.014901301
27	0xbe43c2f7	-0.19117342
28	0x3d876054	0.0661017
29	0xbe205625	-0.15657862
30	0xbe1f40be	-0.15552041
31	0x3d8a7fb1	0.067626365
32	0xbd058570	-0.03259796
33	0x3d443974	0.047906354
34	0xbdc2083a	-0.09474225
35	0x3e7f39ee	0.24924442
36	0xbde8d029	-0.113678284
37	0xbe584ded	-0.21123476
38	0x3daea46e	0.08527456
39	0x3e71e8cf	0.23623966
40	0xbdb84eab	-0.0899938
41	0x3cb5c045	0.022186408
42	0x3e078d59	0.13237514
43	0xbe4844f4	-0.19557554
44	0xbda91c97	-0.08257406
45	0xbe68ec58	-0.22746408
46	0x3cba704d	0.022758627
47	0xbe2a57b3	-0.16635017
48	0x3dffbc37	0.12487071
49	0x3e67194e	0.22568247
50	0x3e5931af	0.21210359
51	0xbe0ee2b5	-0.1395367
52	0x39ee09bb	0.00045402147
53	0xbe12f7ff	-0.14352416
54	0x3e29c866	0.16580352
55	0xbe0db81d	-0.13839765
56	0xbe1e5d64	-0.15465313
57	0x3ce15a66	0.027508926
58	0x3d36c9b4	0.044625953
59	0xbdf91d77	-0.12163823
60	0x3e6e7b2c	0.23289174
61	0x3be4292c	0.006962916
62	0x3e1a2d9a	0.15056458
63	0x3aeca87f	0.0018055587
64	0xbde00712	-0.109388486
65	0x3dd82419	0.1055376
66	0xbe41a400	-0.18910217
67	0xbe0a203d	-0.1348886
68	0xbc3ab233	-0.011395025
69	0x3dae4726	0.08509664
70	0xbc351269	-0.011051753
71	0x3e47c603	0.19509129
72	0xbe6f3149	-0.23358645
73	0xbe41ac79	-0.1891345
74	0x3d2a4c7f	0.04157686
75	0xbdebd2a0	-0.11514783
76	0xbcab87eb	-0.020938834
77	0x3dd20c15	0.10256211
78	0xbc67ab2a	-0.01413993
79	0xbc4140f6	-0.011795273
80	0xbde6f46e	-0.1127709
81	0x3dc617f5	0.09672538
82	0xbddf26c0	-0.10896063
83	0x3dada591	0.08478845
84	0xbdcb4aec	-0.099263996
85	0xbe558d6d	-0.20854731
86	0xbdb0598b	-0.08610829
87	0xbd7b6cdd	-0.061383117
88	0x3c9c759d	0.019099051
89	0x3c2023a2	0.0097741205
90	0xbe44e854	-0.19229251
91	0x3c01d12e	0.0079234075
92	0xbd9da24d	-0.07696972
93	0xbdd06441	-0.10175372
94	0x3e447172	0.19183901
95	0xbddf2aed	-0.10896859
96	0x3e4f40ca	0.20239559
97	0x3e58331c	0.21113247
98	0x3c0ac139	0.008468919
99	0x3e3848f1	0.17996575
100	0xbe2dcb85	-0.16972168
101	0xbe4b3f21	-0.198483
102	0x3c195dc0	0.009360731
103	0x3daa87bc	0.083266705
104	0x3e177b73	0.14793186
105	0xbd8d6d70	-0.06905639
106	0x3cec13d3	0.028818047
107	0xbdf4d6b5	-0.119550146
108	0xbda44346	-0.08020644
109	0xbe44f1f2	-0.1923292
110	0xbd215cc3	-0.039395105
111	0xbd3239aa	-0.043512024
112	0x3d8eef37	0.0697922
113	0xbdc1bf1a	-0.09460278
114	0x3e08cc1d	0.13359113
115	0x3dfd0db3	0.123561285
116	0x3db324f8	0.087472856
117	0x3da17785	0.07884125
118	0x3e205e21	0.15660907
119	0xbd6ec67a	-0.05829475
120	0x3dda2e02	0.106533065
121	0xbcdfbc59	-0.02731149
122	0xbdebf124	-0.11520603
123	0x3e1a7f24	0.15087563
124	0xbd631aab	-0.055445354
125	0x3d840c24	0.06447628
126	0xbd5f4991	-0.054513518
127	0xbd24dfcd	-0.040252496
128	0x3e26850b	0.1626169
129	0xbdf10746	-0.117689654
130	0xbe26bf0c	-0.16283816
131	0xbe0cb4e7	-0.13740884
132	0x3db50ee1	0.088407286
133	0x3d1a468c	0.037664935
134	0x3d98a138	0.07452625
135	0x3e57abc9	0.21061625
136	0x3d8180d7	0.063234024
137	0xbe5b6f4e	-0.21429178
138	0x3e2cbf73	0.16869907
139	0xbe0217e2	-0.12704423
140	0x3dc2c57b	0.09510323
141	0x3ca56e41	0.020194175
142	0xbc0edde2	-0.008719893
143	0xbe719818	-0.23593175
144	0xbd4327f7	-0.047645535
145	0xbd8da336	-0.06915896
146	0x3cf9ec45	0.03050817
147	0x3ddec007	0.1087647
148	0xbd78f7ea	-0.060783304
149	0x3c7364f4	0.014855612
150	0x3c84452f	0.01614627
151	0xbdf3f1b6	-0.11911337
152	0xbcfb4d38	-0.03067647
153	0xbc5eae5e	-0.013591377
154	0xbde6c984	-0.11268905
155	0xbc45fdab	-0.012084405
156	0x3def3de2	0.11681725
157	0x3e4a5761	0.19759895
158	0x3e330f17	0.17486225
159	0xbe646eca	-0.22307888
160	0xbdc9237e	-0.09821223
161	0x3e0c8459	0.13722362
162	0x3a19ebfb	0.00058716506
163	0x3e41ac39	0.18913354
164	0x3c93b3b1	0.01803002
165	0xbd98c44f	-0.07459318
166	0x3debce05	0.115139045
167	0x3dfaab8d	0.12239752
168	0x3c021713	0.007940072
169	0xbdbec4ab	-0.09314855
170	0x3d6eac1b	0.0582696
171	0xbe58bb6d	-0.21165247
172	0x3e3a5372	0.18195894
173	0xbe3e34e5	-0.18574865
174	0x3cb0d8ce	0.021587756
175	0xbdd74ddf	-0.105128996
176	0xbd99a23e	-0.07501648
177	0xbda94016	-0.082641765
178	0xbd50a5fe	-0.050939552
179	0xbd9ae9d0	-0.075641274
180	0x3d6d69c9	0.057962213
181	0xbd9fc22f	-0.078007095
182	0x3e51634c	0.20448035
183	0xbd991e05	-0.07476429
184	0xbda12420	-0.078682184
185	0x3dfd3176	0.123629496
186	0xbe076ca1	-0.13225032
187	0xbe481e0a	-0.19542709
188	0x3c957dff	0.018248556
189	0xbe15f511	-0.14644267
190	0xbd813601	-0.063091286
191	0xbc18a19c	-0.009315874
192	0xbd93bf8a	-0.072142676
193	0x3e0c94c9	0.13728632
194	0xbda17a1c	-0.07884619
195	0x3d5477b4	0.05187197
196	0x3e26d5e4	0.1629253
197	0x3dff6127	0.12469702
198	0xbdc4f053	-0.09616151
199	0xbde0abb3	-0.10970249
200	0x3e3cb6e1	0.18429138
201	0xbde81abc	-0.11333224
202	0x3de7ff18	0.11327952
203	0x3d999841	0.07499743
204	0xbdc86301	-0.097845085
205	0xbda9b525	-0.08286504
206	0x3d45dfb1	0.048309032
207	0x3da7a113	0.08185019
208	0xbc2da5f1	-0.010598646
209	0x3c3cb0d4	0.0115167685
210	0x3def35ad	0.1168016
211	0x3e2d2305	0.1690789
212	0x3c08efc6	0.008357948
213	0x3df725e5	0.12067775
214	0xbdf3133d	-0.11868904
215	0xbd4364bf	-0.0477035
216	0xbd778841	-0.060432676
217	0x3ba7d01c	0.005121244
218	0xbd9dbfa7	-0.077025704
219	0xbc418023	-0.011810335
220	0xbdf763f2	-0.1207961
221	0xbd90c2a3	-0.07068374
222	0xbdf54040	-0.11975145
223	0xbe460201	-0.19336702
224	0xbe15a3d6	-0.1461328
225	0x3e0bbf90	0.13647294
226	0xbd2b53e9	-0.04182807
227	0x3e38fe74	0.18065816
228	0x3db69956	0.08915965
229	0xbd527bef	-0.051387724
230	0x3e1d0596	0.15334162
231	0xbdd29a36	-0.1028332
232	0x3db8caa0	0.09023023
233	0xbe069dd9	-0.13146152
234	0x3cf83521	0.030298771
235	0xbddf69d1	-0.10908855
236	0x3cc209e2	0.023686353
237	0x3d9bcd24	0.07607487
238	0x3e048977	0.12943064
239	0xbd347273	-0.04405446
240	0x3deb22b9	0.11481232
241	0x3e087e5d	0.13329454
242	0x3e522c23	0.2052465
243	0xbd6d4596	-0.05792769
244	0xbd77c2a8	-0.060488373
245	0x3dc85609	0.09782035
246	0x3da44bf8	0.080223024
247	0xbe0f28da	-0.13980427
248	0xbd3a51c3	-0.04548813
249	0xbe1fe3c7	-0.15614234
250	0x3ca64b05	0.020299444
251	0xbd8616d3	-0.06547322
252	0xbdee26b0	-0.11628473
253	0x3e2c490f	0.16824745
254	0xbde73f41	-0.112913616
255	0xbe096fd0	-0.1342156

lstm.bias_ih_l0 f4 [128]
0	0xbcf18a41	-0.02948487
1	0x3db7c726	0.089735314
2	0x3d845f1a	0.06463452
3	0x3e6f5159	0.23370875
4	0x3e6980b6	0.22803006
5	0xbd26d7da	-0.040733196
6	0x3e9f3933	0.31098327
7	0x3e0e48ec	0.13895005
8	0x3d0a6eb9	0.033797
9	0x3e5626eb	0.20913284
10	0xbd6b4f3a	-0.057448603
11	0x3e1c9b76	0.15293679
12	0x3d33627b	0.04379509
13	0x3e493651	0.19649626
14	0x3dd9f114	0.10641685
15	0x3d834f07	0.06411558
16	0x3cf6aad9	0.030110763
17	0x3ea04da3	0.31309232
18	0x3dfdb251	0.12387527
19	0x3e56a77d	0.20962329
20	0x3e88de91	0.26732305
21	0x3dc86275	0.09784404
22	0x3e1601a3	0.14649062
23	0x3e86ea45	0.26350608
24	0x3e977561	0.2958174
25	0x3c5ecf43	0.01359922
26	0x3e94ae9d	0.2903947
27	0x3dcf4d13	0.101221226
28	0xbc201b9a	-0.009772206
29	0x3d9a7a95	0.07542912
30	0x3c5921e6	0.013252711
31	0x3e490ac8	0.19633019
32	0xbd554794	-0.052070215
33	0x3df66b0f	0.120321386
34	0x3e2efc0e	0.17088339
35	0xbdb66123	-0.08905246
36	0x3d91b203	0.07114031
37	0xbdd542d2	-0.104131356
38	0x3db08d07	0.08620649
39	0x3e04bf1d	0.12963529
40	0xbc86cca5	-0.016455004
41	0x3e5a318a	0.2130796
42	0xbdbf435a	-0.09339018
43	0xbd5f09e3	-0.054452788
44	0x3e10a392	0.14124897
45	0x3e0584af	0.13038896
46	0x3d2a5eed	0.041594435
47	0x3d8bf7fb	0.06834408
48	0xbda712b3	-0.081578635
49	0xbd28dd39	-0.0412266
50	0x3d71c7b9	0.05902836
51	0xbd0ef949	-0.034905706
52	0x3c32049d	0.010865358
53	0x3cf5e998	0.030018613
54	0xbc423bea	-0.011855105
55	0xbcc2aff7	-0.023765547
56	0xbd850935	-0.06495897
57	0x3e5257b4	0.20541269
58	0x3dee999a	0.11650391
59	0x3e080d23	0.13286261
60	0x3d88c469	0.06678087
61	0x3e088cc0	0.13334942
62	0x3d69f318	0.057116598
63	0x3df8fb42	0.121572986
64	0xbbe62c4d	-0.007024324
65	0x3e3e5106	0.18585595
66	0xbdcb73b9	-0.09934182
67	0x3d9a3e25	0.075313844
68	0x3e0712a6	0.13190708
69	0xbe354625	-0.1770254
70	0xbe2ab9bf	-0.16672419
71	0x3cc5f411	0.024164231
72	0xbd7394f4	-0.059468225
73	0xbe7858f6	-0.24252686
74	0x3e37857d	0.17922015
75	0xbd88f1bb	-0.066867314
76	0x3e09e4c3	0.13466172
77	0xbd072459	-0.03299365
78	0x3e829f2a	0.25512058
79	0xbdc63667	-0.09678345
80	0x3e8187fc	0.2529906
81	0xbc2b5b4b	-0.010458778
82	0x3e763274	0.24042684
83	0xbe0ebda1	-0.13939525
84	0x3e54222b	0.20716159
85	0x3d8e7c79	0.06957335
86	0x3c35fded	0.011107904
87	0xbe01e14f	-0.12683605
88	0xbe82c2d9	-0.25539282
89	0x3e6151f3	0.22003917
90	0xbdd3af63	-0.10336187
91	0xbde89020	-0.11355615
92	0x3e46f8f3	0.19430904
93	0x3e43ec2e	0.19133064
94	0x3e47df40	0.19518757
95	0x3c7dfd9d	0.015502361
96	0x3deecc3b	0.116600476
97	0x3e550f80	0.20806694
98	0xbdad528f	-0.084630124
99	0x3dfef112	0.12448324
100	0x3e15f97a	0.14645949
101	0xbd10bdad	-0.03533714
102	0x3d889cf2	0.0667056
103	0x3dc64c10	0.096824765
104	0x3dea5096	0.11441152
105	0xbd1f696b	-0.038918894
106	0x3de4a5db	0.11164447
107	0x3e47dd66	0.1951805
108	0x3d6e73f8	0.058216065
109	0x3e733420	0.23750353
110	0x3c373b61	0.011183591
111	0x3db5c8fa	0.08876224
112	0x3df0b6ef	0.11753642
113	0x3d8214c8	0.0635162
114	0xbdb2dbb0	-0.08733308
115	0x3db06ec6	0.08614878
116	0x3e0305bf	0.1279516
117	0x3e072144	0.13196284
118	0xbcf28aa3	-0.029607123
119	0x3d8b40b6	0.06799452
120	0x3e794801	0.24343874
121	0x3e63e4dd	0.22255273
122	0x3a76048d	0.00093848334
123	0x3da6afcb	0.081389986
124	0x3e8f1ad2	0.2795015
125	0x3df10e5f	0.11770319
126	0x3bc4a2ab	0.006000837
127	0x3e32414d	0.17407723

lstm.bias_hh_l0 f4 [128]
0	0x3e082b07	0.13297664
1	0x3ce99b0f	0.02851632
2	0x3df2ddb7	0.11858695
3	0x3c23cda1	0.009997756
4	0x3dbf8775	0.09352008
5	0xbcce3438	-0.025171384
6	0x3d999f62	0.07501103
7	0x3e0b5f3c	0.13610548
8	0x3d884aa8	0.066548645
9	0x3e8fb343	0.28066453
10	0x3e0f2fcf	0.13983081
11	0x3e31c351	0.17359664
12	0x3da6fdc8	0.08153874
13	0x3e52e3d7	0.20594727
14	0x3c554c3a	0.013018662
15	0x3e090e06	0.13384256
16	0xbdac15c5	-0.0840259
17	0x3d6a9c50	0.057277977
18	0x3e14a77b	0.14517014
19	0xbc990dfa	-0.018683422
20	0xbd811d92	-0.06304468
21	0x3dc2523d	0.09488342
22	0x3e857944	0.2606908
23	0xbcaa3a03	-0.020779615
24	0x3e5df975	0.21677192
25	0x3e43d1c1	0.19122984
26	0x3ea02b4b	0.3128303
27	0x3d1ee23b	0.03878997
28	0x3e281534	0.16414338
29	0x3cc783fb	0.024354925
30	0x3e165e85	0.14684494
31	0x3e845a2f	0.25850055
32	0x3d873001	0.06600953
33	0xbc804ce2	-0.01566166
34	0x3ca5d4e3	0.020243114
35	0xbcbffd36	-0.02343617
36	0xbd2ba034	-0.04190083
37	0xbc902b2c	-0.017598711
38	0x3d45c294	0.048281267
39	0xbd8ce855	-0.06880251
40	0xbdcfac06	-0.10140233
41	0x3e292e71	0.16521622
42	0x3b899aa2	0.004199342
43	0x3c50dd68	0.0127481
44	0xbd427149	-0.04747132
45	0x3dd508e8	0.10402089
46	0x3da1b156	0.07895152
47	0x3e8e59a7	0.27802774
48	0xbdd54031	-0.10412634
49	0xbe2ceff2	-0.16888407
50	0x3e2dc676	0.16970238
51	0xbb9b0dc6	-0.0047318665
52	0xbd85c291	-0.06531251
53	0x3d9ef5c4	0.0776172
54	0xbd46addb	-0.048505645
55	0xbdbc8cb1	-0.09206522
56	0x3dbf41dc	0.093387336
57	0x3e0e7925	0.139134
58	0x3d087d3d	0.03332256
59	0xbc5b8e29	-0.013400593
60	0x3e4e6593	0.20155935
61	0xbd529772	-0.05141396
62	0x3ddf5a84	0.10905936
63	0xbe2a2fc3	-0.16619782
64	0x3dfbf490	0.12302506
65	0x3dd84e64	0.10561827
66	0xbc1b690c	-0.009485494
67	0x3e2b090a	0.16702667
68	0xbdec4873	-0.11537256
69	0xbe4398a9	-0.19101204
70	0x3d2bfeb4	0.04199095
71	0x3dfebc45	0.12438253
72	0xbaee6df8	-0.0018190732
73	0xbcbfd0f6	-0.02341507
74	0x3e788815	0.24270661
75	0x3cd14527	0.02554567
76	0x3db22982	0.08699323
77	0xbe35eb5e	-0.17765567
78	0x3c612637	0.013742021
79	0xbe3418be	-0.17587563
80	0x3d558572	0.052129216
81	0x3dbcdc10	0.09221661
82	0x3e4cbe5a	0.19994488
83	0xbde92ee7	-0.11385899
84	0x3c47e8bc	0.012201484
85	0xbe127783	-0.14303403
86	0x3d8ee03c	0.06976363
87	0x3d812c58	0.06307286
88	0xbe83c669	-0.25737312
89	0xbd7e8c4e	-0.062145524
90	0x3db88600	0.090099335
91	0x3e04ecf8	0.12981021
92	0x3e56727e	0.20942113
93	0x3e393f24	0.18090492
94	0xbcd3dd20	-0.025862277
95	0xbd51663c	-0.05112289
96	0x3e0172ca	0.12641445
97	0x3e89d3ce	0.26919407
98	0x3d3be889	0.04587606
99	0x3cae2aec	0.021260701
100	0xbd33e5b8	-0.04392025
101	0x3d932216	0.07184236
102	0x3dfc452b	0.1231788
103	0x3e5a3040	0.21307468
104	0x3cf1914f	0.029488234
105	0x3e23b577	0.15987192
106	0x3e392206	0.18079385
107	0x3e593557	0.21211754
108	0x3a86c4a7	0.0010281996
109	0x3e53e173	0.20691471
110	0x3db3e78d	0.08784399
111	0xbd355906	-0.044274352
112	0x3c4f76bf	0.012662589
113	0x3e94bce4	0.29050362
114	0xbdcf0621	-0.10108591
115	0x3e0dd2bc	0.1384992
116	0x3e3a063f	0.18166445
117	0x3e1b1ae3	0.15146975
118	0x3cd451ad	0.025917852
119	0x3d7728ea	0.060341753
120	0x3e694462	0.22779992
121	0x3dfcbf56	0.12341182
122	0x3ea40e13	0.32041988
123	0x3e2e0277	0.16993128
124	0xbcb494df	-0.022043644
125	0xbc03735c	-0.008023109
126	0xbd8f8ae4	-0.07008913
127	0x3e70df37	0.2352265

lstm.weight_ih_l1 f4 [128, 32]
0	0x3e0f2718	0.13979757
1	0x3e94a754	0.2903391
2	0xbd6697b7	-0.05629703
3	0x3cc099f9	0.02351092
4	0xbd13d7bf	-0.036094423
5	0xbd96648a	-0.07343395
6	0xbe8dbe40	-0.27684212
7	0x3d967c45	0.07347921
8	0x3e00a1c0	0.12561703
9	0xbd724ace	-0.05915337
10	0x3e9e0914	0.308663
11	0xbd8817b9	-0.0664515
12	0x3d130447	0.03589275
13	0x3d61ef51	0.05515987
14	0x3e26dfe1	0.1629634
15	0x3dcf40b6	0.101197645
16	0x3dec482f	0.115372054
17	0x3e877802	0.26458746
18	0x3df8bd09	0.121454306
19	0x3e01ca86	0.12674913
20	0x3eb3ee1f	0.3514261
21	0xbd71d50e	-0.059041075
22	0xbe14e48f	-0.14540313
23	0xbe88ccd5	-0.26718774
24	0xbe8da31a	-0.276635
25	0xbb59105d	-0.0033121326
26	0x3e73c748	0.23806489
27	0x3df89340	0.12137461
28	0xbc02d13c	-0.007984456
29	0x3e3575dc	0.17720741
30	0x3db95a35	0.09050409
31	0x3e0af82c	0.13571233
32	0x3e47703d	0.1947641
33	0x3e1ae442	0.15126136
34	0xbd95fe7d	-0.073239304
35	0x3e0c1944	0.13681513
36	0xbd2c58a2	-0.042076714
37	0xba8a4878	-0.0010550162
38	0xbe1061bb	-0.14099781
39	0x3bfc2a46	0.007695469
40	0xbe035bda	-0.12828007
41	0xbe4dddeb	-0.20104186
42	0x3e25f448	0.16206467
43	0xbe79abec	-0.24381989
44	0xbc971d35	-0.018446544
45	0xbba85909	-0.005137567
46	0x3e48adac	0.195975
47	0x3d9d3b9f	0.076773874
48	0x3dd1cacb	0.10243758
49	0x3d78ec21	0.060772065
50	0x3db70f62	0.08938481
51	0x3e3d1c59	0.18467845
52	0x3e233e8e	0.15941831
53	0x3e00b46f	0.1256883
54	0x3d874e15	0.0660669
55	0xbe5b8725	-0.21438272
56	0xbd8df785	-0.06931976
57	0x3d66db52	0.056361504
58	0x3cc93a9e	0.024564084
59	0x3dabdc01	0.08391572
60	0x3e1760fb	0.14783089
61	0x3cc9f4b5	0.024652818
62	0x3e2d20cb	0.16907041
63	0x3d52610f	0.051362094
64	0x3e95cf9c	0.29259956
65	0x3eb41b22	0.3517695
66	0x3d9f72dc	0.077855796
67	0x3e2a0340	0.16602802
68	0x3ccabeff	0.024749277
69	0x3d9bcc5e	0.07607339
70	0xbe98e9e7	-0.29865953
71	0x3c8abd39	0.016935932
72	0x3d209e3c	0.039213404
73	0xbe30e42b	-0.17274539
74	0x3ebaddcf	0.36497352
75	0xbd95e4a3	-0.073189996
76	0x3e846029	0.25854614
77	0xbdcac54c	-0.09900913
78	0x3eb0bdb6	0.34519738
79	0xbd965bde	-0.07341741
80	0x3e84fa47	0.25972196
81	0x3dcbc854	0.09950319
82	0xbbfbc68c	-0.0076835807
83	0x3de41d98	0.11138457
84	0x3db7b9a3	0.08970954
85	0xbdb53c09	-0.088493414
86	0x3d9791ff	0.074008934
87	0xbe973eba	-0.29540044
88	0xbe8e22e1	-0.27760985
89	0x3ddc9bb4	0.107718855
90	0x3d9869c8	0.07442051
91	0x3e321a9c	0.17392963
92	0x3dac574b	0.08415087
93	0x3e390019	0.18066444
94	0xbe765ca0	-0.24058771
95	0x3e8c7a2a	0.27436954
96	0xbda46200	-0.080265045
97	0xbd37d8b5	-0.044884402
98	0xbe70f416	-0.23530611
99	0xbdcfd755	-0.10148493
100	0x3e199656	0.14998755
101	0xbe29274c	-0.16518897
102	0x3ddc9647	0.10770851
103	0x3e21fec6	0.15819845
104	0xbd559429	-0.05214325
105	0xbc1a2af7	-0.009409658
106	0x3e52c20b	0.20581834
107	0x3da6ea53	0.081501625
108	0xbd39d7a7	-0.045371678
109	0xbe3aca1c	-0.18241161
110	0x3deb4532	0.11487807
111	0xbe5d53f5	-0.21614058
112	0x3d189c92	0.037258692
113	0x3d8ce3f1	0.06879414
114	0x3e4a84dc	0.19777244
115	0xbe17a671	-0.14809586
116	0x3cebb4f4	0.028772809
117	0xbe6eed65	-0.23332746
118	0x3dd775ad	0.10520492
119	0x3e437a16	0.19089541
120	0x3da819a3	0.08208015
121	0x3deaf274	0.114720255
122	0xbde3e331	-0.11127318
123	0xbdf16b97	-0.11788099
124	0x3d61e969	0.055154238
125	0x3de1d967	0.11027794
126	0x3c8dad94	0.017294683
127	0xbe28a5b4	-0.1646946
128	0x3e2d8e2e	0.16948768
129	0x3e495a42	0.19663337
130	0xbe095f7d	-0.13415332
131	0x3db75b0e	0.08952914
132	0xbde36cf7	-0.11104768
133	0x3d3cd5f4	0.04610248
134	0xbeb00dda	-0.34385568
135	0xbd5e926a	-0.05433885
136	0x3e660c8c	0.22465724
137	0xbdb84ca0	-0.0899899
138	0x3e22fd60	0.15916967
139	0x3cc785a1	0.024355711
140	0x3e138947	0.14407836
141	0xbdee34b9	-0.1163115
142	0x3e115be8	0.14195216
143	0xbd472dea	-0.04862777
144	0x3e016d90	0.12639451
145	0x3e1960fe	0.14978406
146	0x3d610f54	0.05494626
147	0xbd39fda4	-0.045407906
148	0x3bc9a093	0.006153175
149	0x3db668bd	0.08906696
150	0x3df8de03	0.121517204
151	0xbd05a1ca	-0.032624997
152	0xbe2bd113	-0.16778974
153	0xbe02921f	-0.12751053
154	0x3d97ab8e	0.07405768
155	0x3dfa0710	0.12208378
156	0x3e4719d0	0.1944344
157	0xbd96a51f	-0.07355713
158	0xbd17b3de	-0.03703677
159	0x3d0d6c05	0.034526844
160	0x3ec279eb	0.3798364
161	0x3df04959	0.1173274
162	0x3c0bf108	0.008541353
163	0x3e6924c5	0.22767933
164	0xbda43e46	-0.0801969
165	0x3e1cfc03	0.1533051
166	0xbe99da72	-0.30049473
167	0xbda84a76	-0.08217327
168	0x3dba4128	0.09094459
169	0xbe6313a6	-0.22175464
170	0x3d565556	0.052327476
171	0x3c27ba0a	0.010237226
172	0x3db87265	0.09006194
173	0xbe109aa5	-0.14121492
174	0x3e6e6023	0.23278861
175	0x3dd36c9c	0.1032345
176	0x3eaf79e5	0.34272686
177	0x3e18d1c6	0.14923772
178	0x3e7b2e7f	0.24529456
179	0x3e301641	0.17195989
180	0x3e06943f	0.13142489
181	0x3e258ea3	0.16167693
182	0xbea5d69f	-0.32390305
183	0xbddc89ab	-0.107684456
184	0xbe01d1a6	-0.12677631
185	0x3d466624	0.048437253
186	0x3ec6dcc7	0.38840315
187	0x3e41433e	0.18873307
188	0x3e5df4b9	0.21675386
189	0x3ccebabf	0.025235532
190	0xbe5f144f	-0.21785091
191	0x3e5013b3	0.20320015
192	0x3e709cb3	0.23497276
193	0x3b225f6b	0.0024776112
194	0x3df7c8bc	0.12098834
195	0x3e554052	0.20825318
196	0xbe10a1eb	-0.14124267
197	0x3e21dab3	0.15806083
198	0xbe767a79	-0.24070157
199	0x3d9856a5	0.07438401
200	0x3c9b97df	0.018993316
201	0xbe8b03b5	-0.27151266
202	0x3e870452	0.26370484
203	0xbe7be0e4	-0.24597508
204	0xbc008b4a	-0.007845709
205	0xbdbc3d7a	-0.09191413
206	0xbbd4539c	-0.0064796936
207	0xbe5bd068	-0.2146622
208	0x3d6ddc15	0.058071215
209	0x3e404c35	0.1877907
210	0x3e53e4a7	0.20692693
211	0xbdc19e57	-0.09454029
212	0x3e54404a	0.2072765
213	0xbdd638fa	-0.10460086
214	0x3dd78ea0	0.105252504
215	0xbe95ea06	-0.29280108
216	0xbd197f2e	-0.037474804
217	0x3e1dc17a	0.15405837
218	0x3e203ffc	0.15649408
219	0xbdd5e07d	-0.10443208
220	0x3db9e104	0.090761214
221	0xbdf89994	-0.12138668
222	0xbdfc26b8	-0.123120725
223	0x3d4b28ca	0.049599446
224	0xbdc45a77	-0.09587567
225	0xbe0bb8c9	-0.13644709
226	0x3c95db24	0.018292971
227	0xbde61e94	-0.11236301
228	0x3d2591d9	0.040422294
229	0x3dd449eb	0.10365661
230	0x3e4acc64	0.19804531
231	0x3d810a13	0.0630075
232	0x3dc312d1	0.09525073
233	0xbe33c653	-0.17556123
234	0xbe2f4a42	-0.17118171
235	0x3cfb9ce0	0.030714452
236	0xb9f400f7	-0.00046540026
237	0x3d93acde	0.07210706
238	0x3df15813	0.11784377
239	0xbe26974f	-0.16268657
240	0xbe38ef9d	-0.18060155
241	0xbda9e7eb	-0.08296188
242	0x3e3afac7	0.18259726
243	0x3e0afc25	0.13572748
244	0xbcb9cd50	-0.022680908
245	0xbe280c8d	-0.16411038
246	0xbd9708bd	-0.073747136
247	0xbd21b111	-0.039475504
248	0x3d4b99e6	0.049707316
249	0xbdd04591	-0.10169519
250	0xbe44d826	-0.19223079
251	0xbe57bee8	-0.21068919
252	0x3d810aa8	0.06300861
253	0xbd29a689	-0.041418586
254	0x3d9eea64	0.0775955
255	0xbe175206	-0.14777383

lstm.weight_hh_l1 f4 [128, 32]
0	0x3df27064	0.11837843
1	0xbdffa442	-0.124825016
2	0x3d846053	0.06463685
3	0xbe6af06d	-0.22943278
4	0x3d234276	0.039858304
5	0xbca68c43	-0.020330554
6	0xbe19ea28	-0.1503073
7	0xbe3302ea	-0.1748158
8	0xbde0375f	-0.10948061
9	0x3e40f291	0.18842532
10	0xbdc872c1	-0.097875126
11	0x3cfd091f	0.030888138
12	0xbc042191	-0.0080646435
13	0x3e200a0a	0.1562883
14	0x3d8de4eb	0.06928428
15	0x3e01355c	0.12618011
16	0x3e3ab3a8	0.18232596
17	0xbdbcb1c5	-0.09213594
18	0xbe0356e6	-0.12826118
19	0x3d67861d	0.056524385
20	0x3da70d1e	0.08156799
21	0xbd0333dc	-0.03203188
22	0xbd1e92c1	-0.038714174
23	0xbe221177	-0.15826975
24	0x3dfb55b2	0.122722045
25	0xbda863da	-0.0822217
26	0x3dff797c	0.12474343
27	0xbd25790b	-0.04039864
28	0x3da80edb	0.082059585
29	0x3dfc9f77	0.12335103
30	0xbe3263d2	-0.17420891
31	0x3d92130b	0.071325384
32	0x3e201d9f	0.156363
33	0x3dbef799	0.09324569
34	0xbda7b4df	-0.08188795
35	0xbe2433e0	-0.16035414
36	0xbded0a6c	-0.115742534
37	0x3cb10eef	0.021613566
38	0xbc8cb7c4	-0.01717747
39	0x3d1187c1	0.035529856
40	0xbbb02a63	-0.0053761466
41	0x3dc28587	0.094981246
42	0xbd87cd48	-0.06630951
43	0xbd837e6c	-0.064205974
44	0x3e8605e2	0.26176363
45	0xbe1962a1	-0.1497903
46	0xbd8e13fa	-0.06937404
47	0xbe83ab74	-0.25716746
48	0x3c04d2e1	0.008106918
49	0xbe0aeeb4	-0.1356762
50	0x3dcc49fd	0.0997505
51	0xbd5d2fd8	-0.054000705
52	0x3e4adbd5	0.19810422
53	0x3e05ba29	0.13059296
54	0x3e0240eb	0.12720077
55	0xbdb966ff	-0.09052848
56	0xbe2ac577	-0.1667689
57	0x3e2b74cf	0.16743778
58	0xbe601de0	-0.21886396
59	0x3e4fb7ea	0.20285001
60	0xbd5bdd94	-0.05367811
61	0x3e800559	0.2500408
62	0x3e2df5f5	0.16988356
63	0x3e29f167	0.16595994
64	0x3c15e02a	0.009147683
65	0x3e2d6b76	0.16935524
66	0xbc273cd5	-0.010207375
67	0xbe174f26	-0.14776286
68	0x3e127f92	0.14306477
69	0xbdf99a4a	-0.121876314
70	0x3db52851	0.0884558
71	0xbe0255d8	-0.1272806
72	0xbdf8d387	-0.12149721
73	0xbddd9c75	-0.108208574
74	0x3c870a78	0.016484484
75	0x3e14c53f	0.14528368
76	0x3c330efb	0.010928865
77	0x3dd81ef9	0.105527826
78	0x3d191647	0.03737476
79	0x3dc2da29	0.09514267
80	0xbdfcd80c	-0.12345895
81	0xbd3fa064	-0.04678382
82	0x3e0cbd19	0.1374401
83	0x3e20792c	0.15671223
84	0x3de8825d	0.1135299
85	0x3da59071	0.08084191
86	0x3da7c380	0.081915855
87	0x3da8c4cc	0.08240661
88	0x3e0b9104	0.13629538
89	0xbdf0c09a	-0.11755486
90	0xbc40e260	-0.011772722
91	0x3d2b4944	0.04181792
92	0xbd0fca76	-0.03510519
93	0x3cb16a8a	0.021657247
94	0x3cdb2fc8	0.026756182
95	0x3be4a5a6	0.0069777546
96	0x3db65781	0.08903409
97	0x3dba7b95	0.09105603
98	0x3d01d79f	0.031699773
99	0x3d3c12bb	0.0459163
100	0x3d2ed4bd	0.04268335
101	0x3df52dc3	0.11971619
102	0xbc8aff4d	-0.01696744
103	0x3d7c981d	0.061668504
104	0xbde594bc	-0.112100095
105	0xbdcd8a5c	-0.100361556
106	0x3de6cbfc	0.11269376
107	0xbe0c7355	-0.1371587
108	0xbddd771f	-0.10813736
109	0x3d6fdaf4	0.05855842
110	0x3d21cd6d	0.03950255
111	0xbbd70cf1	-0.006562822
112	0x3e15bc04	0.14622504
113	0x3d23dfb9	0.04000828
114	0xbdb6f5ca	-0.08933599
115	0x3dfcc82b	0.123428665
116	0xbd00a6a8	-0.031408936
117	0xbd32d31a	-0.043658353
118	0x3d77902d	0.06044023
119	0x3e17a7fe	0.14810178
120	0xbe759a5b	-0.23984663
121	0x3e27994d	0.16367073
122	0x3dd6480c	0.104629606
123	0x3c745b20	0.014914304
124	0xbcdbb6a3	-0.026820486
125	0x3e511b83	0.20420651
126	0xbd87b34b	-0.06625994
127	0xbd9e648c	-0.077340215
128	0x3d928484	0.071541816
129	0xbc9fa104	-0.019485958
130	0xbc4ac587	-0.012376196
131	0x3d59f6ad	0.053213764
132	0x3e0a722d	0.13520117
133	0x3de6754c	0.11252841
134	0x3dff9f63	0.124815725
135	0x3dce738d	0.10080633
136	0xbd8c0a56	-0.06837909
137	0xbd32aadc	-0.043619975
138	0xbccb3a67	-0.024808122
139	0xbd26b5e9	-0.040700827
140	0xbcae1f25	-0.021255085
141	0x3e31ba05	0.17356117
142	0x3d8bda5f	0.0682876
143	0x3da884bc	0.08228442
144	0xbe1463bd	-0.14491172
145	0xbc4c5a6b	-0.012472729
146	0x3cd811fb	0.026375761
147	0xbe13f281	-0.14447977
148	0x3d16b0a8	0.036789566
149	0xbd96f7c1	-0.07371474
150	0x3df4531d	0.11929915
151	0x3c0b4891	0.008501188
152	0xbe363b87	-0.17796145
153	0x3d0decd9	0.034649704
154	0x3db3ba52	0.08775772
155	0x3e0e702c	0.13909978
156	0x3e140cc4	0.14457995
157	0x3db78d14	0.089624554
158	0x3d829c8f	0.063775174
159	0xbdc11752	-0.09428276
160	0xbdc23aa8	-0.09483844
161	0xbe61d798	-0.22054899
162	0xbd6cd22d	-0.057817627
163	0xbd4f4f91	-0.05061299
164	0xbe25dcc7	-0.16197501
165	0x3e3af530	0.18257594
166	0x3d533e48	0.051573068
167	0x3dbf09f8	0.09328073
168	0x3c463984	0.012098674
169	0xba42e082	-0.0007433967
170	0xbdeeb9b8	-0.11656517
171	0x3e22a20c	0.15882128
172	0x3cdef6ea	0.027217347
173	0x3d363e12	0.04449279
174	0x3ddbd1f6	0.10733406
175	0xbdb3c95f	-0.08778643
176	0x3cf62f3e	0.030051824
177	0x3e2c92b9	0.16852845
178	0xbdb172b6	-0.086644575
179	0xbd023ee0	-0.031798244
180	0xbd100dc0	-0.035169363
181	0x3e25fd41	0.1620989
182	0xbdc95ed1	-0.09832538
183	0x3d0aaff9	0.033859227
184	0xbd1deae8	-0.038554102
185	0x3cc9912a	0.024605352
186	0xbe0f4cb4	-0.13994104
187	0xbd7cdd21	-0.061734322
188	0x3c000520	0.007813722
189	0xbd0532c8	-0.032519132
190	0xbc7e1a0f	-0.015509143
191	0x3e2073e0	0.15669203
192	0xbd879432	-0.06620063
193	0x3dc1eb55	0.09468714
194	0xbc8b835e	-0.017030414
195	0xbd696052	-0.056976624
196	0xbdbc6ce3	-0.09200456
197	0x3e17b38d	0.14814587
198	0x3dd54382	0.10413267
199	0xbc0c463c	-0.008561667
200	0xbe57c942	-0.21072868
201	0x3db42434	0.08795968
202	0xbc8feced	-0.01756903
203	0xbcc25f4d	-0.023727084
204	0x3e337883	0.1752644
205	0x3bae8567	0.0053259614
206	0xbdf4d00c	-0.11953744
207	0xbe5238e4	-0.20529515
208	0xbe63f5d5	-0.22261746
209	0x3e2894a6	0.16462955
210	0xbd8f47a4	-0.06996086
211	0xbd51ab99	-0.05118904
212	0xbcf54546	-0.029940259
213	0x3d04dde4	0.032438174
214	0x3d85b6a2	0.06528975
215	0x3df2583b	0.11833235
216	0xbcee1d73	-0.029066777
217	0x3e7e6884	0.24844557
218	0x3d5928bd	0.053017367
219	0x3e78c97c	0.2429561
220	0x3d45029d	0.048098195
221	0x3dea35e6	0.114360616
222	0xbd6843ec	-0.0567054
223	0x3da36a8d	0.07979307
224	0x3da90bea	0.082542256
225	0x3e0ab17c	0.13544267
226	0xbe156bf4	-0.14591962
227	0xbc2847fd	-0.01027107
228	0xbdc2a300	-0.09503746
229	0xbd64ac7e	-0.055828564
230	0x3d9b2831	0.07576025
231	0x3e018492	0.12648228
232	0xbcbe7112	-0.023247276
233	0xbd14366d	-0.036184717
234	0xbdbba921	-0.09163118
235	0xbbb8c302	-0.005638481
236	0x3e4c0881	0.19925119
237	0xbcea0b6a	-0.028569896
238	0x3dd1d050	0.102448106
239	0xbcff76bc	-0.031184547
240	0xbe41aba9	-0.1891314
241	0x3dca6e56	0.09884326
242	0x3cb9b39c	0.022668652
243	0xbde41004	-0.11135867
244	0xbd6fcac8	-0.058542997
245	0x3de62e87	0.11239343
246	0x3dcc1869	0.09965593
247	0xbca1100c	-0.019660972
248	0xbcb64211	-0.0222483
249	0x3e01cdef	0.12676214
250	0xbe0093ff	-0.12556456
251	0xbd04ca8e	-0.032419734
252	0xbc59d110	-0.013294473
253	0x3cd7042d	0.026247108
254	0x3e112e71	0.14177872
255	0x3dc6ff3f	0.09716653

lstm.bias_ih_l1 f4 [128]
0	0x3e88648d	0.26639214
1	0x3e2b0859	0.16702403
2	0x3dbedb57	0.093191795
3	0xbd70ee8a	-0.05882124
4	0x3dd4f46f	0.103981845
5	0x3e5330c2	0.20624068
6	0x3e55e87e	0.2088947
7	0x3ddf777e	0.10911463
8	0x3e73254a	0.23744693
9	0x3dd9dee4	0.10638216
10	0xbb901e31	-0.0043981303
11	0x3d076f32	0.03306503
12	0x3c8ab50f	0.016932039
13	0x3d8cfa96	0.06883733
14	0xbe1e1bf3	-0.1544035
15	0x3e18185c	0.14853042
16	0x3e122bf6	0.14274582
17	0x3e1a3935	0.15060885
18	0x3e43fe31	0.19139935
19	0x3e8be03d	0.27319518
20	0x3ce45d98	0.02787666
21	0x3dd70fd0	0.10501063
22	0xbd727f23	-0.05920328
23	0xbbd6aa52	-0.0065510655
24	0x3e92fcd6	0.28708524
25	0xbd568ce5	-0.05238046
26	0x3cbc334e	0.022973683
27	0x3cff0e14	0.031134643
28	0x3e53e6a1	0.20693447
29	0x3e8a2e38	0.26988387
30	0xbc9735b9	-0.018458234
31	0x3e02bb6f	0.12766813
32	0xbd31f0d0	-0.043442547
33	0x3e0644ab	0.13112132
34	0xbc90e99e	-0.017689522
35	0x3deb1da0	0.1148026
36	0x3d3096da	0.043112613
37	0xbe28a169	-0.16467823
38	0xbc9e5565	-0.019327829
39	0x3dfb3d47	0.12267547
40	0x3d242b35	0.040080268
41	0x3d704016	0.058654867
42	0x3dbcabc7	0.092124514
43	0xbde0621f	-0.10956215
44	0x3e2c4941	0.16824819
45	0xbd640d02	-0.055676468
46	0x3dd67879	0.10472197
47	0x3d5d3c15	0.054012377
48	0x3dc1074e	0.094252214
49	0xbce5abc5	-0.028036008
50	0xbe07d508	-0.13264859
51	0x3df3b109	0.11899001
52	0x3dc68b01	0.09694482
53	0xbb514bec	-0.0031936122
54	0x3a35e323	0.0006938448
55	0x3b779352	0.0037777019
56	0x3e105035	0.14093097
57	0x3e0bc078	0.1364764
58	0xbcf7dc91	-0.030256541
59	0x3e55c598	0.20876157
60	0xb98d905f	-0.0002700118
61	0x3e19c59a	0.15016785
62	0x3de496ec	0.111615986
63	0x3e20e15a	0.15710965
64	0x3e33b632	0.17549971
65	0x3cc8ed5f	0.02452725
66	0x3e7f9451	0.24958922
67	0xbde042be	-0.1095023
68	0xbe709952	-0.23495987
69	0x3e53dc00	0.20689392
70	0x3e55ebb4	0.20890695
71	0xbdfd7e64	-0.12377623
72	0x3d780bfb	0.0605583
73	0xbc0fcbb9	-0.008776599
74	0x3dbe59d4	0.09294477
75	0x3e2f4133	0.17114715
76	0x3e2c9499	0.1685356
77	0xbdbed6ea	-0.09318335
78	0x3c72c0ea	0.014816502
79	0xbd2e24aa	-0.042515434
80	0x3d4ab49b	0.049488645
81	0x3e0a7a78	0.1352328
82	0x3e43ae83	0.1910954
83	0xbe71413a	-0.23560038
84	0x3da47ec0	0.08031988
85	0xbd8c2d4c	-0.06844577
86	0xbe2a4053	-0.166261
87	0x3deeed55	0.11666361
88	0xbe8410e8	-0.25794148
89	0x3e0ebd0c	0.13939303
90	0xbe2de4d5	-0.16981824
91	0x3daa78b2	0.08323802
92	0xbe31233d	-0.17298599
93	0x3e8d45ee	0.27592415
94	0x3e5b6c23	0.2142797
95	0x3e4fcf6d	0.2029397
96	0x3e88813b	0.26661095
97	0xbd8b7ee2	-0.0681131
98	0xbc13fe2b	-0.009032766
99	0x3e597c96	0.21238932
100	0x3c73cc9e	0.0148803275
101	0x3d263db4	0.04058619
102	0x3e19a1cb	0.15003125
103	0xbdbfce56	-0.09365527
104	0x3e4d8dd6	0.20073637
105	0xbe219a94	-0.15781623
106	0xbd85a5eb	-0.06525787
107	0x3e63b950	0.2223866
108	0x3e5e8590	0.21730638
109	0x3d0a2e52	0.03373558
110	0x3df37a2b	0.11888536
111	0x3b131775	0.0022444401
112	0x3e70dffe	0.23522946
113	0x3ddbc057	0.10730045
114	0x3e2de9eb	0.16983764
115	0x3e514302	0.20435718
116	0x3e3e70e0	0.18597746
117	0x3d767fe7	0.06018057
118	0x3dd9b0fd	0.10629461
119	0x3e1a1245	0.15046032
120	0x3dc5d930	0.09660566
121	0x3e82aa04	0.25520337
122	0x3da8329d	0.08212779
123	0x3e5a0ca0	0.21293879
124	0x3e61f614	0.22066528
125	0xbcb9c194	-0.022675313
126	0x3d9dae2d	0.07699237
127	0x3e77c54f	0.24196361

lstm.bias_hh_l1 f4 [128]
0	0x3d788c0d	0.060680438
1	0x3e2fd55b	0.17171232
2	0x3dcabced	0.09899316
3	0x3e7b7ee1	0.24560119
4	0x3db5a32d	0.08869014
5	0x3e3c573a	0.1839265
6	0x3e83948e	0.25699276
7	0xbca6de3f	-0.020369647
8	0x3e3423c4	0.17591769
9	0xbdc204f3	-0.094736
10	0x3e558994	0.20853263
11	0x3e5751ff	0.21027373
12	0x3e3d45ed	0.18483706
13	0x3db9a4f2	0.09064664
14	0x3d85e539	0.065378614
15	0xbc864e89	-0.01639487
16	0x3e6d9ce9	0.23204388
17	0x3dc0c252	0.09412064
18	0x3e120edf	0.14263485
19	0x3c8c53b5	0.017129758
20	0x3e27272c	0.16323537
21	0xbe0a2318	-0.1348995
22	0x3d6933cc	0.056934163
23	0x3e45265e	0.19252917
24	0xbcb6f11d	-0.022331769
25	0x3ce0e111	0.02745107
26	0x3e379afe	0.17930219
27	0xbdc9f536	-0.098612234
28	0x3e01b136	0.12665257
29	0x3e5acabf	0.21366404
30	0x3e866670	0.2625003
31	0xbc402572	-0.011727678
32	0x3cca0740	0.02466166
33	0x3d9bdeb4	0.076108366
34	0xbe2b5929	-0.1673323
35	0x3e0b68ac	0.13614148
36	0x3dd8d686	0.10587792
37	0xbe642415	-0.22279389
38	0xbd15ebca	-0.03660182
39	0x3dcfa41d	0.10138724
40	0x3db44214	0.08801666
41	0x3d6fa864	0.0585102
42	0xbc122705	-0.008920436
43	0xbd42fd3d	-0.047604788
44	0xbc9afc1f	-0.018919049
45	0x3e07099c	0.1318726
46	0xbe300e15	-0.17192872
47	0x3dfd39f8	0.12364572
48	0x3d9a0e1a	0.07522221
49	0xbced888f	-0.02899578
50	0x3d6fb53f	0.05852246
51	0xbd27a567	-0.040929224
52	0xbd6c95d1	-0.057760064
53	0x3dc21ea3	0.094785
54	0xbd9afc59	-0.07567663
55	0xbdcfdc2a	-0.10149415
56	0xbd949ab2	-0.07256068
57	0x3d8dbf2f	0.06921231
58	0x3d53a58e	0.051671557
59	0x3db64e11	0.08901609
60	0x3dea4e9d	0.114407755
61	0x3dda7bf1	0.10668171
62	0xbe33fa99	-0.17576064
63	0x3cffba85	0.03121687
64	0x3e5a0e58	0.21294534
65	0xbd7d80e9	-0.061890516
66	0x3dda1d2c	0.10650095
67	0xbd927725	-0.07151631
68	0xbe602096	-0.2188743
69	0x3d85b123	0.06527927
70	0xbded62c2	-0.11591102
71	0xbdde5f21	-0.10857988
72	0x3d634ae0	0.05549133
73	0x3d31e66c	0.043432638
74	0xbcfed4c9	-0.031107323
75	0xbdca2832	-0.09870948
76	0x3e4274f6	0.1898993
77	0xbe866284	-0.26247036
78	0x3d8b5e9c	0.06805155
79	0xbca234eb	-0.019800624
80	0xbe3d807e	-0.18506047
81	0x3d065088	0.032791644
82	0x3c2f606c	0.010704141
83	0xbd4c684f	-0.049904164
84	0xbd0d104f	-0.03443938
85	0x3d69eaa0	0.05710852
86	0xbe34e284	-0.17664534
87	0x3e732dfa	0.23748007
88	0xbe3e3501	-0.18574907
89	0x3e8c0fd5	0.2735583
90	0xbe07a9df	-0.13248394
91	0x3ae0a7aa	0.0017139812
92	0xba1ef98b	-0.00060644065
93	0x3e7ca44c	0.2467205
94	0xbd5828cc	-0.052773282
95	0xbd9add38	-0.075617254
96	0x3d2b800e	0.04187017
97	0x3d2dc3cb	0.04242305
98	0x3dafae4f	0.085781686
99	0x3e289128	0.16461623
100	0x3d5abf9b	0.053405385
101	0x3e42893a	0.1899766
102	0x3d9642a8	0.073369324
103	0xbd84f03d	-0.06491134
104	0x3e245d0a	0.16051117
105	0xbd1993bf	-0.037494417
106	0x3e0bb5f2	0.13643625
107	0xbd77c003	-0.06048585
108	0xbc0503c7	-0.008118576
109	0xbc724162	-0.014786096
110	0x3d985a14	0.07439056
111	0xbda9f9e1	-0.08299614
112	0x3e483415	0.19551118
113	0x3d06f20e	0.032945685
114	0x3dc6ff25	0.09716634
115	0x3db0d218	0.08633822
116	0x3da4a435	0.080391325
117	0xbd317017	-0.043319788
118	0x3de33cdc	0.110955924
119	0x3dd30c0e	0.103050336
120	0xbb1d4589	-0.0023997745
121	0x3dc5f80f	0.09666454
122	0x3e8e44b5	0.27786794
123	0xbdc18cdf	-0.09450697
124	0x3b9d5f93	0.004802653
125	0xbd45dabc	-0.048304304
126	0x3dbc81a6	0.09204416
127	0x3e02e6f9	0.12783422

fc.weight f4 [2, 32]
0	0xbe2d25de	-0.16908976
1	0x3cbd74c2	0.023126964
2	0xbe1069da	-0.14102879
3	0x3d8e8cb5	0.069604315
4	0x3e797a90	0.2436316
5	0xbe4e21ef	-0.20130132
6	0xbe5096bf	-0.20370005
7	0xbd886a34	-0.06660882
8	0xbe58b862	-0.21164086
9	0x3db36b3a	0.08760686
10	0xbe3161cf	-0.17322467
11	0xbe54a614	-0.20766479
12	0xbe75d169	-0.24005665
13	0x3e239caa	0.15977731
14	0x3dbb2ecc	0.09139785
15	0xbce0d20c	-0.027443908
16	0x3e84d086	0.2594034
17	0xbdd62a85	-0.10457329
18	0xbe805606	-0.2506563
19	0x3e6c847c	0.23097414
20	0x3e1ebf3b	0.15502636
21	0xbdf4998b	-0.119433485
22	0x3d4a154b	0.049336713
23	0xbe15101f	-0.14556931
24	0x3e870f05	0.26378646
25	0xbe536d3f	-0.20647143
26	0x3e702f97	0.23455654
27	0xbdd10a1e	-0.10207008
28	0x3dd422d8	0.103582084
29	0xbe5c5ede	-0.21520564
30	0xbe3e5cd6	-0.18590102
31	0xbe085ca3	-0.13316588
32	0x3e85b23f	0.26112553
33	0xbe647a49	-0.22312273
34	0x3e7739cc	0.24143142
35	0xbccea897	-0.025226874
36	0xbe033d2e	-0.12816307
37	0x3e3766b9	0.1791028
38	0x3e42f3c1	0.19038297
39	0x3ca42db3	0.020041322
40	0x3e80e66c	0.25175798
41	0x3dcbbd0c	0.09948167
42	0x3d28a432	0.041172214
43	0x3e2cc73c	0.16872877
44	0x3dfb8889	0.122819014
45	0xbe972d12	-0.29526573
46	0xbc854300	-0.0162673
47	0x3e3b033b	0.18262951
48	0xbdb99cc4	-0.09063104
49	0x3e883b65	0.26607814
50	0xbdb70d25	-0.08938054
51	0xbe998aee	-0.29988807
52	0xbe4a15fa	-0.19734946
53	0xbd04b0ef	-0.0323953
54	0xbe7d24eb	-0.24721114
55	0x3e6d7970	0.23190856
56	0x3e259fe5	0.16174276
57	0x3ce36206	0.027756702
58	0xbd90d4be	-0.07071827
59	0xbe0557f2	-0.1302183
60	0xbe499156	-0.19684348
61	0x3c2b8f5a	0.010471189
62	0x3e8e11f3	0.2774807
63	0x3de255ea	0.11051543

fc.bias f4 [2]
0	0x3c9c5859	0.019085096
1	0x3d0b5790	0.034019053
