experiments/ERA5Forecasting/logs/lstm_model.pth (torch, 803826 bytes, 10 tensors)

lstm.weight_ih_l0 f4 [512, 3]
0.02919158 -0.024777198 0.0557824 0.061143942 0.13531084 0.018475989 -0.0067509217 -0.10659059
-0.059370127 -0.012688164 -0.015856983 -0.00082376 -0.013817632 0.0765834 -0.103300266 -0.061322335
0.06835689 -0.05186261 0.06732862 0.070290886 -0.019183563 -0.012175525 -0.048357293 -0.0015497813
-0.052509516 0.068340845 -0.029697591 -0.1221619 0.021768138 -0.15695603 -0.011099877 -0.06925455
-0.10225013 -0.08758254 0.13235298 -0.028194528 -0.010593852 0.01362192 -0.10873244 5.6598485e-05
0.0074786968 -0.10334849 -0.13584454 0.042200197 -0.10868833 0.041401923 0.14542921 -0.082758896
0.010751068 -0.022080578 -0.10447147 -0.045083627 0.1291194 -0.07350172 -0.037233397 0.071752526
-0.14120099 -0.07970569 0.056081407 -0.00929889 -0.06199321 0.13943288 0.042576574 -0.06704786
0.09411654 0.038687043 -0.07128894 0.021492638 0.044651553 -0.022974394 0.08987916 -0.019306235
-0.012480916 -0.04962715 -0.08148598 -0.094962016 0.053196564 -0.10019768 0.0071974257 -0.114440665
0.044340257 0.05784477 -0.11786303 -0.016569417 -0.1042783 0.061718386 -0.05927829 -0.020308012
0.015283478 -0.12061694 -0.116422124 0.111119725 -0.14922541 0.06567105 0.05121743 0.03629201
-0.0077851852 -0.055233378 -0.1451029 -0.02939353 0.032300673 0.047539316 0.033475745 0.057752572
-0.0724549 -0.049083766 0.07860328 -0.04281639 -0.071596615 -0.0347014 -0.006999905 -0.06622144
0.16361257 -0.12003621 -0.06586831 0.102513276 -0.07514279 0.058162306 0.084244445 -0.01502797
-0.0979834 0.16650064 0.020475198 0.028803403 0.0025791065 -0.0021695793 -0.06729754 0.05102919
0.06973582 -0.054531608 0.037989944 -0.011610737 -0.06635606 0.03548863 0.042540457 -0.07375455
0.021114841 0.013598882 0.03972937 0.02922978 -0.0362026 -0.08399011 0.14549279 0.01152852
-0.03683188 -0.05452713 0.053107765 -0.07787629 -0.02621544 -0.13519892 -0.084175624 -0.03774196
0.00019392218 0.033670735 0.09620788 0.08197449 -0.038668565 0.10031567 -0.10165976 0.021778828
-0.03651872 0.089462854 -0.0057809255 0.06775732 0.024145387 0.003214285 0.09584801 -0.10367431
0.006870431 0.0450426 -0.042224586 -0.09753355 0.006709815 -0.09954013 -0.029819416 0.01836367
-0.019401854 -0.11973405 0.11564681 -0.025670584 0.020126842 0.14234677 0.031704146 0.01926889
-0.031129714 0.018607026 0.0069145528 0.069733135 -0.06817203 0.05837362 -0.016042657 -0.08245812
0.03948988 -0.034239862 -0.04661016 -0.1334618 0.028329503 -0.106989905 -0.063396804 -0.010734338
-0.021440187 -0.07839143 0.110452875 0.008623549 -0.05461451 -0.042147346 -0.045555316 -0.09147556
0.1372531 -0.02581733 0.03931846 0.072599806 -0.06346774 -0.027330585 -0.10373021 0.01538615
-0.095107235 -0.013174724 -0.0063889683 0.049538605 -0.0068349196 0.09383545 -0.08815856 0.09087207
-0.09654955 -0.13145864 -0.045125805 -0.021426361 0.01007181 0.06492745 -0.08692207 -0.098602
0.13095641 -0.101387136 -0.12489385 0.044860754 -0.11635394 0.013770054 0.15900719 0.012569301
-0.019998766 0.07360196 -0.051669102 0.058348082 0.11968343 0.021533797 0.06859845 -0.0750617
-0.08617111 -0.03629805 -0.08198837 -0.046683125 0.030816393 -0.033540484 -0.068722904 -0.043609142
00000000: 2e23 ef3c 8df9 cabc 167c 643d 1272 7a3d
00000010: ed8e 0a3e f55a 973c d636 ddbb 2b4c dabd
00000020: 172e 73bd 04e2 4fbc 81e6 81bc 99f1 57ba
00000030: 5963 62bc c2d7 9c3d 178f d3bd 212d 7bbd
00000040: b2fe 8b3d e36d 54bd 96e3 893d abf4 8f3d
00000050: d926 9dbc da7b 47bc 4c12 46bd 0822 cbba
00000060: 3814 57bd 49f6 8b3d 5d48 f3bc 0530 fabd
00000070: 1853 b23c 15b9 20be 42dc 35bc 54d5 8dbd
00000080: 8468 d1bd 7a5e b3bd 8a87 073e 36f8 e6bc
00000090: d691 2dbc 792e 5f3c 1daf debd 2964 6d38
000000a0: db0f f53b 60a8 d3bd d51a 0bbe 1dda 2c3d
000000b0: fd97 debd 1095 293d 65eb 143e 7f7d a9bd
000000c0: 3f25 303c 54e2 b4bc 23f5 d5bd 9ca9 38bd
000000d0: e037 043e 1288 96bd 0c82 18bd fdf2 923d
000000e0: fe96 10be bd3c a3bd 9eb5 653d 5f5a 18bc
000000f0: 98ec 7dbd 7ec7 0e3e c664 2e3d 6350 89bd
00000100: 2cc0 c03d 4e76 1e3d f0ff 91bd 5411 b03c
00000110: 8ce4 363d cc34 bcbc 9112 b83d 1c28 9ebc
00000120: c27c 4cbc d745 4bbd 1fe2 a6bd 727b c2bd
00000130: a4e4 593d 7134 cdbd 62d8 eb3b de5f eabd
00000140: 219e 353d a3ee 6c3d 2c62 f1bd 96bc 87bc
00000150: dd8f d5bd 6bcc 7c3d cbcd 72bd fd5c a6bc
00000160: 8e67 7a3c 0406 f7bd b96e eebd bd92 e33d
00000170: 8cce 18be 8b7e 863d 5ec9 513d eea6 143d
00000180: de1a ffbb 653c 62bd db95 14be b3ca f0bc
00000190: b64d 043d 96b8 423d dd1d 093d f68d 6c3d
000001a0: 3c63 94bd 0f0c 49bd c2fa a03d 3d60 2fbd
000001b0: 3fa1 92bd 0e23 0ebd 765f e5bb 1b9f 87bd
000001c0: 0e8a 273e 8bd5 f5bd f7e5 86bd 7bf2 d13d
000001d0: 77e4 99bd 993b 6e3d 5a88 ac3d e037 76bc
000001e0: 85ab c8bd 257f 2a3e 9abb a73c 1df5 eb3c
000001f0: 3a06 293b 802f 0ebb 4bd3 89bd fc03 513d
00000200: a7d1 8e3d 895c 5fbd 589b 1b3d f63a 3ebc
00000210: b0e5 87bd 875c 113d e73e 2e3d a00c 97bd
00000220: 08f9 ac3c d8cd 5e3c 44bb 223d 4b73 ef3c
00000230: 2d49 14bd 0203 acbd 10fc 143e 1ee2 3c3c
00000240: 07dd 16bd d757 5fbd 8787 593d 9b7d 9fbd
00000250: c3c1 d6bc 9671 0abe 4564 acbd 5097 1abd
00000260: 9757 4b39 53ea 093d a308 c53d 3ee2 a73d
00000270: ee62 1ebd 4d72 cd3d fe32 d0bd 8369 b23c
00000280: a794 15bd 4d38 b73d eb6d bdbb 5ac4 8a3d
00000290: 8ccc c53c c1a6 523b f64b c43d 3253 d4bd
000002a0: 5a21 e13b 977e 383d b0f3 2cbd abbf c7bd
000002b0: 02de db3b b2db cbbd d947 f4bc 686f 963c
000002c0: a3f0 9ebc 2037 f5bd 3cd8 ec3d 1e4b d2bc
000002d0: 0ce1 a43c 5ac3 113e 35dc 013d cbd9 9d3c
000002e0: be03 ffbc c36d 983c 7993 e23b 3fd0 8e3d
000002f0: c79d 8bbd 2d19 6f3d e46b 83bc cedf a8bd
00000300: 24c0 213d 193f 0cbd 4cea 3ebd 36aa 08be
00000310: 4613 e83c 861d dbbd 2fd6 81bd 14df 2fbc
00000320: 55a3 afbc b08b a0bd 1e35 e23d c949 0d3c
00000330: 77b3 5fbd b2a2 2cbd 3698 3abd 8a57 bbbd
00000340: 148c 0c3e de7e d3bc 650c 213d 35af 943d
00000350: 60fb 81bd 64e4 dfbc 8170 d4bd 3116 7c3c
00000360: 95c7 c2bd ccda 57bc 8d5a d1bb fee8 4a3d
00000370: 76f7 dfbb cd2c c03d 7a8c b4bd 231b ba3d
00000380: c5bb c5bd 189d 06be d6d5 38bd 5686 afbc
00000390: 3c04 253c aff8 843d 3304 b2bd d8ef c9bd
000003a0: 7019 063e 0fa4 cfbd 59c8 ffbd e9bf 373d
000003b0: f94a eebd cb9b 613c c8d2 223e 78ef 4d3c
000003c0: 74d4 a3bc a0bc 963d fba2 53bd 66fe 6e3d
000003d0: 961c f53d a567 b03c 587d 8c3d f3b9 99bd
000003e0: 7b7a b0bd 44ad 14bd 85e9 a7bd ce36 3fbd
000003f0: a972 fc3c bf61 09bd 98be 8cbd 809f 32bd

lstm.weight_hh_l0 f4 [512, 128]
-0.022674132 -0.006413646 -0.022988457 0.049549628 -0.045731835 0.07597898 0.023338644 -0.00026638055
0.023585485 -0.04509599 0.043936603 0.04759664 -0.0007660274 -0.030021776 0.037229005 -0.0852576
0.05483731 0.04043985 0.0732463 0.014431396 0.07972489 -0.029004157 0.08340051 -0.025280882
-0.028992588 -0.044020392 -0.012915018 -0.05747866 -0.023932159 0.012521669 0.01713049 -0.014950228
-0.025132893 -0.08219061 -0.045180798 0.006626931 0.055582434 -0.07527265 -0.059365295 -0.046580695
0.013069184 0.050686907 -0.041159995 0.060942374 0.06953396 -0.07455948 -0.072397694 0.07287166
0.05984977 -0.027104229 -0.06538966 -0.07011683 -0.0925164 0.11090813 -0.05304615 -0.03519391
-0.06315395 -0.098355584 0.06480713 -0.09453707 0.028865865 -0.016579596 -0.031479612 0.069816895
0.012759182 -0.031745937 -0.052143916 0.021931913 0.029081713 0.092519686 0.076101206 -0.07174546
-0.015488279 -0.04598969 -0.086463004 0.09367844 0.02395689 0.017698135 0.027341941 -0.06854756
0.055246204 0.030393872 -0.0076196184 0.053459898 0.04213602 0.02688065 0.031211354 0.027891267
-0.049715005 -0.040100686 -0.0027013742 0.06298162 -0.016299622 0.032076377 0.028196467 0.046712384
0.032297272 0.046189424 -0.010406509 0.052320022 0.02904077 -0.04885329 -0.01299438 -0.007911841
-0.04580238 -0.0903716 0.04619046 -0.04567187 0.073044516 -0.0182646 -0.01860845 -0.0757211
-0.09074574 -0.10503242 -0.035124246 0.0033357171 0.06116733 -0.017307313 0.0019726064 0.044530995
0.081201255 -0.015869299 -0.10516394 0.007885499 -0.018288307 -0.04055843 0.014095064 0.08941549
-0.07804159 0.045206055 -0.04938009 -0.06085215 0.0610984 -0.019308828 0.058832042 -0.075874984
-0.004134792 -0.020788787 0.012687121 0.04593825 0.008177169 0.017630938 0.08897217 0.036850236
0.048510663 0.0039255647 -0.0035758752 -0.085188314 0.046217825 -0.01854198 -0.03801123 0.002268524
-0.079192825 -0.095139 0.0530627 0.017733356 -0.040403903 -0.061411753 0.02007371 0.07345476
0.075241625 -0.003584092 0.03388243 0.07283693 -0.05063744 0.064430036 -0.03235359 0.037624035
0.05909101 0.00062410854 0.02700883 0.015932105 -0.07697113 0.101457365 0.0011720106 0.06368524
-0.051619705 0.014163323 0.036168996 -0.05099219 -0.020413311 -0.018137654 0.009857936 0.028957563
0.029249988 0.024751864 0.078763925 -0.032323826 0.008149452 0.0656843 -0.043258213 -0.03970941
0.024449192 -0.03481405 -0.037824992 0.041865274 0.04342938 0.08047675 -0.0120361885 -0.024142185
-0.035333306 -0.066053264 -0.07589498 0.020747365 0.029881647 0.012803974 0.032013655 -0.033157058
0.054537006 -0.06680716 -0.062312014 -0.06418259 -0.0115707265 0.021564059 -0.036094528 0.082329005
0.030027645 -0.013369754 0.014992824 0.045256123 0.04446377 -0.07639057 -0.045123782 0.040019676
-0.032515347 -0.043492366 0.02722025 -0.0058441646 -0.003316983 -0.07962672 -0.060300943 -0.05659467
0.022057585 0.02537731 -0.004520603 0.0026938159 0.09742302 0.005004667 -0.04681317 0.080639996
0.03511905 -0.064943686 0.07352874 -0.0034407452 0.017133305 -0.022911917 -0.009858195 -0.028149089
-0.0060709896 0.07197731 -0.04168777 -0.02579726 -0.08509194 -0.014457247 -0.02372203 -0.070346236
00000000: 1abf b9bc 9029 d2bb 4a52 bcbc 8df4 4a3d
00000010: 4e51 3bbd de9a 9b3d af30 bf3c fea8 8bb9
00000020: 5936 c13c 93b6 38bd def6 333d b2f4 423d
00000030: 3bcf 48ba 3af0 f5bc 717d 183d 899b aebd
00000040: 169d 603d 42a4 253d 2802 963d a971 6c3c
00000050: ce46 a33d 209a edbc e3cd aa3d da19 cfbc
00000060: dd81 edbc ba4e 34bd 8399 53bc be6e 6bbd
00000070: 600d c4bc b027 4d3c 3e55 8c3c cdf1 74bc
00000080: 7fe3 cdbc 8d53 a8bd 800f 39bd ba26 d93b
00000090: 68aa 633d 8c28 9abd 0629 73bd 66cb 3ebd
000000a0: 2120 563c 139d 4f3d 6297 28bd b69e 793d
000000b0: d267 8e3d a4b2 98bd 3e45 94bd bd3d 953d
000000c0: 0825 753d b009 debc 04eb 85bd 6a99 8fbd
000000d0: 3d79 bdbd cd23 e33d eb46 59bd 7d27 10bd
000000e0: dc56 81bd a76e c9bd 9ab9 843d a79c c1bd
000000f0: 1b78 ec3c efd1 87bc c4f0 00bd 29fc 8e3d
00000100: e30b 513c 0708 02bd dc94 55bd 8eaa b33c
00000110: c63c ee3c f67a bd3d f3da 9b3d 49ef 92bd
00000120: 8dc2 7dbc af5f 3cbd 8413 b1bd 7bda bf3d
00000130: 3d41 c43c aefb 903c 35fc df3c aa62 8cbd
00000140: d849 623d 92fc f83c fead f9bb c4f8 5a3d
00000150: d296 2c3d cf34 dc3c f4ae ff3c 3a7c e43c
00000160: f6a1 4bbd 9e40 24bd 8a09 31bb 82fc 803d
00000170: c986 85bc 8562 033d 47fc e63c 7c55 3f3d
00000180: 254a 043d 1f31 3d3d 1080 2abc 854d 563d
00000190: e9e6 ed3c 631a 48bd 61e6 54bc aba0 01bc
000001a0: 479b 3bbd bf14 b9bd 3532 3d3d 6d12 3bbd
000001b0: 5d98 953d a49f 95bc c070 98bc aa13 9bbd
000001c0: e7d8 b9bd 3d1b d7bd 71de 0fbd 0c9c 5a3b
000001d0: 988a 7a3d 11c8 8dbc d846 013b 2266 363d
000001e0: d84c a63d 5500 82bc 3160 d7bd 2e32 013c
000001f0: 5cd1 95bc 9920 26bd fcee 663c 781f b73d
00000200: 45d4 9fbd fc29 393d c742 4abd 1b40 79bd
00000210: 5142 7a3d 8c2d 9ebc def9 703d 5864 9bbd
00000220: 267d 87bb 3f4d aabc a4dd 4f3c bf29 3c3d
00000230: 88f9 053c c26e 903c 0b37 b63d 46f0 163d
00000240: 1eb3 463d 06a2 803b 3b59 6abb 3677 aebd
00000250: e74e 3d3d 5ae5 97bc aab1 1bbd 84ab 143b
00000260: d92f a2bd 3cd8 c2bd 4658 593d 8b45 913c
00000270: 907e 25bd e48a 7bbd 9f71 a43c 736f 963d
00000280: 4818 9a3d 16e3 6abb 4ec8 0a3d 872b 953d
00000290: 3469 4fbd e5f3 833d 3385 04bd a91b 1a3d
000002a0: 6a09 723d 379b 233a 9f41 dd3c 0c84 823c
000002b0: 0aa3 9dbd e1c8 cf3d 269e 993a 686d 823d
000002c0: 2f6f 53bd 480d 683c f125 143d 30dd 50bd
000002d0: d139 a7bc 6b95 94bc 2e83 213c 6938 ed3c
000002e0: ac9d ef3c 6cc4 ca3c fb4e a13d fd65 04bd
000002f0: 4785 053c 7e85 863d 862f 31bd 56a6 22bd
00000300: ac49 c83c 2d99 0ebd 61ee 1abd ec7a 2b3d
00000310: 01e3 313d ffd0 a43d 6f33 45bc d5c5 c5bc
00000320: a8b9 10bd ef46 87bd d46e 9bbd 61f6 a93c
00000330: 5bca f43c c2c7 513c c020 033d b2cf 07bd
00000340: 3262 5f3d 31d2 88bd e23a 7fbd 2972 83bd
00000350: 2593 3dbc 1ca7 b03c dbd7 13bd 1c9c a83d
00000360: 89fc f53c d00c 5bbc 76a4 753c 7c5e 393d
00000370: a41f 363d a972 9cbd b7d3 38bd aceb 233d
00000380: d02e 05bd 0d25 32bd 00fd de3c 6880 bfbb
00000390: be61 59bb 5513 a3bd 1ffe 76bd d0cf 67bd
000003a0: 1cb2 b43c 14e4 cf3c 9121 94bb bb8a 303b
000003b0: b885 c73d 31fe a33b 2bbf 3fbd 9526 a53d
000003c0: fed8 0f3d 3201 85bd 3c96 963d 207e 61bb
000003d0: 255b 8c3c c6b1 bbbc 4484 21bc eb98 e6bc
000003e0: 27ef c6bb d768 933d ccc0 2abd c754 d3bc
000003f0: af44 aebd 17de 6cbc b454 c2bc b011 90bd

lstm.bias_ih_l0 f4 [512]
0.086914875 -0.0032990125 0.081899896 -0.06954711 -0.034780897 0.089045115 0.07033722 0.0809884
-0.023034886 0.06747652 -0.07057936 0.036826372 -0.041580882 0.054548386 0.09022755 0.06247909
-0.0009954371 0.09726426 0.018038029 -0.0052933185 0.04534272 0.03181556 0.006818222 -0.016312204
0.03930891 0.063718215 0.10720629 0.02835328 0.0044361693 0.09979553 0.124252245 0.029677957
0.030854547 -0.035346504 -0.022956965 -0.010359122 -0.022864979 0.009679054 0.059908405 -0.016689215
0.07220942 0.14707501 -0.014491353 -0.060236115 0.06852826 0.14807205 0.06492971 -0.035931755
0.09422577 0.14958653 0.024812562 0.09096262 -0.017852752 -0.0576584 0.061061174 0.16247697
-0.027548308 0.019536639 0.011750914 0.0766241 0.04670363 0.0866573 0.08373672 0.051345088
-0.02109565 0.051940184 -0.03175226 -0.014525437 0.047048565 -0.0027639335 -0.0059446837 -0.056308266
-0.024852056 0.04761761 0.06597456 0.023280859 0.11733992 0.025471048 0.15955791 0.088932425
-0.015780013 0.039501164 -0.052947972 0.035987396 0.1507145 0.06019075 0.095921844 0.011040525
0.08156702 0.13724947 -0.058518063 0.09570781 -0.015240035 0.085868135 0.085299045 0.02095494
-0.0537692 0.07380899 -0.029281745 0.1395611 -0.015710136 0.051118992 0.07089956 0.020047853
0.08634045 -0.03910814 -0.0037536416 0.13335337 0.1739715 0.10599513 0.093623936 0.07195628
0.002158557 0.0507636 0.09607542 0.13015811 -0.0132033955 0.054764498 0.14441657 0.06845115
-0.0017174596 -0.0058901263 0.0601586 0.021379784 -0.05477464 -0.041925836 0.014307683 -0.029922886
0.040353596 -0.077726744 -0.05034006 -0.04743847 -0.045953065 0.04507265 0.002092972 0.08360854
-0.05510186 -0.03326505 0.019631324 0.023544703 -0.031050447 0.0027206682 0.014787988 0.09310077
0.017784167 0.012337366 -0.026774717 -0.03922347 0.046476077 -0.062456146 0.05506872 -0.058442514
0.041622635 0.058604784 -0.031536497 -0.058639344 0.05917245 0.06327596 -0.08160599 0.0180945
-0.04161058 0.0351529 -0.072125755 -0.006581023 0.05459431 0.06373887 0.054938134 0.05032287
-0.06556529 0.00527788 -0.005178779 -0.046473075 0.059114944 -0.0266348 0.06180823 -0.012979366
0.048477985 -0.11652477 -0.016133571 0.003347146 0.00071409927 0.07453321 -0.06862561 -0.07571176
0.007611882 -0.08859778 0.07714304 0.0618925 -0.06463811 0.031713955 -0.037811447 -0.028477363
-0.019012857 -0.074404225 -0.017359648 -0.00037110713 -0.05328712 -0.014497415 -0.10105578 -0.0005013697
-0.0022935176 -0.0010204385 -0.03175396 0.029113583 0.07085147 -0.11937257 0.0028516524 -0.019216796
-0.0364048 0.024241721 -0.02532209 0.031438977 -0.02076854 -0.056224592 -0.061415326 -0.008452083
-0.07248278 0.067872085 -0.031985827 0.031785697 -0.06666821 0.011167576 -0.033789918 0.025492897
0.055802435 -0.0073189633 0.038658734 -0.025063133 0.05340121 0.063535884 -0.01726296 0.09305647
-0.029433016 -0.079566844 -0.031230109 0.04102613 -0.10215443 -0.09433692 -0.017563008 -0.019249007
0.022975901 0.067407206 0.060089827 0.013125225 -0.040205523 -0.06918116 0.04321574 -0.08199245
-0.045056704 -0.03281916 -0.06454048 0.10397542 0.07804044 0.052106667 0.018150263 0.09054976
00000000: 6d00 b23d 3f34 58bb 22bb a73d b76e 8ebd
00000010: 6a76 0ebd 495d b63d f60c 903d 3fdd a53d
00000020: a8b3 bcbc 2131 8a3d e98b 90bd 40d7 163d
00000030: b750 2abd 216e 5f3d 39c9 b83d 13ea 7f3d
00000040: 5479 82ba 7c32 c73d 7dc4 933c 9373 adbb
00000050: 4ab9 393d 0851 023d 646b df3b 2ca1 85bc
00000060: 6102 213d b27e 823d f98e db3d 2345 e83c
00000070: 495d 913b 9961 cc3d f677 fe3d 301f f33c
00000080: adc2 fc3c 7fc7 10bd 3f10 bcbc 4fb9 29bc
00000090: 564f bbbc e594 1e3c 8462 753d d2b7 88bc
000000a0: 88e2 933d d59a 163e 246d 6dbc 25ba 76bd
000000b0: 8b58 8c3d 33a0 173e def9 843d 2d2d 13bd
000000c0: 71f9 c03d 362d 193e b743 cb3c 9c4a ba3d
000000d0: ef3f 92bc 372b 6cbd 481b 7a3d 5d60 263e
000000e0: fdac e1bc 4d0b a03c e886 403c 19ed 9c3d
000000f0: 4e4c 3f3d 6279 b13d 287e ab3d 3a4f 523d
00000100: c9d0 acbc 3bbf 543d a80e 02bd 19fc 6dbc
00000110: ffb5 403d 1c23 35bb 9fcb c2bb 7fa3 66bd
00000120: 8a96 cbbc af0a 433d ac1d 873d 80b7 be3c
00000130: e94f f03d a9a8 d03c 2663 233e 3422 b63d
00000140: 1645 81bc f9cb 213d f9df 58bd 8567 133d
00000150: e754 1a3e 938a 763d ac72 c43d 51e3 343c
00000160: 9c0c a73d 208b 0c3e a3b0 6fbd 7502 c43d
00000170: 57b1 79bc a2db af3d 44b1 ae3d b2a9 ab3c
00000180: 183d 5cbd 2b29 973d 45e0 efbc 1be9 0e3e
00000190: 8bb2 80bc 2662 513d ca33 913d 653b a43c
000001a0: 43d3 b03d db2f 20bd a8ff 75bb c98d 083e
000001b0: 9625 323e fa13 d93d e8bd bf3d d05d 933d
000001c0: 9476 0d3b 7eed 4f3d 31c3 c43d 2b48 053e
000001d0: 0e53 58bc bd50 603d f0e1 133e 1e30 8c3d
000001e0: 621c e1ba f601 c1bb dd68 763d a824 af3c
000001f0: 5f5b 60bd 6dba 2bbd c66a 6a3c d720 f5bc
00000200: d049 253d 332f 9fbd 6131 4ebd d74e 42bd
00000210: 4839 3cbd 199e 383d 3e2a 093b f43a ab3d
00000220: 7db2 61bd ef40 08bd dfd1 a03c d2e0 c03c
00000230: 825d febc 3d4d 323b 5149 723c 9eab be3d
00000240: 1ab0 913c aa22 4a3c a756 dbbc caa8 20bd
00000250: b35d 3e3d 04d2 7fbd bd8f 613d 6b61 6fbd
00000260: 7f7c 2a3d 920b 703d 6a2c 01bd cf2f 70bd
00000270: d05e 723d d496 813d 0b21 a7bd eb3a 943c
00000280: db6f 2abd 7dfc 0f3d abb6 93bd 9fa5 d7bb
00000290: 489e 5f3d 8689 823d cf06 613d 5b1f 4e3d
000002a0: 1847 86bd 11f2 ac3b bfb2 a9bb 8d5a 3ebd
000002b0: 8322 723d 3931 dabc a02a 7d3d 68a7 54bc
000002c0: da90 463d 8aa4 eebd 8d2a 84bc cb5b 5b3b
000002d0: 6432 3b3a dea4 983d 958b 8cbd c40e 9bbd
000002e0: 186d f93b c172 b5bd 2cfd 9d3d fd82 7d3d
000002f0: fc60 84bd 7ee6 013d 2de0 1abd 5c49 e9bc
00000300: dac0 9bbc 3e61 98bd d235 8ebc 2891 c2b9
00000310: 9843 5abd 9186 6dbc 55f6 cebd 5a6e 03ba
00000320: d74e 16bb 3cc0 85ba 7110 02bd 9c7f ee3c
00000330: 931a 913d 9b79 f4bd cae2 3a3b 8b6c 9dbc
00000340: 331d 15bd 9396 c63c 4670 cfbc 28c6 003d
00000350: c922 aabc c24b 66bd a38e 7bbd 9b7a 0abc
00000360: da71 94bd 8500 8b3d 9203 03bd b831 023d
00000370: 5889 88bd 35f8 363c 4c67 0abd 7bd6 d03c
00000380: 1891 643d ead3 efbb 9f58 1e3d 3351 cdbc
00000390: 3abb 5a3d 1a1f 823d 0d6b 8dbc 6494 be3d
000003a0: 821d f1bc f1f3 a2bd 49d6 ffbc 040b 283d
000003b0: 5736 d1bd b733 c1bd 4ce0 8fbc 18b0 9dbc
000003c0: f537 bc3c ca0c 8a3d c020 763d 2f0b 573c
000003d0: 8cae 24bd daae 8dbd fd02 313d a8eb a7bd
000003e0: 618d 38bd 626d 06bd cd2d 84bd 11f1 d43d
000003f0: abd3 9f3d cd6d 553d dcaf 943c 2772 b93d

lstm.bias_hh_l0 f4 [512]
0.08348964 -0.01452311 -0.05119034 0.023526369 0.05772756 0.06398432 0.024658727 -0.030770388
0.056369085 0.13852517 0.0244151 0.019923829 -0.027853886 0.09392971 0.059758794 0.025245976
0.12298061 0.054408904 -0.046424694 0.09346289 0.068889804 -0.028303923 0.071212456 -0.04159258
0.11606063 -0.0058684186 0.056032576 0.1120454 0.12371055 0.062207263 0.07602472 0.07613228
-0.008333071 0.025927331 0.086432554 0.035116073 0.109889984 0.09154739 0.0122569455 -0.07272254
0.056069423 0.12105142 -0.08656571 0.05145924 0.047950257 0.1063185 0.105898604 -0.022827556
-0.0513879 0.14192198 0.13147287 0.045152687 0.028432665 0.09512922 -0.015629655 0.014235103
0.12634104 0.0627958 0.10503999 0.033046808 0.102985136 0.031011906 0.07384921 0.03750674
0.00020107582 0.13019174 -0.044648856 -0.0077909552 0.056136332 0.033242688 0.12105158 0.009768107
0.092844345 -0.032925665 0.03392271 0.05609312 -0.0371755 0.16944802 0.06404822 0.0810003
0.0059700916 0.025936175 0.11340466 0.003338006 0.15633199 0.083236076 0.08758745 0.13186595
0.03304432 0.09714893 0.027410638 -0.022380188 -0.052311447 -0.015077308 -0.05229157 0.023498125
-0.026320726 0.12357509 -0.04586624 0.11055915 0.06415671 -0.011175049 0.095382765 -0.0348241
0.104142435 -0.047903 -0.03366771 -0.018251104 0.058875505 -0.004652299 -0.0055900146 0.09158671
0.08338769 0.07440434 0.045372557 0.065944955 0.03140435 -0.031585462 0.13588433 0.039832853
0.07870874 0.02375655 -0.0016525306 0.01717637 -0.005504664 0.057109114 0.12258313 0.020772781
-0.07748436 0.08355136 0.03938728 0.05547548 0.0466178 -0.042866483 -0.047678653 0.08886406
0.020251077 -0.069900215 0.027208194 0.052780934 0.007722333 0.013215779 -0.06427406 -0.07357383
-0.089467295 0.088282384 0.070986055 0.009130193 -0.025882622 0.06416653 0.012177848 -0.081321634
-0.0636538 -0.010121527 -0.046874225 -0.021562392 0.015531574 -0.022295952 0.00495481 -0.0134961745
0.0033296344 0.024975646 0.042842768 0.08047234 -0.07863793 0.041806865 0.041500818 0.014873661
-0.07837658 -0.014084885 0.028849047 -0.004121849 -0.03323417 0.053560637 -0.027705468 0.07679287
-0.04610876 -0.0030063884 0.08807054 -0.020857727 -0.035475884 0.06554682 0.07702401 -0.08516318
-0.001138985 -0.013134817 0.09757062 -0.028899921 0.058385607 0.02025912 -0.09666224 -0.06386625
-0.06933243 -0.0600671 0.06463134 0.00031665663 -0.038430154 0.076442696 -0.08218 0.018425882
0.036481906 0.031303257 0.059673257 -0.061126642 0.011205895 -0.12472244 0.04491011 0.025941843
-0.037148215 0.03492231 -0.0291597 -0.08448614 -0.023545152 0.07287032 -0.020466687 0.02637824
-0.020147366 0.025020782 0.09636882 -0.016232671 0.020564878 -0.0127436295 -0.063365676 -0.085695766
-0.047836598 -0.02935428 -0.04305606 -0.09953007 -0.06596174 -0.031029265 -0.050275132 0.085614346
-0.034522865 -0.045878194 0.02707978 -0.016125845 0.04463182 0.026693428 -0.029769855 -0.049179357
0.03514033 0.095799685 -0.0457885 0.08770164 -0.06391683 -0.043353565 -0.024012214 -0.045082953
-0.03172282 -0.0417953 0.096377075 0.0247497 -0.0005129872 0.049864013 -0.003763088 -0.06061273
00000000: 9efc aa3d 57f2 6dbc f6ac 51bd 5fba c03c
00000010: bc73 6c3d 360a 833d 1901 ca3c 2e12 fcbc
00000020: 45e3 663d 8bd9 0d3e 2d02 c83c 4c37 a33c
00000030: d52d e4bc 385e c03d a3c5 743d a6d0 ce3c
00000040: 42dd fb3d dfdb 5e3d d227 3ebd 7969 bf3d
00000050: 1916 8d3d a1dd e7bc d6d7 913d fb5c 2abd
00000060: 32b1 ed3d dd4b c0bb 6a82 653d 0f78 e53d
00000070: f55b fd3d 0bcd 7e3d d9b2 9b3d 3eeb 9b3d
00000080: 6f87 08bc 8e65 d43c 8d03 b13d dfd5 0f3d
00000090: 000e e13d 337d bb3d 5bd1 483c 8eef 94bd
000000a0: 0da9 653d cfe9 f73d 5d49 b1bd edc6 523d
000000b0: 7d67 443d 84bd d93d 5ee1 d83d db00 bbbc
000000c0: 1e7c 52bd ff53 113e d3a0 063e 06f2 383d
000000d0: 9feb e83c 1cd3 c23d c309 80bc 593a 693c
000000e0: 8c5f 013e 169b 803d 351f d73d 175c 073d
000000f0: dfe9 d23d ae0c fe3c 413e 973d aba0 193d
00000100: e1d7 5239 fc50 053e b8e1 36bd 454b ffbb
00000110: 36ef 653d 7c29 083d e4e9 f73d 690a 203c
00000120: 2d25 be3d 10dd 06bd 8af2 0a3d e6c1 653d
00000130: 5645 18bd c883 2d3e b72b 833d 7ce3 a53d
00000140: c2a0 c33b 1a78 d43c b440 e83d 73c2 5a3b
00000150: 7e15 203e ad77 aa3d 0d61 b33d de07 073e
00000160: 7b59 073d 05f6 c63d 468c e03c a856 b7bc
00000170: 8744 56bd d006 77bc af2f 56bd 247f c03c
00000180: 909e d7bc f014 fd3d 3dde 3bbd d66c e23d
00000190: 9864 833d 8d17 37bc 0a58 c33d b7a3 0ebd
000001a0: a148 d53d f035 44bd 27e7 09bd 5783 95bc
000001b0: 7127 713d 5072 98bb 712c b7bb d091 bb3d
000001c0: 2ac7 aa3d 4d61 983d 93d8 393d 260e 873d
000001d0: d9a1 003d c25f 01bd 4325 0b3e c627 233d
000001e0: 0c32 a13d 199d c23c ba99 d8ba 75b5 8c3c
000001f0: 7860 b4bb 3feb 693d dd0c fb3d ae2b aa3c
00000200: 1fb0 9ebd fa1c ab3d 8e54 213d 423a 633d
00000210: 4ef2 3e3d c494 2fbd b14a 43bd 5cfe b53d
00000220: 96e5 a53c d827 8fbd b8e3 de3c d230 583d
00000230: a00b fd3b ff86 583c 1ea2 83bd e0ad 96bd
00000240: a13a b7bd 65cd b43d 2361 913d ce96 153c
00000250: cb07 d4bc be69 833d 9985 473c f58b a6bd
00000260: ec5c 82bd c3d4 25bc 30ff 3fbd 9da3 b0bc
00000270: 2578 7e3c 00a6 b6bc f55b a23b 0f1f 5dbc
00000280: ff35 5a3b ba99 cc3c e67b 2f3d afce a43d
00000290: ec0c a1bd ad3d 2b3d c3fc 293d a8b0 733c
000002a0: e683 a0bd 4ac4 66bc d654 ec3c 9310 87bb
000002b0: 8e20 08bd 6662 5b3d 94f6 e2bc 9545 9d3d
000002c0: 8adc 3cbd d406 45bb 545e b43d d3dd aabc
000002d0: 294f 11bd 693d 863d c4be 9d3d 096a aebd
000002e0: ff49 95ba 6a33 57bc 1bd3 c73d 87bf ecbc
000002f0: bf25 6f3d 74f6 a53c daf6 c5bd 4fcc 82bd
00000300: 29fe 8dbd eb08 76bd 705d 843d ef04 a639
00000310: f068 1dbd fd8d 9c3d fd4d a8bd e0f1 963c
00000320: 0d6e 153d d837 003d f26b 743d ee5f 7abd
00000330: ee98 373c 7b6e ffbd aaf3 373d fd83 d43c
00000340: ba28 18bd b20a 0f3d 53e0 eebc 1207 adbd
00000350: c3e1 c0bc 093d 953d c1a9 a7bc 2e17 d83c
00000360: 170c a5bc 62f8 cc3c 045d c53d 61fa 84bc
00000370: ad77 a83c a8ca 50bc ddc5 81bd 4381 afbd
00000380: 4ff0 43bd 6378 f0bc 8d5b 30bd 6cd6 cbbd
00000390: f316 87bd 1631 febc 4ced 4dbd 9356 af3d
000003a0: d967 0dbd c6ea 3bbd 6ad6 dd3c 591a 84bc
000003b0: dbcf 363d 2dac da3c e9df f3bc 4b70 49bd
000003c0: 4fef 0f3d a032 c43d b98c 3bbd eb9c b33d
000003d0: d4e6 82bd 8293 31bd 43b5 c4bc e7a8 38bd
000003e0: caef 01bd 8c31 2bbd 5861 c53d e2bf ca3c
000003f0: fd79 06ba 353e 4c3d 249e 76bb 0e45 78bd

lstm.weight_ih_l1 f4 [512, 128]
-0.036142774 -0.054704115 -0.057419542 0.008133232 -0.023001526 0.029618336 -0.0028790724 -0.063287824
0.08569315 -0.061662745 0.07708292 -0.03267213 0.032154426 -0.02719275 0.04255482 0.034948025
-0.081245966 -0.02681845 -0.07498616 0.053187586 0.048039824 0.038854897 -0.067683585 -0.05274748
-0.05041259 0.03945058 0.032235906 0.05615802 -0.04179742 -0.008796427 0.0502552 -0.026016712
-0.046812452 0.0035958586 -0.051123656 -0.003531252 -0.07759832 0.068869635 0.08239819 0.04305998
-0.09272866 0.08563863 -0.048118398 0.082638726 0.046168733 0.057067797 -0.055373423 -0.01708738
0.003148192 -0.046109326 0.008332704 0.066491954 0.076604076 -0.05357045 -0.027362546 0.016686874
0.072008476 0.003945618 -0.044269133 0.09138334 -0.063211605 0.08312182 0.027266363 -0.04552111
0.013579025 0.08301996 -0.05979849 0.051608928 -0.06753256 -0.06436103 -0.005508879 0.022687191
-0.08725542 -0.102961496 0.021518033 0.034109432 -0.065882884 0.031008169 -0.033149168 -0.08099648
-0.009606939 0.05318798 0.046563476 0.076993465 0.055554528 0.078495525 0.013690562 0.08645824
0.01149937 0.10955893 -0.086036935 -0.0003948985 0.017104335 0.012765648 0.07554557 0.09220754
0.07425292 -0.07184051 -0.07910671 0.0009322649 0.08228163 -0.066741556 0.009174265 -0.084082246
-0.07089825 0.008304307 -0.04553526 0.0065450612 -0.062472362 -0.013987639 0.07934116 0.06272068
0.0038653524 0.023184896 -0.07004834 0.037137125 -0.054835368 0.030329602 0.012959825 -0.07388044
-0.004382919 0.049458496 -0.07245129 0.002267596 -0.043028682 0.06313327 -0.02433071 0.014994432
-0.046981525 0.046793908 0.12440472 -0.055695146 -0.008517825 -0.12530331 -0.022278944 -0.009370845
-0.028051032 -0.1454471 0.029206831 -0.03500284 -0.13389848 0.020788802 -0.09770482 0.095541716
-0.023571761 0.03870039 0.016373102 0.0066342964 -0.0061993375 -0.085697405 -0.077406466 0.06695496
0.0220148 0.14284113 -0.06703772 -0.063310266 -0.109417446 0.029476305 0.04453438 -0.105072826
-0.06062239 -0.07608596 -0.017634718 -0.063722946 0.06463102 0.10479171 0.06186721 0.012643398
-0.042765457 -0.0016934606 -0.046119027 -0.09640948 0.04348297 -0.09322238 -0.13759038 0.00700078
-0.03718882 0.084874 -0.0015106163 -0.109103106 0.016896669 0.095569305 0.08284799 -0.032241426
0.0026904868 0.020608263 0.113875985 0.119638585 0.0013310141 0.033723716 0.027874619 -0.09342636
0.024395403 0.0686206 0.031752035 -0.08376298 0.0026155994 -0.06931287 -0.077738464 -0.018980421
-0.08378039 -0.016785575 -0.013081189 0.0030596114 0.054113463 -0.05166335 0.081237465 -0.11643002
-0.0874552 0.029430635 -0.015855445 0.11216399 -0.023248129 0.06264184 -0.06289998 -0.013740872
-0.089567505 0.13379323 -0.03538376 -0.02174035 -0.07261281 0.018391728 0.009180329 0.0118662
-0.07220087 -0.04387958 -0.047613274 -0.12007675 0.09018053 0.00790145 0.01682909 -0.08505188
0.063210554 0.0053993077 0.053692635 -0.01742556 0.0029613585 0.098634385 0.062400553 -0.0025447442
0.053267505 -0.021409756 -0.09672731 -0.013439889 -0.0367099 0.024871968 0.12821686 -0.02268437
-0.008870569 -0.010353865 0.025520056 -0.06731112 0.06302252 -0.03549976 -0.019958759 -0.033861455
00000000: 720a 14bd 6c11 60bd c130 6bbd 3f41 053c
00000010: b26d bcbc 27a2 f23c d2ae 3cbb 0c9d 81bd
00000020: e47f af3d 1392 7cbd a6dd 9d3d 36d3 05bd
00000030: 5cb4 033d 54c3 debc f74d 2e3d a925 0f3d
00000040: 4964 a6bd 5eb2 dbbc 5892 99bd 3adb 593d
00000050: 68c5 443d 5026 1f3d b19d 8abd be0d 58bd
00000060: 6f7d 4ebd ee96 213d cc09 043d f405 663d
00000070: c533 2bbd e41e 10bc 66d8 4d3d 0021 d5bc
00000080: 6abe 3fbd 7fa8 6b3b 0a67 51bd 946c 67bb
00000090: deeb 9ebd 860b 8d3d 62c0 a83d a95f 303d
000000a0: 86e8 bdbd 4e63 af3d cc17 45bd 7e3e a93d
000000b0: 6d1b 3d3d ecbf 693d 3ecf 62bd d5fa 8bbc
000000c0: e651 4e3b 22dd 3cbd e585 083c ef2c 883d
000000d0: 99e2 9c3d b06c 5bbd 6b27 e0bc e9b2 883c
000000e0: 2e79 933d 3e4a 813b 8d53 35bd 3027 bb3d
000000f0: 1675 81bd c63b aa3d b55d df3c 5874 3abd
00000100: 8f7a 5e3c 5e06 aa3d 43ef 74bd e263 533d
00000110: 834e 8abd b7cf 83bd d483 b4bb 7dda b93c
00000120: f8b2 b2bd 7add d2bd 9646 b03c 55b6 0b3d
00000130: 9bed 86bd d804 fe3c 6cc7 07bd 7ce1 a5bd
00000140: 6c66 1dbc a4db 593d 58b9 3e3d c0ae 9d3d
00000150: 258d 633d 43c2 a03d 614e 603c 0511 b13d
00000160: db67 3c3c 6f60 e03d 2234 b0bd 610a cfb9
00000170: 641e 8c3c 0227 513c a3b7 9a3d 4fd7 bc3d
00000180: ea11 983d 1e21 93bd b302 a2bd 3d63 743a
00000190: 4583 a83d ccaf 88bd a84f 163c 5033 acbd
000001a0: 1a33 91bd ca0e 083c 2e83 3abd f477 d63b
000001b0: 05e3 7fbd 692c 65bc 9e7d a23d b373 803d
000001c0: da51 7d3b 40ee bd3c 8175 8fbd 191d 183d
000001d0: 0d9b 60bd c975 f83c 7255 543c a14e 97bd
000001e0: 979e 8fbb fe94 4a3d 5861 94bd f39b 143b
000001f0: d83e 30bd 044c 813d 3251 c7bc 35ab 753c
00000200: b36f 40bd f8aa 3f3d e7c7 fe3d 9820 64bd
00000210: 598e 0bbc 834f 00be 5582 b6bc 2c88 19bc
00000220: 47cb e5bc 16f0 14be 2a43 ef3c 235f 0fbd
00000230: af1c 09be 474d aa3c 7719 c8bd 60ab c33d
00000240: 9119 c1bc 4d84 1e3d e220 863c 8364 d93b
00000250: d023 cbbb 1f82 afbd 4887 9ebd af1f 893d
00000260: 6258 b43c f244 123e 124b 89bd d0a8 81bd
00000270: 4116 e0bd 4b78 f13c af69 363d 6c30 d7bd
00000280: 2f4f 78bd f5d2 9bbd af76 90bc 2d81 82bd
00000290: 455d 843d 099d d63d 7968 7d3d 4126 4f3c
000002a0: d52a 2fbd 1cf7 ddba 4ee7 3cbd 5572 c5bd
000002b0: 331b 323d 60eb bebd 7ee4 0cbe cd66 e53b
000002c0: 4e53 18bd 6bd2 ad3d dfff c5ba 7371 dfbd
000002d0: e26a 8a3c d7b9 c33d 35ac a93d 960f 04bd
000002e0: e152 303b a9d2 a83c d037 e93d 1305 f53d
000002f0: 6c75 ae3a e121 0a3d 5059 e43c 5256 bfbd
00000300: ded8 c73c f588 8c3d 6c0e 023d ed8b abbd
00000310: 7a6a 2b3b e8f3 8dbd 5835 9fbd d47c 9bbc
00000320: 0e95 abbd e781 89bc 7c52 56bc c383 483b
00000330: 14a6 5d3d f39c 53bd d45f a63d dd72 eebd
00000340: b61b b3bd 8418 f13c 47e3 81bc 3cb6 e53d
00000350: dc72 bebc 5d4a 803d b4d1 80bd 6521 61bc
00000360: 2b6f b7bd 1801 093e 90ee 10bd d218 b2bc
00000370: 06b6 94bd 40aa 963c 1769 163c 736a 423c
00000380: 0dde 93bd 13bb 33bd 2306 43bd cdea f5bd
00000390: 92b0 b83d 1575 013c 29dd 893c ae2f aebd
000003a0: 8974 813d adec b03b cfec 5b3d 0cc0 8ebc
000003b0: 5a13 423b d300 ca3d b997 7f3d b9c5 26bb
000003c0: 072f 5a3d 8363 afbc f818 c6bd fb32 5cbc
000003d0: 1f5d 16bd 4cc0 cb3c 484b 033e 92d4 b9bc
000003e0: dd55 11bc 42a3 29bc 700f d13c 6ada 89bd
000003f0: f311 813d 3268 11bd 8d80 a3bc 4fb2 0abd

lstm.weight_hh_l1 f4 [512, 128]
-0.027969947 0.04409593 -0.076925404 -0.06685587 0.013038945 -0.080710456 -0.04590542 -0.06017903
-0.02963694 0.06552649 -0.10109499 0.052613746 -0.014794773 0.030918144 0.060924288 -0.059538413
0.08793943 0.039010085 0.09308885 -0.039191198 0.03702022 -0.029795343 -0.019694265 0.066179834
-0.0051376545 0.05318663 0.030293712 -0.09115565 -0.06552753 -0.007395051 0.07763897 0.05793313
-0.04668878 -0.01588007 -0.012670864 -0.016180886 0.027410448 0.02057722 0.06520341 -0.06565935
0.051017765 -0.03314529 -0.027136052 -0.023626644 -0.025669087 0.06539235 0.08717104 -0.07985027
0.010888909 0.027833454 0.071714744 0.084708504 0.0075103864 -0.013853037 0.06422744 -0.05358972
-0.074337296 0.039158527 -0.013084231 0.0081620095 -0.02088553 -0.07411843 -0.08097257 -0.06537334
0.06606076 0.061134823 -0.040560607 -0.06291381 -0.07319709 0.06770878 -0.048878297 -0.012681655
0.04937139 0.050946467 -0.047175877 -0.06586975 0.020608328 0.051993594 0.07526497 -0.052950058
-0.06830657 0.007981193 -0.053841628 0.06075623 0.073126614 0.034110166 -0.08104432 0.057607878
0.07658368 -0.042777956 0.07327346 -0.03636574 -0.07934188 0.0907612 -0.056443714 0.039359514
0.058845412 0.03894886 0.054867048 -0.052756548 -0.04702877 0.012517546 0.06676932 -0.056181215
-0.052086107 -0.021501608 0.0029022093 0.019154377 0.029127037 0.059229948 0.06655895 -0.03924694
0.07861295 0.08971993 -0.036445484 -0.08563227 -0.01852426 -0.072995916 -0.076236084 -0.034227777
0.04045505 -0.010790594 -0.031771056 -0.034533888 -0.08438412 -0.086464494 0.047759462 -0.026895128
0.062089145 -0.035769686 0.035291977 0.044264246 -0.078109846 0.088922784 -0.052130867 -0.036794603
-0.04094566 0.083929986 0.04984372 0.065006435 -0.01699233 -0.025659157 -0.05193183 -0.08620502
-0.017932253 0.048793696 -0.0058727446 -0.040632356 -0.0064148046 0.04996207 -0.077006705 -0.06665624
0.047676515 -0.021624258 -0.026163602 -0.07278798 0.017549723 0.067389674 0.076121174 -0.07616039
-0.043734863 -0.05503727 -0.020928776 -0.08721358 0.104203045 -0.004880726 0.05805677 0.04051669
-0.024955902 -0.01938086 -0.03161345 -0.056182332 0.0015493322 -0.030798944 -0.015405754 -0.05087238
0.057232935 0.07946753 0.005439076 -0.043350194 -0.022241686 0.016803665 -0.0630048 -0.017695433
-0.06663149 0.0049589393 -0.011460589 0.06558203 -0.047294546 0.07183796 0.064390175 0.0122720925
-0.07969419 -0.07563142 -0.033310853 -0.07356432 0.03408993 -0.02332454 0.0052932813 0.021434039
0.057336718 0.047877185 -0.039356265 -0.030620059 0.065968946 0.052466884 -0.057568718 0.10272597
-0.03986535 0.013098994 -0.074031755 0.05302805 0.07012331 0.02697402 -0.008369908 -0.02387828
0.03886773 0.04738757 0.07943781 -0.07180203 0.062152725 0.101903394 0.07820063 0.0639789
0.048732325 -0.04766192 0.024894847 -0.013039893 -0.094354734 0.068267755 0.07458826 0.1120838
-0.099045314 -0.019796217 -0.0667003 0.042391025 -0.032589283 -0.03439342 0.042477716 0.008952466
0.05323418 -0.071211234 0.07052131 0.010547916 -0.053870086 0.08904492 0.0200194 -0.06817193
0.013780631 0.07316823 0.08914611 0.080306016 -0.048400022 0.03114795 -0.036776096 -0.04099964
00000000: 3b21 e5bc ef9d 343d 118b 9dbd bbeb 88bd
00000010: 4da1 553c 864b a5bd 5207 3cbd 497e 76bd
00000020: 2bc9 f2bc c132 863d e40a cfbd 8381 573d
00000030: c765 72bc 0c48 fd3c bf8b 793d 8dde 73bd
00000040: 9619 b43d 0ac9 1f3d 5ea5 be3d f386 20bd
00000050: 84a2 173d 5d15 f4bc de55 a1bc 4b89 873d
00000060: c559 a8bb 39da 593d 852a f83c d0af babd
00000070: 4c33 86bd 2f52 f2bb 2e01 9f3d 4a4b 6d3d
00000080: bc3c 3fbd ec16 82bc 7599 4fbc c78d 84bc
00000090: e08b e03c 8f91 a83c 5e89 853d 6978 86bd
000000a0: 01f8 503d 5bc3 07bd 6d4c debc aa8c c1bc
000000b0: fa47 d2bc 6dec 853d bb86 b23d 8a88 a3bd
000000c0: 6567 323c fc02 e43c 2edf 923d a77b ad3d
000000d0: b019 f63b d9f7 62bc ad89 833d e580 5bbd
000000e0: 273e 98bd b164 203d 3e5f 56bc f3b9 053c
000000f0: 2218 abbc 67cb 97bd f2d4 a5bd 75e2 85bd
00000100: dd4a 873d 8268 7a3d e122 26bd f5d8 80bd
00000110: 5be8 95bd e7aa 8a3d 9c34 48bd b7c6 4fbc
00000120: a839 4a3d 3ead 503d 7e3b 41bd b8e6 86bd
00000130: ccd2 a83c 3cf7 543d 8524 9a3d 29e2 58bd
00000140: 51e4 8bbd 8dc3 023c 0a89 5cbd 86db 783d
00000150: 68c3 953d 1ab7 0b3d 90fa a5bd 3df6 6b3d
00000160: e8d7 9c3d f037 2fbd 6510 963d 3ef4 14bd
00000170: ff7d a2bd 02e1 b93d 8631 67bd 7137 213d
00000180: e307 713d d788 1f3d 45bc 603d 4017 58bd
00000190: 3da1 40bd 6516 4d3c 5abe 883d 461e 66bd
000001a0: 3e58 55bd 2424 b0bc fe32 3e3b a4e9 9c3c
000001b0: d39b ee3c 1a9b 723d 0f50 883d 66c1 20bd
000001c0: d4ff a03d 15bf b73d dc47 15bd f95f afbd
000001d0: 30c0 97bc e27e 95bd aa21 9cbd 6d32 0cbd
000001e0: 32b4 253d 08cb 30bc 5e22 02bd 6873 0dbd
000001f0: 95d1 acbd 4c14 b1bd 6d9f 433d 2c53 dcbc
00000200: 3051 7e3d 3c83 12bd 528e 103d 6d4e 353d
00000210: 0ef8 9fbd 261d b63d 2d87 55bd f0b5 16bd
00000220: a3b6 27bd 7ce3 ab3d ee28 4c3d 1822 853d
00000230: 8033 8bbc 2733 d2bc 78b6 54bd 428c b0bd
00000240: a9e6 92bc e6db 473d 2770 c0bb 1d6e 26bd
00000250: 4833 d2bb 07a5 4c3d b1b5 9dbd 1183 88bd
00000260: 7348 433d 5b25 b1bc 0d55 d6bc dd11 95bd
00000270: 70c4 8f3c 9903 8a3d 6be5 9b3d fbf9 9bbd
00000280: 5423 33bd c36e 61bd d372 abbc 099d b2bd
00000290: 6868 d53d 7fee 9fbb f0cc 6d3d d4f4 253d
000002a0: 5270 ccbc 9cc4 9ebc 1b7d 01bd 721f 66bd
000002b0: f612 cb3a 114e fcbc 6a68 7cbc 8f5f 50bd
000002c0: 156d 6a3d dfbf a23d 473a b23b f98f 31bd
000002d0: 3234 b6bc d7a7 893c a908 81bd 03f6 90bc
000002e0: 1776 88bd 997e a23b 32c5 3bbc df4f 863d
000002f0: edb7 41bd c81f 933d ffde 833d e310 493c
00000300: b536 a3bd a5e4 9abd f670 08bd e4a8 96bd
00000310: e2a1 0b3d 1b13 bfbc 4373 ad3b 7096 af3c
00000320: e8d9 6a3d de1a 443d 0934 21bd ebd6 fabc
00000330: ba1a 873d 84e7 563d 2dcd 6bbd fe61 d23d
00000340: d949 23bd 2a9d 563c f69d 97bd f133 593d
00000350: cf9c 8f3d 9ff8 dc3c f021 09bc 629c c3bc
00000360: c533 1f3d 7819 423d 4ab0 a23d f10c 93bd
00000370: db93 7e3d bab2 d03d a727 a03d 5f07 833d
00000380: 8c9b 473d 2539 43bd 47f0 cb3c 46a5 55bc
00000390: 0e3d c1bd f7cf 8b3d bbc1 983d 318c e53d
000003a0: 45d8 cabd ad2b a2bc 2b9a 88bd 36a2 2d3d
000003b0: 577c 05bd 1de0 0cbd 1dfd 2d3d 5dad 123c
000003c0: 150c 5a3d 32d7 91bd 7a6d 903d 2bd1 2c3c
000003d0: e1a6 5cbd 2f5d b63d baff a33c ba9d 8bbd
000003e0: 28c8 613c 3ad9 953d 3c92 b63d 7b77 a43d
000003f0: 1a3f 46bd fc29 ff3c 88a2 16bd 3def 27bd

lstm.bias_ih_l1 f4 [512]
0.0664336 0.01407542 -0.053475004 0.10055533 0.12047004 0.042418152 0.07408723 -0.0029697972
0.0061922874 -0.028788777 -0.01596376 0.0038178507 0.08017415 0.017249482 0.1485886 -0.027985316
0.008362535 -0.060613796 0.07379966 0.09141226 -0.03190535 0.15002623 0.011231905 0.11672796
0.006244977 0.009054286 0.07722057 0.0313284 0.076418504 0.060194895 -0.058707066 0.10351755
0.041808423 0.0109677045 0.08174778 0.081068516 -0.070458844 0.09238924 0.09143762 0.0656787
0.02826327 0.021171482 0.020135283 0.044952083 -0.06582969 0.040848065 0.070526555 -0.0054125926
-0.034332234 0.039482336 -0.0021748347 0.03177381 0.009899561 0.08883268 0.041679315 -0.039716184
0.08780402 0.051532052 0.05113821 0.084979445 -0.04254662 0.009127905 0.02980236 -0.029618748
0.019851213 0.06481066 0.022801928 0.10088076 0.092282295 0.032478645 0.11060882 -0.013991663
-0.04004326 0.039962284 0.099656984 0.08278819 0.14817157 -0.036602024 0.07884325 0.10684859
-0.033480443 -0.011917648 0.08854317 0.003725523 0.06426238 0.031064907 0.053747464 0.13184774
-0.03405312 0.09361513 0.08862756 0.09769942 0.06213408 -0.021111222 -0.0021745097 0.06441154
0.04752758 0.022880541 0.06705887 0.16453968 0.051216684 0.07624134 -0.052795816 -0.06497321
0.017624145 0.017838294 0.09059442 0.12348591 0.050613273 0.11278751 0.04710787 0.03959085
-0.049413238 0.09868093 0.02739718 0.020881174 0.024699165 0.017889382 0.05011623 0.072764516
0.09450313 0.019202007 0.11915131 0.02307584 0.035719104 0.07434329 0.11667156 -0.017053407
-0.07624943 -0.04976422 0.06495638 -0.0355581 0.09843482 -0.064269036 -0.016522173 -0.025491878
0.094078265 0.0273039 0.048550673 0.034196474 -0.0070253504 -0.013778122 0.027731199 0.0520182
-0.06690545 0.030507626 -0.072695844 0.06570498 -0.04895031 -0.032266196 -0.091593795 -0.056317255
-0.038828515 -0.020268572 -0.07472046 0.029376298 -0.021424916 0.017151263 0.06334625 0.0741684
-0.030393403 -0.12307688 -0.043614738 0.06771293 -0.0043124724 0.061646808 0.055014886 -0.05880713
0.03470253 -0.050115574 -0.10198128 -0.111176796 -0.055977397 -0.0678461 0.06721577 0.036473308
0.061413176 0.016480908 0.047129937 -0.019013138 -0.03669337 -0.041099016 -0.0068723117 0.013722217
-0.08617658 0.0845812 0.05299143 -0.02179146 0.076118715 0.036237247 0.041663066 -0.039356075
-0.03385985 0.09724677 0.039825834 0.07575031 0.034303255 -0.050139654 0.0038178684 -0.08601547
0.08739982 -0.058739837 0.032864947 -0.08575508 -0.10139042 -0.06373037 0.049613386 -0.02052118
0.031193241 0.06141893 -0.010306385 -0.05566923 -0.03846864 -0.12688765 0.043280035 -0.00025152942
-0.024173569 -0.043717694 -0.12631288 -0.034153495 -0.062011678 0.021350395 -0.05473218 0.0189596
-0.06188491 0.016360534 -0.07008622 -0.042063367 0.071065456 -0.043937437 -0.04170185 0.052404616
-0.0787612 0.001048652 0.0717214 0.05958671 -0.029109389 0.046519928 0.07490573 -0.0051684114
-0.05592495 0.07233944 0.06872928 0.08972702 -0.07996556 -0.01745142 0.060564846 -0.04352309
-0.12366896 -0.08459563 0.04381083 0.028859718 0.02523149 -0.016480451 0.012300898 0.04303028
00000000: 570e 883d 979c 663c 9b08 5bbd f4ef cd3d
00000010: ffb8 f63d a8be 2d3d 0cbb 973d eea0 42bb
00000020: ace8 ca3b 71d6 ebbc 6ec6 82bc e834 7a3b
00000030: 5832 a43d c94e 8d3c 9c27 183e 7641 e5bc
00000040: 0403 093c 2c46 78bd 4724 973d 5a36 bb3d
00000050: 2faf 02bd 7aa0 193e 0606 383c 120f ef3d
00000060: aaa2 cc3b 6e58 143c d125 9e3d 3552 003d
00000070: 4e81 9c3d ec8e 763d d276 70bd 0201 d43d
00000080: 4f3f 2b3d e3b1 333c 616b a73d 4007 a63d
00000090: ba4c 90bd 9236 bd3d a643 bb3d 8e82 863d
000000a0: 6088 e73c d16f ad3c c0f2 a43c ad1f 383d
000000b0: b7d1 86bd 4d50 273d 3a70 903d 1e5c b1bb
000000c0: f59f 0cbd 3bb8 213d ac87 0ebb 4125 023d
000000d0: c531 223c e8ed b53d eeb7 2a3d 70ad 22bd
000000e0: 98d2 b33d 4613 533d 4d76 513d b409 ae3d
000000f0: 5d45 2ebd 358d 153c 1424 f43c 04a3 f2bc
00000100: 039f a23c 74bb 843d 1ccb ba3c 929a ce3d
00000110: 80fe bc3d 5408 053d e186 e23d 4a3d 65bc
00000120: 6704 24bd 7eaf 233d f618 cc3d db8c a93d
00000130: 4aba 173e 01ec 15bd 9278 a13d 6fd3 da3d
00000140: ca22 09bd 3d42 43bc 1f56 b53d e727 743b
00000150: ff9b 833d d57b fe3c 4d26 5c3d 1803 073e
00000160: 497b 0bbd 4ab9 bf3d 5e82 b53d a216 c83d
00000170: 4e80 7e3d 71f1 acbc 3882 0ebb 33ea 833d
00000180: 48ac 423d f96f bb3c 2956 893d 177d 283e
00000190: 96c8 513d 6b24 9c3d 6d40 58bd ad10 85bd
000001a0: 8360 903c 9d21 923c 9189 b93d 2ee6 fc3d
000001b0: dd4f 4f3d 23fd e63d 2ff4 403d 042a 223d
000001c0: 8965 4abd 3a19 ca3d 0d70 e03c ff0e ab3c
000001d0: e755 ca3c c18c 923c ad46 4d3d 9005 953d
000001e0: db8a c13d 874d 9d3c 9a05 f43d 8b09 bd3c
000001f0: 324e 123d 4b41 983d 80f1 ee3d 96b3 8bbc
00000200: a928 9cbd 91d5 4bbd da07 853d 5fa5 11bd
00000210: 3298 c93d 7c9f 83bd 8259 87bc 58d4 d0bc
00000220: 1bac c03d 6eac df3c 12dd 463d 9a11 0c3d
00000230: e934 e6bb a2bd 61bc 8a2c e33c 0911 553d
00000240: b905 89bd 21eb f93c 8fe1 94bd 5590 863d
00000250: 1f80 48bd 8f29 04bd 8795 bbbd ecac 66bd
00000260: a60a 1fbd 470a a6bc 0a07 99bd 90a6 f03c
00000270: 4e83 afbc ce80 8c3c aebb 813d 9ae5 973d
00000280: 96fb f8bc bb0f fcbd 5ea5 32bd 14ad 8a3d
00000290: a44f 8dbb 5d81 7c3d 4a57 613d bfdf 70bd
000002a0: 3d24 0e3d fd45 4dbd 90db d0bd a9b0 e3bd
000002b0: 8e48 65bd e5f2 8abd 6ca8 893d 0965 153d
000002c0: 628c 7b3d f802 873c 520b 413d 71c1 9bbc
000002d0: ca4b 16bd 7157 28bd 2131 e1bb 26d3 603c
000002e0: 597d b0bd e838 ad3d 8b0d 593d 0184 b2bc
000002f0: 21e4 9b3d 826d 143d e4a6 2a3d d633 21bd
00000300: a0b0 0abd 5129 c73d 6a20 233d fb22 9b3d
00000310: 9281 0c3d 3d5f 4dbd 3435 7a3b e128 b0bd
00000320: adfe b23d 2f99 70bd 659d 063d 5ca0 afbd
00000330: c8a5 cfbd 1185 82bd 6837 4b3d 091c a8bc
00000340: f888 ff3c 6a92 7b3d 1ddc 28bc 6b05 64bd
00000350: 4b91 1dbd d6ee 01be 6846 313d b5df 83b9
00000360: a607 c6bc 5311 33bd 2a58 01be 89e4 0bbd
00000370: f5ff 7dbd 06e7 ae3c da2e 60bd 2a51 9b3c
00000380: 087b 7dbd 8706 863c 5d89 8fbd a34a 2cbd
00000390: c48a 913d bef7 33bd 8fcf 2abd 39a6 563d
000003a0: 8d4d a1bd ec72 893a abe2 923d 3211 743d
000003b0: d076 eebc ae8b 3e3d 2d68 993d c75b a9bb
000003c0: 8f11 65bd b326 943d f0c1 8c3d cdc2 b73d
000003d0: fcc4 a3bd 48f6 8ebc d812 783d 4545 32bd
000003e0: 2746 fdbd 7940 adbd fc72 333d 376b ec3c
000003f0: 45b2 ce3c 0302 87bc b589 493c 8540 303d
