experiments/ERA5Forecasting/logs/node_model.pth (torch, 72235 bytes, 12 tensors)

ode_func.linear1.weight f4 [64, 64]
00000000: 1ace 1d3d 434b 1e3e 34a5 90bd 94da bbbd
00000010: 050c d33d 8892 c23c 160b 913d 0b57 ddbd
00000020: 1634 243d e9ab 2e3e c9a6 cbbd 2619 34be
00000030: 5842 743d ede1 b63d 97df 293c 10fe a0bd
00000040: 7aa5 383c 6341 3e3c b68d 583e 3f6d 44bc
00000050: 634d 6a3b 5bda e4bc 39a2 b0bd 46b4 463d
00000060: c9a5 993d dcb0 8e3d fc19 ab3d c771 213e
00000070: 35dd ef3d bb74 503d 9fb5 2bbd 8977 35bd
00000080: 26e5 603c 5e80 97bd 634e d93c 9aad 4f3c
00000090: 9ff6 84bd 0ce3 2b3d 166d c23c 904d dfbd
000000a0: 2ab5 d8bc fb20 2dbe 3da0 c5bd 3937 31bc
000000b0: 9119 f03b 898f 233d c4b2 803d b45b b4bc
000000c0: e316 3e3d 389a 1c3e b514 183e 1e27 1c3d
000000d0: 428d a4bb 0a24 1a3e 1a12 0f3e 0c37 643e
000000e0: 9986 09bd f72c 2c3d 1199 e2bc f11a e6bd
000000f0: 4397 b03d 6f30 363e 4301 7abe 7705 173d
00000100: 1520 91bd ff02 2ebd 23e2 f03d 1246 4bbc
00000110: 0b29 a7ba cc77 80bd 2582 3a3e 4a6e 2a3d
00000120: 1400 a13d 44a7 423d 39b8 f2bd fbe8 333e
00000130: f11b b4bd fcdb 81bb 5749 ac3d d828 31be
00000140: fdcb 81bd 8a89 d33d 5dd7 05be 2389 fbbb
00000150: 1ea1 dd3d a3d3 a0bd ecf0 403e fd84 3fbc
00000160: fa5e 133c 8f3a 81bd 8006 b2bd 6447 3cbd
00000170: e9dc d8bd f32e 02bd a5b5 9abd bbbf 2abe
00000180: 7868 6e3e 1def 573d 14ce 72bc d147 a1bc
00000190: 7720 a6bd c616 87bd 8d42 5fbd ca86 8138
000001a0: d64b 8b3c f2cf 9f3c f80e 303d 1a1c 5cbd
000001b0: c504 543c 9b95 afbd 3b3f d23d bdda 66bd
000001c0: 5b05 0ebe 1a58 84bd 6ac3 733d dad3 8fbd
000001d0: 47ae 063e 6262 f7bc 23c7 303e 06b7 c13d
000001e0: 4f81 c63d 2eeb 073d de31 a3bd 6351 893e
000001f0: d36c 4bbc 78ff 08be 2f9f debc bad3 4bbd
00000200: d30a ddbd 4fd0 60bc 2cd4 e43d 063a 83bd
00000210: 0f91 8bbe 85ce a03d aa45 ba3d b18e a03b
00000220: ffd4 063d 42ad 3a3d febe debd da93 94bc
00000230: 8788 183e 214e babc 22f5 db3c f685 21bc
00000240: 7238 8dbd 6e7d 243e 6edb b9bd e7ad 363d
00000250: 4760 c13d 0ff9 cfbd abce 04be 3412 d23c
00000260: aa0e d33c cd85 833d e930 80bb 1397 89bd
00000270: 9429 6a3c f6fd 093e f1b2 31be 6f34 d9bd
00000280: e91c e6bd 9344 773c 477e 81bd 899c 9cbb
00000290: 00bc 80bb d73d 54bd 56a4 febd 11d7 8bbd
000002a0: 4beb b53b f635 89bd 0340 17be 896e 003e
000002b0: 2b2c b73d 3ad2 aabd f208 20bd 0415 73bd
000002c0: e690 d73d 5163 89bc 4de6 a03c f732 a53c
000002d0: d077 6bbd f3e4 2bbe 680f 4ebc cee0 4b3c
000002e0: 69e5 a53d 9092 2d3c 11e5 a9bd 8668 0f3e
000002f0: 826b 5e3d 0990 9e3e 545d a1bd 188e a5bd
00000300: 5452 963c a9ed a23d 8dd2 653d 6a60 603d
00000310: 6522 a03d 01d9 8abd 0864 31be 30e9 133d
00000320: 6fbf 2a3c 8bfa 233e 0791 24be 4272 e1bc
00000330: 612e 5cbd 9948 273e cfc5 77bd 7401 923d
00000340: e988 083e e4c9 d3bd 5c0d 5e3d 8961 183e
00000350: 7b6f a3bd 2cf6 d3bd e24f 38bd f3ab 34be
00000360: ccc1 183e 7009 983d d266 d83d 9a33 62bc
00000370: 535f cb3d f9ff b43d 2fcf de3c 1216 88bc
00000380: 6dd5 873d 7241 b93d 1ddd 59bc 4b3b 8bbc
00000390: fc30 c73d 518c 05bd 0a86 11bd 2217 6cbe
000003a0: 7041 3ebd a308 a2bc e579 34be fc68 a33d
000003b0: 00df 4d3d c041 f5bd 10d1 c5bd 39d9 1b3d
000003c0: 3715 a33d 091a 3b3d 3d70 c7bd 56b4 4abd
000003d0: 32e4 c73d 9723 273e edde 2f3e cb5f bebd
000003e0: d369 35be e386 8fbd 120a 483e e955 513d
000003f0: 45e0 b4bc 1c0e b33c ada7 c13d 776b edbd
0.038526632 0.15458398 -0.0706276 -0.0917255 0.10305027 0.023751512 0.070821926 -0.10807618
0.040088736 0.17057766 -0.09943921 -0.17587718 0.059633583 0.08929811 0.010368249 -0.078609586
0.011269921 0.011612269 0.21147808 -0.011988937 0.0035751692 -0.027936151 -0.086246915 0.048511766
0.07502324 0.06967327 0.083545655 0.15766059 0.11712114 0.050892573 -0.041921254 -0.04430345
0.013726508 -0.07397531 0.026526636 0.012675667 -0.06492352 0.041964576 0.023733657 -0.10903466
-0.026453573 -0.16907112 -0.09649704 -0.010816389 0.0073272665 0.039931808 0.06284097 -0.022016384
0.046408545 0.15293205 0.14851649 0.038123243 -0.005021722 0.1505281 0.13971749 0.22286624
-0.033575628 0.04203507 -0.027660878 -0.112356074 0.08622601 0.17791913 -0.24414544 0.036870446
-0.07086197 -0.042483326 0.11761882 -0.012406843 -0.0012753321 -0.062728494 0.18213709 0.041609086
0.07861343 0.0475228 -0.11851544 0.17569344 -0.08794392 -0.0039629918 0.08412426 -0.17300737
-0.06337736 0.10328968 -0.13070436 -0.00767626 0.10821746 -0.078528665 0.18841904 -0.011689422
0.008994812 -0.06309997 -0.08692646 -0.04596652 -0.1058901 -0.031783056 -0.07554177 -0.16674702
0.23282039 0.05271827 -0.014819641 -0.019687565 -0.08111661 -0.065961406 -0.054506827 6.176306e-05
0.017003935 0.019508336 0.042983025 -0.053737737 0.01294059 -0.08573457 0.102659665 -0.05636095
-0.1386923 -0.064621165 0.059512533 -0.07022829 0.13152419 -0.03019828 0.17263465 0.09458737
0.096926324 0.03318327 -0.07968496 0.26819906 -0.012416082 -0.13378704 -0.027175514 -0.049762465
-0.1079308 -0.01372154 0.11173281 -0.064075515 -0.27259108 0.078518905 0.090953186 0.0048998226
0.032917973 0.045575388 -0.108762726 -0.018136907 0.14895831 -0.022742333 0.026850287 -0.009858599
-0.06895532 0.16063473 -0.09075056 0.04459944 0.094421916 -0.10154926 -0.12969463 0.025643446
0.025763828 0.06422005 -0.0039120805 -0.06718268 0.01429214 0.13475785 -0.17353417 -0.10605704
-0.11235983 0.015092033 -0.063229136 -0.0047794026 -0.0039286613 -0.051816788 -0.12433688 -0.0682813
0.0055517307 -0.06699745 -0.14770512 0.12542166 0.08943971 -0.08340879 -0.03907103 -0.059346214
0.10525684 -0.01677099 0.019641066 0.020165903 -0.05748731 -0.16786556 -0.012576915 0.012443734
0.08100397 0.010594025 -0.08295644 0.14004716 0.054301746 0.30969265 -0.07879129 -0.08083743
0.018349804 0.07955486 0.056109 0.054779448 0.0781906 -0.067796715 -0.17323315 0.036111057
0.010421618 0.16013543 -0.16070949 -0.027520303 -0.053755168 0.16336288 -0.06049138 0.071291834
0.13333477 -0.10341242 0.05421196 0.14880957 -0.079802476 -0.10349688 -0.044998057 -0.17643718
0.14917678 0.07423675 0.105664864 -0.013806248 0.09930291 0.088378854 0.027198402 -0.016612086
0.066325046 0.09045686 -0.013297346 -0.016996047 0.0972614 -0.03260452 -0.03552822 -0.230557
-0.046449125 -0.019779509 -0.17624624 0.079790086 0.050261497 -0.119754314 -0.09659016 0.038048957
0.07963031 0.045679126 -0.09738205 -0.049488388 0.09760322 0.1632217 0.17174883 -0.09295615
-0.1771615 -0.070081495 0.19535092 0.05110732 -0.022079596 0.021857314 0.0945581 -0.11592763

ode_func.linear1.bias f4 [64]
00000000: fe08 d8bb 2b23 83bb e055 92bc 66d5 0b3c
00000010: a66f 9ebc 6d23 1dbc d9e4 a1bc 0000 0000
00000020: b60a cdbb c5a6 90bc d4fd 0abc fbd6 013c
00000030: 4b81 823c 44f8 b73b a051 e23b 1f68 7eba
00000040: 3003 9bbc f5ad 4cbc 23f8 28bc e767 e3bc
00000050: ecf3 11bc c95d 533b b1d0 a9bb 0fc4 f1bb
00000060: 02e6 17bc f80d 233c d0ce 493c 77e3 73bc
00000070: 222e 1ebd 3306 b7bb a098 f2bb 2c66 63bc
00000080: f8cc b4bb ec87 813a fbee 12bc f90d da38
00000090: ee13 26bc 0427 d6bb 7639 273c b9a0 b1bc
000000a0: 07ea 16bb ba99 9f3a 4afc 44bc 35f9 5bbc
000000b0: 79b9 babc 4dab e1bb df59 843b c0f9 bdbc
000000c0: 4dfb a6bb 29ac 03bc dd36 41bc 5327 053c
000000d0: 06f0 963c 398e b3b9 dcb2 a23c 79df afbb
000000e0: df1a d73c ba6a e0bb f03b fc39 0000 0000
000000f0: 77d7 0cbb fb52 963c aad3 59bd da05 61bc
-0.006592869 -0.004001995 -0.017863214 0.008534765 -0.019340347 -0.009590966 -0.019762443 0.0
-0.0062573804 -0.017657647 -0.008483369 0.0079247905 0.015930792 0.0056143124 0.006906703 -0.00097048463
-0.018922418 -0.012492646 -0.010313067 -0.027759505 -0.008908253 0.0032251945 -0.0051823487 -0.0073781083
-0.009271147 0.009952061 0.012317374 -0.014885775 -0.038618214 -0.005585456 -0.007403448 -0.01387934
-0.0055175982 0.0009882427 -0.00896811 0.00010397653 -0.010136588 -0.0065354127 0.010206571 -0.021683084
-0.0023027675 0.0012176551 -0.012023041 -0.013426115 -0.022793518 -0.0068868757 0.004039034 -0.02319038
-0.0050958754 -0.008036652 -0.011792866 0.008127051 0.018424999 -0.00034247505 0.019860677 -0.005367216
0.02625793 -0.0068486603 0.00048109842 0.0 -0.0021490732 0.018350115 -0.053180374 -0.013734305

ode_func.linear2.weight f4 [64, 64]
00000000: bc1e e7bb 2898 a23d c1f9 243e 6987 f63d
00000010: d7c9 983d 7862 b6bd 957e 533e 5dde 663d
00000020: e427 213e 06f3 823d dd28 6abe da52 1b3e
00000030: 4765 033e 6f91 38be 431c a53c 4309 24be
00000040: f2f5 043e 1291 90bd f91e b7bd 189c 1f3d
00000050: eff1 3a3e 1ccd b63c 301c a8bd da78 2cbd
00000060: deb4 adbc 93a7 cebc c412 68bd b9e2 5abc
00000070: 703e a43c f638 a2bd 03ae 3e3c 4082 023c
00000080: 7aea 243e 2956 283c 1b69 b7bd c017 5abd
00000090: b4cb 203e 9dec 123e 2061 7b3d 94be 1c3e
000000a0: e6d7 383d 723f f6bd 6b1c d43d a0c8 54bd
000000b0: ec19 023e a8fc 163e bffe c13d 5d61 ddbc
000000c0: f495 a53e b47c 193b 69c8 e53d 590c 2a3c
000000d0: df9c 9bbd ddf1 16be 6184 213e be69 303d
000000e0: 7748 df3c 0df6 1fbb 8a7e c4bd a834 d4bd
000000f0: 209d cdbd 58a7 1a3d cdc8 4a3e 1602 f83c
00000100: 558d 4cbd e78a 32be 930d 69bd 65e3 88bc
00000110: cef1 ec3d 1e79 95bc 8481 14bd 9f50 eabc
00000120: 423f de3d a45d 28be 3432 9d3d a934 ce3d
00000130: 10d6 07bc 2449 21bc 5e9b 95bd c44e 4b3e
00000140: 2e73 0abe e5de 083c b60c 0f3e 5fe1 333d
00000150: fd6e d13d 7fc1 36be 2793 0b3e f03f c8bd
00000160: 1b35 7f3d 036d bbbd eb8d 933e 3d8a d6bc
00000170: 3062 f43d 7d45 fa3b e7b5 82bc 7b97 c13d
00000180: 3474 bbbd d602 ef3c d169 ba3d 80c1 87bd
00000190: e0b6 9c3d 8f2b 0d3e 058a 3e3e 7eea 8abd
000001a0: 5aa3 fe3d ed21 d4bd 8d17 94bd d869 14bd
000001b0: 4488 debd 0db9 44bd dd97 6d3d 9d27 37be
000001c0: 59e8 b9bc 6ab8 ecbb f321 da3d 2d49 093d
000001d0: 5211 e13c 841a 8bbd 7667 7b3c d17d 4ebc
000001e0: 1330 03be 99ff 46bc f0c3 303d 52b3 2cbd
000001f0: a085 b03d f59a 6f3e 9724 b53d b745 373e
00000200: a8c3 6abd d2da 91bd 2538 803d e55c ac3c
00000210: 951b 0dbe 0769 903d 89ae 103e 7d9e 853b
00000220: b8c2 a8be 2d65 ee3d bfd2 d3bd b3d6 efbc
00000230: 5522 63bb 698b 6cbd 90bc 4ebd 28cd 26be
00000240: 3942 cdbd 30b1 b83d 67c7 09ba 22d0 703d
00000250: b096 ffbd 95e0 52be 3df4 4fbd 774d d2bd
00000260: 3382 ae3d b219 533e 0653 3d3e d618 a4bd
00000270: 8c10 033e 396c 023e 7389 0bbd 771b 5ebe
00000280: 0aba 57bd 7ba1 c63c 89be b23d 7f0d 70bd
00000290: 31bc 93bd 5d1e 973d 308c 63bd 5cae fa3d
000002a0: fe11 8b3d 34eb 94bd 0999 91bd 5ca0 193d
000002b0: cfcb 22be 1977 a93d 4279 73be c490 d3bc
000002c0: 80ed 0fbb 6d4e a13d 3718 193e b09b 76be
000002d0: 7b4d 84bd 6289 83bd 60b3 6b3d c7f4 9c3c
000002e0: 1183 60be 357f 77bd f7be d8bc cd23 21be
000002f0: ff49 3ebd 1208 13be 6fdb 14be 219e 033c
00000300: 7a2f 023e ad63 05bd 40c7 9a3d 753b cebd
00000310: 4d8a 9a3c cf17 2d3e 8b2f 7c3d 00d7 5ebd
00000320: 3485 633d f772 2e3c 35f4 b93c 5bb8 27bd
00000330: 53f2 ab3c b4a2 ba3d 98a3 483c 7397 13bd
00000340: 7fde f03d 711e 5b3e 5a30 02be cd9b 2d3d
00000350: a877 95bd af54 373c 0e69 ab3d 9960 5538
00000360: 39ab db3a fbe5 c1bd 2e62 683d b6af 02bd
00000370: 970c ac3d a378 5f3e fe59 56bc 9652 3f3e
00000380: 7fb7 a8b8 bb1c c7bd d9b9 36bd 732c ea3c
00000390: 135d 78bd 0704 60bd 489c 96bd 0f84 eb3d
000003a0: d99a 0e3d 0e67 e1bd 3ae7 163b e721 5fbc
000003b0: f798 0b3e 972f a7bd 5429 3dbd c6ce a53d
000003c0: 5e32 573d 972e 32be ebb7 353e 812d 113e
000003d0: f005 a6bc 9538 e2bd 304b ec3a e0c6 26bd
000003e0: ae43 ad3b 16c1 c53d f77f 98bd c72d 3bbd
000003f0: 6cb1 653c 0202 ea3d f571 e2bc 4292 0e3e
-0.0070532244 0.07939178 0.16110899 0.12037546 0.07460373 -0.089055 0.20653756 0.056364406
0.15737873 0.06394009 -0.2286715 0.15168324 0.12831603 -0.18024229 0.020155078 -0.16019158
0.12984446 -0.0705892 -0.089414544 0.038967222 0.18256353 0.0223146 -0.08208501 -0.04210744
-0.021204408 -0.02522639 -0.05665852 -0.013359719 0.020049304 -0.07921021 0.011638167 0.007965624
0.1610507 0.010274448 -0.08955594 -0.053245306 0.15702707 0.14348073 0.061371922 0.15307075
0.04512777 -0.1202382 0.10356983 -0.051949143 0.12705201 0.14744818 0.09472417 -0.027023965
0.32340968 0.0023420276 0.11219866 0.0103789205 -0.0759828 -0.14740701 0.15773155 0.043069594
0.027256234 -0.0024408132 -0.09594448 -0.10361606 -0.10039735 0.037757248 0.19803162 0.030274432
-0.049939472 -0.174358 -0.05689771 -0.016709993 0.11569558 -0.01824623 -0.03625633 -0.028602896
0.10851909 -0.16441971 0.07675591 0.10068638 -0.008290783 -0.009844098 -0.073050246 0.19854265
-0.135205 0.008353923 0.13969693 0.043916102 0.102262475 -0.1784725 0.13630353 -0.0977782
0.062306505 -0.09151652 0.28819212 -0.026188964 0.1193279 0.007637678 -0.015955878 0.09452721
-0.09153023 0.029176157 0.09102214 -0.06628704 0.07652068 0.13786148 0.18607338 -0.06783007
0.124335006 -0.10358033 -0.072310545 -0.036233753 -0.10865834 -0.04802804 0.058006156 -0.17886205
-0.0226938 -0.0072241323 0.106510065 0.03351705 0.02747408 -0.06792167 0.015344491 -0.012603239
-0.12811308 -0.0121459 0.04315561 -0.0421632 0.08619237 0.23398955 0.088448696 0.17897688
-0.0573155 -0.07121815 0.06260709 0.02104039 -0.13780053 0.070512824 0.1412908 0.004077731
-0.3296106 0.116403915 -0.10342931 -0.029277181 -0.0034657915 -0.05775014 -0.050472796 -0.16289198
-0.100223966 0.09018171 -0.00052558485 0.05879224 -0.12479913 -0.20593484 -0.050770033 -0.102686815
0.08520927 0.2061527 0.18488702 -0.080125496 0.12799281 0.12736596 -0.03406663 -0.21690165
-0.052667655 0.024246922 0.08727748 -0.05860662 -0.07213629 0.07378838 -0.055553615 0.12240288
0.06790541 -0.07271424 -0.07109267 0.037506446 -0.1589806 0.08274669 -0.23776725 -0.025825866
-0.002196163 0.07876287 0.14950643 -0.24082828 -0.06460091 -0.06422688 0.057544112 0.019159688
-0.21924998 -0.06042405 -0.026458247 -0.15736313 -0.046457287 -0.14358547 -0.14536832 0.008033306
0.12713423 -0.03256576 0.07557535 -0.10069934 0.018864775 0.16903614 0.061568778 -0.05440426
0.055546954 0.010647527 0.022699455 -0.0409473 0.020989573 0.091130644 0.012246035 -0.036033105
0.11761188 0.21398331 -0.12713757 0.04238491 -0.07298213 0.011189624 0.08369647 5.087312e-05
0.0016759402 -0.094676934 0.056734256 -0.031905852 0.08400839 0.21823363 -0.013082979 0.18683848
-8.045043e-05 -0.09722277 -0.044610832 0.028585648 -0.060635637 -0.05469134 -0.07354027 0.114997976
0.034815643 -0.11005984 0.0023026005 -0.013618923 0.1363257 -0.08163374 -0.04618199 0.080960795
0.05253827 -0.17400585 0.1774594 0.14177515 -0.020266503 -0.110459484 0.0018027779 -0.040717006
0.005287609 0.09655969 -0.07446282 -0.045697954 0.014019351 0.11426164 -0.02764223 0.1392298

ode_func.linear2.bias f4 [64]
00000000: 4798 aebb 3c60 e33c 025d 1cbb 7453 5ebc
00000010: 6810 92bb 5ccd 8ebb 4e1a a73a d555 58bb
00000020: cf25 66bc cbc2 303b 083e 10bc af32 c43c
00000030: 920d 04bc 2c74 9cbb 66fd 8b3c ae2b aeba
00000040: a052 4dbc 63ce adba 73c6 89bb e777 b23a
00000050: 5658 17bc 7c14 153c 2402 b33c 6aee 23bc
00000060: e067 a9bb 41f0 9ebb f696 11ba 4497 f9ba
00000070: 3c3b 98bb b60e 2dbc 71a4 a43c 2d81 56ba
00000080: 85c4 6abc 3972 acbb 06f2 8dbc fae7 a0bc
00000090: 5e54 18bc ca45 373b 140a d7bc 0ef5 bdbb
000000a0: 5042 46bc 778a e1bc 8017 9dbc f600 f53b
000000b0: 1914 13bc c5f9 febb 0295 81bc 94b3 d1bc
000000c0: 16e2 563b 7da2 35bc 73de debb 01d3 a4bb
000000d0: 7196 5fbc dfd7 92bc f3e6 afbb 0e18 30bb
000000e0: 8eea 2cbc 7ce3 aabc 4e3a 143c 6f46 eebb
000000f0: 061f 5e39 5074 02bc 1ff8 593b a9d7 1f3c
-0.0053282115 0.027755849 -0.0023859148 -0.013569701 -0.004457522 -0.004357977 0.0012748928 -0.0033010144
-0.0140471 0.0026971574 -0.008803852 0.02394995 -0.008059876 -0.004774591 0.017088603 -0.0013288164
-0.012531906 -0.001326036 -0.004204565 0.0013616056 -0.0092373695 0.009099122 0.021851607 -0.010005573
-0.0051698536 -0.004850418 -0.0005553806 -0.0019042273 -0.004645733 -0.010562589 0.020097943 -0.0008182701
-0.0143290805 -0.00526264 -0.01732732 -0.019641865 -0.009297458 0.0027965182 -0.026249923 -0.005797035
-0.012100771 -0.027531845 -0.019176245 0.007476921 -0.00897696 -0.0077812397 -0.015818123 -0.025598325
0.0032788566 -0.0110861035 -0.0068014204 -0.0050300364 -0.013646708 -0.017925201 -0.0053681075 -0.0026869806
-0.010553969 -0.020860426 0.009047104 -0.00727158 0.00021183127 -0.007962301 0.0033259464 0.009756007

ode_func.linear3.weight f4 [64, 64]
00000000: 9706 89bd a1f4 a2bd 7547 c33d 790d 233e
00000010: 46da 58bc dccc c93d 17fb 243d fa5e 4b3d
00000020: 9df7 843d 8e72 7e3d 4bb6 0b3d 9e41 00be
00000030: 56e8 e5bd 9e49 be3b 9b87 833e 3494 cfbd
00000040: cc63 91bd 293a c33b ee16 6e3e f134 8a3c
00000050: 16a9 9f3d 63d0 003e f481 f63c fee2 9e3d
00000060: 2966 163c 3541 6d3d baa5 6f3e abd0 a8bd
00000070: 5a0e 343b 787e 8dbe 7995 9b3d a7e2 2bbd
00000080: cfc8 8e3d ed66 873d d048 ee3d 7d6a 39bc
00000090: 275b e0bc 9928 aa3d 9d92 cc3d 181c a93d
000000a0: d5d0 f7bd ebb1 88bc 8b85 7e3d c993 2ebe
000000b0: 3af2 b03d 5b6f 93bc 1227 88bd 5584 28be
000000c0: 7e77 32be 30c9 ccbd 2a89 9c3d fde4 de3d
000000d0: 865f 6f3c 9358 95bd bd32 59be aab6 49be
000000e0: 2c85 1d3d a131 173d 7226 bfbd 60cb 10be
000000f0: 5084 ab3b dd31 f63d a381 923c 306a c53d
00000100: 7418 0dbe e55d 1dbd d160 c83d a398 b83e
00000110: b924 c7bb bc21 0ebd d3fc 07bd 3e9d e4bd
00000120: 0770 2b3e ebd1 be3c e88e f8bd 11cf 3cbe
00000130: 41df b03d a7b0 f33d 1d67 96be 8fd6 dc3c
00000140: b3d4 ce3d 5d9d 1dbe ed77 a43d 959c 593d
00000150: 5679 42bb 0e32 943c 76a4 acbc bc18 85be
00000160: d2e3 08be 1f44 383d 5dde 3dbe e8f0 adbc
00000170: 4b1c a83c 0209 21be 9206 c9bc f2df 47be
00000180: c930 4cba 2089 563e ce02 8b3d f334 253e
00000190: 8edd 33bc 1b98 803d 757c b33b ea17 dabc
000001a0: b352 873d 3408 773e 463d eb3b a3d3 adbd
000001b0: ccb2 c03d 2e2b b7bd 0818 ffbd 4c46 e13d
000001c0: cbbf 3dbd dc4c b5bc 19b1 85bb b21c 1abd
000001d0: 001a 0abe 28c9 3ebe 2f79 a1bd 16d0 f6bd
000001e0: 8674 4b3d ad19 1f3d ccfe 39bd f58a 12bd
000001f0: 34fb e33d 49b5 c7bd 6a88 a73c 381d 28be
00000200: b02c d33b 5609 ba3d 7e48 513c 51e1 713e
00000210: 9734 6abd 65e5 013d e29d e03d bb8c ec3d
00000220: 1823 7d3c 86e4 ebbd 1802 e4bc 2971 dcbd
00000230: 143b 66bd 52a3 923d 7025 7dbd 138c 21be
00000240: 5c23 19be 58f5 643e 526a fabd 30dc 54bd
00000250: bbeb 213c f1df 7cbd 511a 3abd b66a f1bc
00000260: dae2 22be 98d6 8f3d c5ee e33d 3291 5a3d
00000270: 75ff 68bb a830 7abe 4f6b 53bd 22cf 56be
00000280: 9e30 653e a5f4 eebd 2384 8c3d 6ecf bbbc
00000290: 7a54 c63d 23ed fbbc 0ae0 823d 3db6 eebd
000002a0: 9969 dfbc 6fd8 ebbc f3e8 1d3d 7acd 11bc
000002b0: bce8 2dbd 48c5 2abe f8b1 623e 71ee ebbd
000002c0: 6fd0 5fbe 5e77 e8bd 51b5 84be 17d4 2dbd
000002d0: da28 9ebc b165 323e fef3 a8bd 6fb5 153e
000002e0: f00d 29bd 4c0a f93d 9335 3cbe b95d 813d
000002f0: 7793 4a3d 2735 e33d c219 733c 8ea2 d0bd
00000300: 0840 3abe 8fce 93bd 154b 713d 3a48 343e
00000310: dfee 853d 3b8b b2bd d77f d2bd 1f06 babc
00000320: 032d f03a 1472 c43d 5a8b b1bd 91ae 873c
00000330: d3e1 a9bd 59c6 89bd 2ee0 663d 3c4c c4bd
00000340: 1bff 883d 4e1b 153d 79c2 3ebe ae13 f63b
00000350: 9efa 2c3c 42a8 f7bd f29c 8e3d b5d3 07be
00000360: d9bb 5c3d acd2 9b3d fba2 1f3d 1364 933c
00000370: 6efd 06bd 4bf6 5dbe f824 b2bd b694 4a3e
00000380: 4cf6 0a3e 519f 1abe e57f dfbc ab86 fcbd
00000390: 91b2 4abb 9a49 5a3c 3116 1abd 6419 9b3d
000003a0: 36f2 823c 67ff 0dbe e401 c53d da3c 01be
000003b0: cc48 0e3d ebfc 61bd b622 323e 9726 e6bc
000003c0: c09e 81bd 4410 053d f2bd e23d 9360 963c
000003d0: 0b86 a63d af95 02be 3abb 01be ef01 3abd
000003e0: cb08 e73d 8295 aabc d555 e73b 075b 063e
000003f0: 436b 50bd 5ffd 61be 2db1 36bd fa57 003e
-0.0669071 -0.079568155 0.09535114 0.15923108 -0.013235634 0.09853527 0.04027852 0.049651124
0.06492541 0.062120967 0.034109395 -0.12525031 -0.11225955 0.0058071157 0.25689396 -0.101356894
-0.07099113 0.005957861 0.23250934 0.016870948 0.077959225 0.12579493 0.030091263 0.07758139
0.00917963 0.057923514 0.23403063 -0.08242925 0.0027474375 -0.2763555 0.07596869 -0.0419642
0.06971895 0.066114284 0.11634982 -0.011316893 -0.027387215 0.08308525 0.09988902 0.082573116
-0.121003784 -0.0166864 0.062139075 -0.17048563 0.08639951 -0.017997434 -0.06648077 -0.1645673
-0.17428395 -0.09999311 0.076433495 0.1088352 0.014610177 -0.07292285 -0.21210761 -0.19698587
0.03845708 0.036912564 -0.09333505 -0.14140081 0.0052342787 0.120212294 0.017884081 0.09639394
-0.1377886 -0.038419623 0.09784091 0.36053953 -0.0060773757 -0.03470014 -0.033200096 -0.11162804
0.16741954 0.023293456 -0.12136632 -0.18438365 0.08636332 0.11898928 -0.29375544 0.026957778
0.10099163 -0.1539206 0.080306865 0.053127844 -0.0029674373 0.018090274 -0.021074515 -0.25995433
-0.13368157 0.04498684 -0.18541856 -0.021233037 0.020521304 -0.15726092 -0.024539266 -0.19519022
-0.0007789252 0.20950747 0.06787644 0.1613348 -0.010978116 0.06279012 0.005477483 -0.026622731
0.066075705 0.24124223 0.007178935 -0.08487632 0.09409103 -0.08943783 -0.124557555 0.10999736
-0.046325486 -0.022131376 -0.0040799496 -0.037625022 -0.1348648 -0.18631423 -0.07884442 -0.12051408
0.049671672 0.038842846 -0.04540901 -0.03577705 0.111318976 -0.09751374 0.02045079 -0.16417396
0.006444536 0.09083812 0.012773631 0.23621108 -0.05717906 0.03171291 0.10967614 0.1155028
0.0154502615 -0.11518197 -0.02783303 -0.10763771 -0.056208685 0.07160057 -0.06180328 -0.1577609
-0.14954895 0.22359216 -0.1222731 -0.0519678 0.009882863 -0.061737005 -0.045435254 -0.029469829
-0.1590685 0.070233524 0.11129526 0.053361125 -0.0035552655 -0.24432623 -0.05161601 -0.20977452
0.22381827 -0.11667756 0.068611406 -0.022926059 0.096840814 -0.030752724 0.06390388 -0.11655853
-0.027272033 -0.028789727 0.038552236 -0.008899087 -0.04245828 -0.1667682 0.22138202 -0.115200885
-0.21856855 -0.113508925 -0.25919583 -0.042438593 -0.019306589 0.17421605 -0.08249663 0.14619993
-0.041273057 0.12160167 -0.18379812 0.06316704 0.04945704 0.110941224 0.014837684 -0.10187255
-0.18188488 -0.07217132 0.058909494 0.17605677 0.06539702 -0.08717962 -0.1027829 -0.022707997
0.0018323961 0.09592071 -0.08669157 0.016562732 -0.08295026 -0.06727285 0.05636614 -0.09584853
0.066892825 0.036402993 -0.18628873 0.00750967 0.010557799 -0.120926395 0.06963529 -0.13264354
0.053890083 0.07608542 0.03897379 0.017992055 -0.032956533 -0.21675985 -0.086984575 0.19783291
0.13570517 -0.15099837 -0.027282665 -0.123303734 -0.0030929188 0.013323212 -0.03761882 0.07573202
0.015984636 -0.1386696 0.09619501 -0.1262087 0.034737393 -0.055172842 0.17396054 -0.028094573
-0.06329107 0.032486215 0.110713854 0.018356597 0.081310354 -0.12752412 -0.12669078 -0.045412
0.11280974 -0.020823244 0.0070597925 0.13120662 -0.050883543 -0.2206931 -0.04460256 0.1253356

ode_func.linear3.bias f4 [64]
00000000: 36d0 a03c 2ed0 61bc a373 24bc 5912 1cbc
00000010: 27aa ebbb 31c6 abbc e28d 8dbc 0000 0000
00000020: 9b0e 04bc 21cb 8cbc 7ddc f0bb ff98 3cbb
00000030: 198a 793c c70c fd3b 97eb 86bc 13d0 1ebc
00000040: 3405 0abc 6d30 c83a 2334 e0bb d57c 12bc
00000050: 81eb 24bc 5843 80bc 34e0 a7bb b9b2 11bc
00000060: a9fd c8bb 982b f3ba 55e5 a8bc 5011 56bc
00000070: bc20 9cba da77 85bc a004 b9bb e9b3 14bc
00000080: c0f4 8fbb 812a 013b 2230 3e3c a143 813b
00000090: ac81 453d 0e73 0a3c 1778 7a3b 5031 99ba
000000a0: ad5e 4c3c 5322 b13c a36d 9fbb 82e6 18bb
000000b0: 9220 783b a2d0 98bc 1067 bfb9 8b79 ecbc
000000c0: 7d34 bdbc 7d5d fdbc e57e 2dbc fa26 13bc
000000d0: 0000 0000 57ba 3dbc f1b9 57bc 5d73 723c
000000e0: ac7d 783a 9c49 47bc a55e 033c 036e 23bc
000000f0: 5e2e 723b dbc7 1ebc e138 ea3b 10b5 8ebc
0.019630533 -0.013782544 -0.010037336 -0.009525859 -0.0071919146 -0.020968528 -0.017279569 0.0
-0.008060123 -0.017186703 -0.007350503 -0.0028777716 0.015230679 0.0077224704 -0.01646976 -0.009693163
-0.008424092 0.0015273221 -0.0068421527 -0.008940895 -0.010065914 -0.015657112 -0.0051231626 -0.008892708
-0.0061337543 -0.0018552421 -0.020617167 -0.013065651 -0.0011911611 -0.016292501 -0.0056463033 -0.009076097
-0.00439319 0.0019709172 0.011608155 0.0039448296 0.048219368 0.008450283 0.0038218552 -0.001168767
0.012473744 0.021622812 -0.0048653646 -0.0023330753 0.003786121 -0.018654171 -0.00036507146 -0.02886655
-0.023096317 -0.030928368 -0.010589336 -0.008981461 0.0 -0.011580071 -0.0131668905 0.014798013
0.0009479176 -0.012163546 0.0080181705 -0.009974959 0.0036953907 -0.009691204 0.007147894 -0.017420322

ode_func.linear4.weight f4 [64, 64]
00000000: 4bdf 09be e8c8 89bd 8147 103e 751e 2fbd
00000010: 762a f0bd 2827 4d3d 1273 123c 6a37 3abc
00000020: 7ce0 f4bd 1ea7 473d 63df 64bd acfd a5bd
00000030: 6c47 19bc a44d 763c 6883 83bd 71c7 003e
00000040: 7052 bcbd 62ec bf3d 8327 903d 9536 b83d
00000050: 6471 4d3c 1499 943d 6e5a 8fbb 9439 263e
00000060: e6ba 2abe 3fcf 97bb 6e4f 08be cb33 8b3d
00000070: cb71 b0bd efc9 a23c ebaf 55bc 93c3 f23b
00000080: 9cd7 14bb b5d4 adbd 133f b9bd e52c 1dbe
00000090: bf97 953d 60f3 3a3d a820 b7bd 4aad bf3b
000000a0: dd21 f7bd 8d71 d0bd 556c c9bd 1f7f b4bd
000000b0: de39 9abd 07b9 033d 4df5 e7bd 9dd4 a23d
000000c0: b6df 84be afaf 2dbd caff 88bd 2fca c13c
000000d0: 35f9 813d a103 073d dbf6 b6bc 3177 143d
000000e0: 48eb bdbd dc44 6a3d c9cd adb9 4679 323d
000000f0: db7c 7c3d d048 8fbd e220 6d3d a715 b6bd
00000100: d91a d93d dc87 093d ad8b 03be 497b ccbd
00000110: 192c a4bb a661 de3d 3268 453b 88b0 fdbd
00000120: cbf1 313e 0703 8dbd e139 77bc fed8 f0bd
00000130: 5d07 cdbc 220b 2cbe ce8a 91bd e789 253d
00000140: 0f3e 7c3d c714 14be 1dde 8b3c 837d 78bd
00000150: 93e6 37be fcc2 a3bd 2ac2 503d 0727 20be
00000160: 02a6 b23d a78d c6bd 9ef8 b93d 1854 c8bd
00000170: a160 79bd 3019 1bbc 3b60 3abd 7c9b 783e
00000180: 8cb5 37be fdc2 ccbd 464e 543d 2b78 a63d
00000190: 6014 ff3c 38ac 01be ba01 3bbe cbf9 40bd
000001a0: d625 22be 3d0d d0bc ed2f 26bd 34e4 903d
000001b0: 0b69 ecbd 8743 8d3d 6e9b 273e df77 94bd
000001c0: ed37 78bd 78c6 983d 177c 043c c782 b63c
000001d0: 23c7 1e3c dee6 1abc a467 f9bc 5a1f 11be
000001e0: 9fae 893d 0887 56be 70f1 173d dcb7 6d3d
000001f0: aaec e03d e462 d83c 4339 7cbd f340 4bbc
00000200: 2f85 35be 5912 06be c534 2c3d d43a d9bd
00000210: 79e5 3f3e 53b2 37be 9ef1 273b 12bd 98bc
00000220: 231a 54bc 171e acbc 3e83 cb3d 5419 7cbd
00000230: 1139 1bbc 78bf 1a3e 1ad1 a9bb 1ca4 493c
00000240: 3a1a 68bd b93e 61be 0c0d 98bd cda2 0cbd
00000250: 2034 0a3c 9c29 f73d f473 fd3d 26d5 f4bc
00000260: 5ed3 2dbd 9ea4 37be 5cea 7e3d 2604 49bd
00000270: 52e6 89bd 4887 b43d e662 6a3c 7481 c5bc
00000280: a420 213d 5120 c7bd cff5 fcbd 1346 47bd
00000290: 68ef 93bd f982 99bd f9ac 80bd 30a0 1bbd
000002a0: b39b c8bd 1927 05bd cda3 4f3c e0e7 09bd
000002b0: f28b 803d 2974 fabc fedb bbbd 6f10 71bd
000002c0: 54e5 e4bc 61de 97bd 554d 363b 8719 d7bd
000002d0: 0114 0fbb 5ae5 243c d3a7 383d 9529 a13d
000002e0: d0a4 6ebd 2d97 2bbc 4c5c e5bc abdc ea3d
000002f0: 06c4 c93c aeeb 393d d309 b4bc 0a45 1a3e
00000300: 1693 b5bc c4a0 ecbd 7ff1 103d 4e05 0fbe
00000310: 305f 363d 2395 18be 3a63 a83c a098 f1bd
00000320: b1f2 99bd 92a8 fb3c 208f aabd 49a6 b8bd
00000330: b5ab 3f3d c494 debd e965 af3b 6737 1e3c
00000340: 7936 f5bc 9afb 9fbd 22d6 b63d 5756 0fbe
00000350: 9a37 653d ae48 903d ada8 fb3d 2971 c53d
00000360: a3c9 903d 13ec 96bd 43e8 30be d66c 7cbc
00000370: 491c 41bd 163f e43d 4252 b43b 93c9 fd3d
00000380: f1ea 34be 6087 c13d a109 ab3c 1d52 7abe
00000390: 1e30 fc3d be00 e53d 89b1 0bbe e19d f9bd
000003a0: ce59 c5bd 69bb b5bd 2d03 1dbd fa7a 26bd
000003b0: 92c2 16be dedd 0abd 75c6 e73b 3835 76be
000003c0: bb16 8fbd 2127 57be 9658 d4bd 2777 aa3d
000003d0: 95fd 98bd 02e3 403e 97a5 5fbe c619 a43e
000003e0: af09 6d3d d421 efbd 68ee 50bc 7cd8 cd3c
000003f0: 14fd 9cbd 133d d2bc eb96 223e 6f85 32be
-0.13464086 -0.06727773 0.14089777 -0.042753655 -0.11726849 0.05008617 0.008938568 -0.011365751
-0.119568795 0.04874336 -0.0558771 -0.08105025 -0.009355407 0.015033159 -0.06421548 0.12576081
-0.09195411 0.09371258 0.07038786 0.08994786 0.012539241 0.0725576 -0.0043747937 0.16232902
-0.16672859 -0.00463286 -0.1331155 0.06796988 -0.08615454 0.01987168 -0.01304243 0.007408568
-0.002271152 -0.08487836 -0.090452336 -0.15349157 0.07304334 0.045642257 -0.089417756 0.005849515
-0.12067006 -0.10177908 -0.09835116 -0.08813309 -0.075305685 0.032158878 -0.11326084 0.07950709
-0.25951928 -0.042403873 -0.06689413 0.023655979 0.063463606 0.032962445 -0.022334507 0.036246482
-0.09273392 0.057194576 -0.00033150453 0.043572687 0.06164251 -0.0699631 0.057892688 -0.088908486
0.10600824 0.03357683 -0.12846251 -0.09984452 -0.0050101397 0.10858469 0.003012192 -0.12387186
0.17377393 -0.06885343 -0.015089483 -0.11760138 -0.025027925 -0.16801122 -0.07106553 0.040414717
0.06158262 -0.14461051 0.017073685 -0.060666572 -0.17959051 -0.07996175 0.05096642 -0.15639888
0.0872307 -0.09694987 0.09080623 -0.097816646 -0.060883168 -0.009466454 -0.04550193 0.24278063
-0.17940348 -0.099981286 0.05183246 0.08128389 0.031137645 -0.12663352 -0.18262377 -0.04711322
-0.15834746 -0.025396938 -0.04057305 0.07074776 -0.11543473 0.068976454 0.16367885 -0.07249426
-0.06060021 0.0745973 0.008086226 0.022279156 0.009691033 -0.009454457 -0.030444928 -0.14172116
0.067227595 -0.20949948 0.037095487 0.05803667 0.1098264 0.026414342 -0.061578047 -0.012405622
-0.17726587 -0.13092937 0.042042512 -0.10606924 0.1873988 -0.17939119 0.0025626193 -0.018644843
-0.012945685 -0.021010442 0.09937142 -0.061547592 -0.009474055 0.15112102 -0.0051823976 0.012307193
-0.056665637 -0.21996583 -0.074243635 -0.034334946 0.008435279 0.12068483 0.12375632 -0.029886793
-0.042437904 -0.1793389 0.06223522 -0.049076222 -0.06733383 0.08814865 0.014305806 -0.02410958
0.03933777 -0.09722961 -0.12351572 -0.048650812 -0.072233975 -0.07495684 -0.06282992 -0.037994564
-0.09795322 -0.03250799 0.0126733305 -0.0336684 0.062766925 -0.030572968 -0.091728196 -0.058853563
-0.027941383 -0.07415462 0.002781709 -0.10502916 -0.0021831992 0.010064447 0.045081925 0.07869259
-0.058262646 -0.010473055 -0.027998112 0.1146787 0.024629604 0.045390777 -0.02197734 0.15065399
-0.022164863 -0.11554101 0.03538656 -0.13966867 0.04452437 -0.14900641 0.020555127 -0.11796689
-0.07516993 0.030720029 -0.0832808 -0.090160914 0.046794612 -0.108682185 0.005352725 0.009656764
-0.029933201 -0.07811661 0.08927561 -0.1399778 0.05596123 0.070451126 0.12288032 0.09640724
0.07069709 -0.07369246 -0.17276101 -0.015406808 -0.047146115 0.11144845 0.00550297 0.12391963
-0.17667748 0.09449649 0.020878615 -0.24445386 0.12313865 0.11181782 -0.13641943 -0.12188316
-0.096362695 -0.08873636 -0.038333107 -0.040644623 -0.1472266 -0.033902995 0.0070732185 -0.24043739
-0.06986757 -0.2101102 -0.10368459 0.08323508 -0.07470242 0.18836597 -0.21840511 0.32050914
0.057870563 -0.11676374 -0.012752153 0.025127642 -0.07665458 -0.025663888 0.15877883 -0.17433713

ode_func.linear4.bias f4 [64]
00000000: 89c0 063d edc6 9fbc f909 a4bb 98db ec3c
00000010: 2062 013a 9245 db3c fe28 9abc 2129 62bc
00000020: a91d d2ba 76c8 913a 7912 e3bb 6276 e23b
00000030: ef59 8b3b 94d0 bbbc e5de 193b 4a1c 71bb
00000040: b55b 98bb 2447 9bbc 9db2 ae3c d717 283c
00000050: 09d6 40bc 0793 823b c02e 753c 367f 2abc
00000060: dc99 833c c0f5 96bc fcfb eabb f53b 34bc
00000070: 43af efb9 0c50 593b 47fa 20bc 407c ba3c
00000080: 91f9 35bb e990 04ba 3ab8 87bb 71da 013d
00000090: 2284 8fbc b085 2ebc 3d11 6fbb fa4f ecb9
000000a0: a7d7 993a 5acb 8e3b f886 5c3c 8dba 4ebc
000000b0: 489a 7b3c cf1b 8ebc d02e 943b 3af6 a3bc
000000c0: dcdc 1fbb c93f 4a3c 9da3 60bc 1e53 06bc
000000d0: 23df ccba 424a 3a3c 04be 87bc 2887 d6ba
000000e0: 9354 4bbc 80ec feb9 0519 b53c d6d3 12bb
000000f0: 9eba 153a ddb3 c8bb 88e6 94bb 85ad 763b
0.03289846 -0.019504035 -0.0050060716 0.028913304 0.0004935581 0.026766572 -0.018818375 -0.013803751
-0.0016030568 0.0011122364 -0.0069296923 0.006911085 0.0042526643 -0.022926606 0.0023478803 -0.0036790543
-0.004649604 -0.01895482 0.021325404 0.01025959 -0.01176978 0.003984812 0.014964759 -0.010406306
0.016064577 -0.01842773 -0.007171152 -0.011000623 -0.00045716212 0.0033159284 -0.009825296 0.022764325
-0.0027767161 -0.00050569937 -0.0041418346 0.031702463 -0.01751906 -0.010651991 -0.003647878 -0.00045073015
0.0011737243 0.0043577375 0.013459913 -0.012617719 0.015356608 -0.017347245 0.004522182 -0.02001487
-0.0024393117 0.012344309 -0.013710883 -0.008198528 -0.0015630465 0.0113702435 -0.016570099 -0.0016367184
-0.012410301 -0.00048622862 0.022106657 -0.0022404096 0.0005711707 -0.006124957 -0.004544083 0.0037640047

ode_initial.weight f4 [64, 3]
00000000: 0fcc 033c e592 6b3e 0d1d 1cbf b086 cd3d
00000010: 16bc f1be cfe9 e03e 455e 0ebf a7f7 1cbe
00000020: 4c31 68be 06b0 37bb a191 a23e 26fa 21be
00000030: c941 ffbe f318 693e 6740 183e f6b5 86be
00000040: 1afd 943e 361e 9c3e 068f abbe c956 dbbe
00000050: 2541 e9bd e8c3 043f bb97 0bbf 2c10 033f
00000060: efb5 0abf a140 b8be 59b7 573e a45b e8bd
00000070: c80c d83d a9af 0bbd 5296 27bd fe5f debd
00000080: a4b4 1ebe d2b2 1b3d 6e0b 33be 3e30 8abe
00000090: 2fc2 cebe 791d 843e 8ca3 f23e af41 9abe
000000a0: 9cf9 07bf 115f 863d d9e7 e9bd 854a 21bd
000000b0: 655d d53d 8c5f 943d 13cb 0d3f 6d5f 763e
000000c0: 3a71 293e 047f dc3e 0f03 87be b590 a2be
000000d0: cb9c 0d3f ad3b 843e 2474 4f3e 10d4 bb3e
000000e0: 9aa5 1bbf 47d5 04bf 40c0 7a3e 5790 cdbe
000000f0: e81b c6be b12b ffbb ffe1 f93d b8e1 9b3e
00000100: dc3e 0f3f 65da 94be 64da 3b3e aa25 ca3e
00000110: 4743 07be a322 103e 8ec4 0e3d a948 403d
00000120: c626 8cbe 1873 f53e 984d e3bd a005 c5be
00000130: cd09 c03e 07e9 013e f7a6 033e eace ebbe
00000140: 08da c53e 428e 90be 2541 8bbe 9096 7e3e
00000150: e6de b9b9 c947 e53e a5a9 0c3d 3de8 143e
00000160: 2a1a 00bf 3d90 f63e 99a8 5cbe 9a8c 7a3e
00000170: fe37 053f b95d cd3e 9a19 8b3e 269d 3c3e
00000180: 06b8 fe3e 0fe8 2cbe db01 c3be b85f 21bb
00000190: 1c32 063f ecc1 293e d70f 173e e3fc 07bf
000001a0: fa3d 9d3d a458 00bf 8dbe 1a3f 4b49 ecbe
000001b0: 3365 b23d bf0b dfbe 9620 e93e aac7 3e3e
000001c0: 5d23 67be aed4 45be 00e1 d03e 73eb b83d
000001d0: 05a6 75bd 6a2c 9f3e 8c48 42be 98a7 0e3f
000001e0: adc0 e7be 9e51 0d3f ad1e a6be 8478 763e
000001f0: 9dfa afbe 19ac 9bbd 3072 10bf 65de d83e
00000200: 03bf 05bf 4e9a 053f 7fe1 a0be d9f5 d73e
00000210: 7d2b a33e 2ab4 de3e 2b8e e83e 4075 0ebe
00000220: a944 043d a03d 33be dc95 353d 63d7 d3be
00000230: 6de9 103e 8a39 903e 31c6 96be 45ae 59be
00000240: 5022 f5be 7bc1 7a3e 9d12 c83e 5a99 0fbf
00000250: d9aa 11bf 032c 09bf ae90 2e3e 4bdb 84be
00000260: f744 afbd 79ee f23e 82bf d7be 9a7f 0bbf
00000270: 797a c23e 6a69 eebe 8b84 323e e4a0 25be
00000280: 7a90 5e3e 59e2 9ebe b04f 0c3f 42f4 473e
00000290: 6fd6 a33d 7420 8f3d 553c 9b3e ada6 4fbe
000002a0: 21fb 7a3e 4bd3 27be d291 5ebe 2f3b 043e
000002b0: 3f70 143f 204f ddbd b552 f4be 8f59 5bbd
000002c0: b10d 023f 7bfc 00bf 3fad 2d3d ca76 cabd
000002d0: 498e c6be b0b6 383b 801d 833c e2bc 643e
000002e0: a191 cf3e ddd1 a43e 9641 b63d 6805 16bf
000002f0: 3eef 95be d371 f73d 34a6 733e 9eca 1dbe
0.008044257 0.23005255 -0.6098183 0.10035455 -0.4721381 0.43928382 -0.55612594 -0.15328847
-0.22675055 -0.0028028502 0.3175173 -0.1581808 -0.49854878 0.22763424 0.14868318 -0.263107
0.2909935 0.304918 -0.33507556 -0.4283965 -0.113893785 0.5186143 -0.545284 0.5119655
-0.5418386 -0.35986808 0.21066035 -0.11345604 0.10549313 -0.03410307 -0.04091484 -0.10858153
-0.15498596 0.038012333 -0.17484829 -0.2698993 -0.40382525 0.25803736 0.473904 -0.30128238
-0.5311525 0.06561101 -0.114211746 -0.039377708 0.10418204 0.072447866 0.5538799 0.2405984
0.16547099 0.43065655 -0.2636952 -0.31751028 0.5531737 0.2582678 0.20259148 0.36685228
-0.6079956 -0.51887935 0.244874 -0.40149185 -0.38693166 -0.007787191 0.122013085 0.30445647
0.5595529 -0.29072872 0.18345028 0.3948186 -0.13209258 0.14075713 0.034855418 0.046944294
-0.27373332 0.47939372 -0.11098784 -0.38480854 0.37507477 0.12686549 0.12856661 -0.460563
0.38642907 -0.28233534 -0.2719814 0.24862123 -0.00035452022 0.4478133 0.034341473 0.14541717
-0.50039923 0.4815692 -0.2154869 0.24467698 0.5203856 0.40110567 0.2716797 0.18419322
0.49749774 -0.16885398 -0.38087353 -0.0024623703 0.5242021 0.16577882 0.14752136 -0.5312025
0.07677837 -0.50135255 0.6044701 -0.46149668 0.087107085 -0.4356365 0.45532674 0.18630853
-0.22572084 -0.19319412 0.4079666 0.090292834 -0.05997278 0.31088573 -0.18972987 0.5572448
-0.45264187 0.5520266 -0.3244528 0.2406941 -0.3437089 -0.076011844 -0.56424236 0.42357174
-0.52244586 0.52188575 -0.3142204 0.42179754 0.31869116 0.4349683 0.45420966 -0.13911915
0.032292042 -0.17503977 0.04433237 -0.41375265 0.14151545 0.281689 -0.29448083 -0.21257885
-0.4787774 0.2448787 0.390767 -0.5609337 -0.5690132 -0.5358278 0.17047378 -0.25948557
-0.08558076 0.47447565 -0.42138296 -0.5449158 0.37984064 -0.465648 0.17433374 -0.16174656
0.21734801 -0.31032065 0.54809093 0.1952677 0.07999884 0.06988612 0.30319467 -0.20278426
0.2450986 -0.16389196 -0.21735314 0.12913202 0.57983774 -0.108061075 -0.4771935 -0.053552207
0.5080214 -0.50385255 0.04240155 -0.098859385 -0.3878043 0.0028185062 0.016005278 0.22337678
0.40540794 0.32191363 0.08899228 -0.58602 -0.2928409 0.12082257 0.2379387 -0.15409324

ode_initial.bias f4 [64]
00000000: 99b1 9f3c a2ac 8dbe 3797 f63e 2ff3 d63e
00000010: dd44 de3e 04d6 0abf 4459 df3e e523 513e
00000020: 7644 45be 9b70 f03d 3dff ebbd 11a7 a73d
00000030: 4222 d13c e5bb fa3e e7c3 de3d dc99 003e
00000040: a261 5a3c a35c 9f3e de1a 23be 0297 743e
00000050: 108f dd3e 28ba b0be 4ec7 fa3e 6ac8 bcbe
00000060: 6e1b f93b 9e91 ae3d e4de 163f 2461 40be
00000070: 717a acbe e306 d83e aaf6 f83e c2bb 0ebe
00000080: 57c5 b33e e70f dbbe 3930 d23e 34b4 93be
00000090: 8a82 fb3e 1040 fe3e 7899 fd3e 69a7 aabe
000000a0: 6631 0d3f b652 f8be 245a f1be e550 9a3d
000000b0: 7e57 0cbf b64e a9be 1bca 9a3d 4a90 ec3e
000000c0: 6161 6fbe 73f4 80be 6f2f f93e 6374 0a3f
000000d0: 327a 2a3e 1ab8 a13e 5ce2 313e b3f0 8ebd
000000e0: 073d 98be 0864 07bd e85b dfbe f401 973e
000000f0: 9f98 a7be c64c 0dbf f459 c6bd 4730 59be
0.019493865 -0.2767077 0.48162243 0.4198241 0.43411914 -0.5423281 0.43622792 0.20423849
-0.19264397 0.11740228 -0.11523292 0.08186162 0.02552903 0.48971477 0.10877209 0.12558693
0.013328942 0.31125364 -0.15928218 0.2388573 0.4327321 -0.34517026 0.48980182 -0.36871654
0.007602147 0.08523868 0.58933854 -0.18787056 -0.33687165 0.42192754 0.4862569 -0.13938811
0.35111496 -0.4278557 0.41052416 -0.28848422 0.4912303 0.4965825 0.4953115 -0.3333085
0.551535 -0.48500603 -0.47139084 0.07534961 -0.54821 -0.33067864 0.0755808 0.46203834
-0.23376991 -0.251865 0.48669 0.5408384 0.16648176 0.3158577 0.17371505 -0.069795035
-0.2973406 -0.03305438 -0.43624806 0.29493678 -0.32733628 -0.5519527 -0.09685126 -0.21209823

ode_readout.weight f4 [2, 64]
00000000: 00dd 563d de47 08bd a1dc 253d 7614 26bd
00000010: a9ba 223d 5a02 873d 8ab1 90bd 8631 f9bc
00000020: 2b33 cdbd 0ea0 a63d 8ff8 5fbd 3958 c83d
00000030: 14d4 d4bc b419 bebc 5ac2 94bc 5511 05bd
00000040: 3147 99bd 6e82 5c3c c76b afbb b0de 523c
00000050: 45b5 0dbd 148f af3d 3ceb cd3c c412 4ebd
00000060: 034f eb3d cadf d5bc 5b5f 1bbe 7c83 dabd
00000070: 46e0 55bd 3884 743d 3cef 783c a93e 61bd
00000080: 89e1 4ebd c4f8 a7bc da92 bdba 02e2 0d3e
00000090: e335 07be f0ef dcbd 544c b63d 95cd 9d3d
000000a0: 76eb 91bc 0aa6 37bd 841d 23bc f4de f1bd
000000b0: 4298 d83d fd0d b6bc bb4d a63d aeda 083d
000000c0: ae37 70bd 52d1 2d3d 5673 f0bd a72b 49bd
000000d0: 9d9c c5bd 36f9 433d 0f26 dcbd 6ac5 d1bc
000000e0: 8261 cfbd 16d3 e13d 2d26 dabc 8758 b8bd
000000f0: 7a70 383d 31d1 20bd 57d6 d2bd 5d6e 21bc
00000100: 9c2e c0bd affa cb3d babf 943d 9009 82bd
00000110: 0755 003e a503 a1bd 4b46 fa3d fb12 ed3d
00000120: 35ad 45bd 7b86 c83c 7327 643d 1c1a 9cbc
00000130: 5a81 d8bd 0d80 ff3d 312c dcbc 3071 dc3d
00000140: db8d 2a3d e24d c43d 0993 e2bd ab0e 97bd
00000150: 007e af3d 3fed f73c 730e 9abb 4a50 973d
00000160: 6a60 0abd fed7 323d 76d0 13bd 1b30 b2bd
00000170: 1c75 923d bb84 bb3d 76b2 053e 75d9 b4bd
00000180: 31fa c03d 3b36 9cbd f27a ac3c e3ce d5bb
00000190: 778e ec3d ceb8 4a3d 67cb 183e ae4d 0f3e
000001a0: 49a5 8fbc ce61 c3bd 5cde 96bd 1ca6 b33d
000001b0: 04ac 183d 0c28 ce3d e4d1 153d 18ce 023e
000001c0: ca95 da3c 942f 29bd 0136 c1bc 59f7 99bc
000001d0: e7c5 75bc 8bff d93c b319 443d a458 cc3d
000001e0: c41f 3f3d 7462 db3d 41c4 23bd 2428 ccbc
000001f0: 5c89 ea3d 4812 33bc 075c a53c d072 363d
0.052456856 -0.033271663 0.04049361 -0.040546857 0.039728794 0.065922454 -0.07065113 -0.030419122
-0.10019525 0.08135997 -0.054680403 0.09782452 -0.025980033 -0.023205616 -0.01815908 -0.032487232
-0.07484282 0.013458831 -0.005353424 0.012870476 -0.0345967 0.08572212 0.025136583 -0.050310865
0.1148968 -0.026107688 -0.15173094 -0.1066961 -0.052215837 0.059696406 0.015193757 -0.054991398
-0.050508056 -0.020504363 -0.0014463321 0.13855746 -0.1320415 -0.10787952 0.08901277 0.07705227
-0.017812472 -0.04483608 -0.009955768 -0.11810103 0.10575916 -0.022223467 0.08120295 0.033411674
-0.05864685 0.04243595 -0.117407486 -0.049113896 -0.09649012 0.047845088 -0.107494466 -0.02560683
-0.1012602 0.110265896 -0.026629532 -0.0900126 0.04502914 -0.039262 -0.10294788 -0.009852973
-0.0938389 0.099599235 0.072631314 -0.0634948 0.12532435 -0.07862023 0.122204386 0.11575886
-0.048260886 0.024478188 0.055701684 -0.019055419 -0.10571547 0.124755956 -0.02687654 0.10763776
0.04163919 0.095851675 -0.11063201 -0.073758446 0.085689545 0.030264495 -0.0047014295 0.07388361
-0.033783354 0.043663017 -0.036087476 -0.08700582 0.07151243 0.09156176 0.13056359 -0.08830539
0.0942272 -0.07627531 0.021054719 -0.006524907 0.115506105 0.04949265 0.14921342 0.13994476
-0.017534869 -0.09540139 -0.073666304 0.08771917 0.037273422 0.10066232 0.03657712 0.12773931
0.026682753 -0.04130514 -0.023585321 -0.018794702 -0.015000797 0.02661111 0.04787607 0.09977844
0.046661153 0.10712138 -0.039982084 -0.024921484 0.114519805 -0.010929652 0.020185484 0.044543087

ode_readout.bias f4 [2]
00000000: be34 14bb 4ece 043b
-0.0022614445 0.0020264569
