experiments/ERA5Forecasting/logs/node_model.pth (torch, 8875 bytes, 12 tensors)

ode_func.linear1.weight f4 [16, 16]
0.14306396 0.03429424 -0.08112124 -0.12959708 -0.15133175 -0.07518407 0.045897044 -0.14091092
0.22567059 0.060989656 0.049549274 -0.15870841 -0.15323807 0.13669914 -0.14128835 0.29082063
0.20212284 0.0842757 -0.064717785 -0.22731102 -0.020254197 -0.000690168 -0.13249743 -0.15524669
0.10201485 -0.06529749 -0.00097617955 -0.025626231 -0.17251067 0.12975454 -0.21534176 -0.1664165
0.07558824 -0.038500465 0.1306844 -0.043019403 -0.16794987 -0.14364024 0.11841673 -0.17768718
0.07593089 0.11282272 -0.025327098 -0.11756896 0.10134278 -0.030195065 -0.16492185 0.21886505
0.08018644 0.043363612 -0.0670556 0.05783805 0.08539029 -0.022337247 -0.1464148 0.008333031
0.1710556 -0.068071805 -0.034948394 0.04142959 0.09599713 0.0890448 0.044806045 0.023294052
-0.026526304 -0.12430415 0.09531359 0.057249885 -0.22215828 0.03730683 -0.1384455 -0.063025884
-0.08061408 -0.15350704 0.35784706 0.006864275 -0.0680098 0.049585167 -0.2532063 0.115523845
0.112284966 0.12213418 -0.29217303 -0.111570686 -0.082413174 0.08943576 -0.016240185 0.11327349
0.019520685 0.059682712 0.17062579 -0.12040306 0.056584287 0.073705 0.00047164664 0.021694824
0.03659555 -0.1216813 -0.059114426 -0.15450116 -0.1412641 -0.013068204 -0.026969437 -0.12682374
-0.15395114 -0.09065547 0.18475749 -0.10919186 0.08111282 0.12507208 -0.05945237 0.006892131
-0.1500846 -0.13999365 -0.0072507337 0.03191925 -0.097823516 -0.024664694 -0.11310738 0.18409547
0.07619383 0.05772713 0.02261609 0.07328613 0.1471468 -0.014151065 -0.039870452 0.045143373
-0.065543145 -0.12146296 -0.14419615 -0.059335753 0.056266677 0.21110235 0.009263062 -0.025718572
0.013026849 0.060914606 0.008917491 0.07790829 0.07813256 -0.13284962 0.15894164 -0.050355446
0.008472305 -0.058584373 -0.052621055 -0.24495704 -0.097689204 -0.07220228 0.05362185 -0.016277293
0.0020925708 0.08758067 -0.14328799 -0.22883981 -0.029966109 0.33708802 -0.08581048 0.09502495
-0.284315 -0.029729385 0.059473246 -0.055216487 0.09349015 -0.0739488 -0.1895389 0.3205549
-0.03195744 0.27992424 0.13704032 0.061726294 0.19025482 -0.19447449 0.14335725 -0.06719372
-0.16213988 -0.013388097 -0.013687629 0.0107033225 0.0039610155 0.08186909 0.045627523 -0.15675518
-0.06472075 -0.07370382 -0.11184286 0.1442845 0.08913531 -0.012077696 0.015382922 0.12471579
0.16410394 0.14076522 0.13604364 -0.03470652 -0.031883016 -0.19100171 0.069934815 -0.066184334
0.04258614 -0.1596777 0.064228185 0.13307849 0.08517211 -0.069602974 -0.0015503075 0.027232915
0.25815466 -0.026872536 -0.11604224 0.14554858 -0.10873187 -0.06296827 -0.020768177 0.078577936
-0.056188166 -0.042105407 -0.019642325 -0.033529356 -0.06971918 0.19098729 0.10919386 0.05374412
0.20363235 -0.00060645933 -0.03172816 0.011918877 0.046686962 0.018783297 -0.10870896 -0.09719771
0.00045671142 0.012583068 0.050149534 -0.27173206 -0.1404654 0.22632834 0.05170939 0.07216412
-0.11664784 -0.10209479 0.1246344 -0.0058986587 -0.27235723 0.0888577 -0.16391239 -0.0037032177
-0.13970703 0.049879257 0.023059698 -0.07406327 0.018268114 -0.07272973 -0.11492204 0.060616042
00000000: 5c7f 123e 1e78 0c3d e522 a6bd 19b5 04be
00000010: b6f6 1abe 1bfa 99bd 8afe 3b3d f44a 10be
00000020: 3116 673e 4ad0 793d 2ef4 4a3d 7584 22be
00000030: 71ea 1cbe dcfa 0b3e e5ad 10be 71e6 943e
00000040: 4af9 4e3e bd98 ac3d c28a 84bd 38c4 68be
00000050: 21ec a5bc 64ec 34ba 68ad 07be fdf8 1ebe
00000060: 29ed d03d b1ba 85bd 4de6 7fba 1aee d1bc
00000070: a3a6 30be 60de 043e 8d82 5cbe 1669 2abe
00000080: 02ce 9a3d aab2 1dbd 22d2 053e 1d35 30bd
00000090: 0dfb 2bbe 6d16 13be 7884 f23d a1f3 35be
000000a0: a881 9b3d 990f e73d c67a cfbc ffc7 f0bd
000000b0: ce8c cf3d a45b f7bc 46e1 28be 291e 603e
000000c0: ca38 a43d 0b9e 313d 7254 89bd 97e7 6c3d
000000d0: 1be1 ae3d 9afc b6bc c3ed 15be 4487 083c
000000e0: 3329 2f3e 3b69 8bbd 0c26 0fbd 13b2 293d
000000f0: 259a c43d 1f5d b63d 8b86 373d 2bd3 be3c
00000100: b14d d9bc 2d93 febd c533 c33d db7e 6a3d
00000110: 767d 63be 0ccf 183d a8c4 0dbe b713 81bd
00000120: ff18 a5bd f330 1dbe bb37 b73e b6ed e03b
00000130: b948 8bbd d119 4b3d 42a4 81be c497 ec3d
00000140: a9f5 e53d 7c21 fa3d b497 95be 2c7f e4bd
00000150: 3dc8 a8bd 192a b73d 230a 85bc eefb e73d
00000160: d8e9 9f3c dc75 743d 87b8 2e3e e195 f6bd
00000170: edc4 673d a6f2 963d 5747 f739 58b9 b13c
00000180: 37e5 153d 0c34 f9bd f821 72bd 8d35 1ebe
00000190: 89a7 10be 051c 56bc 02ef dcbc 15de 01be
000001a0: 5ea5 1dbe 93a9 b9bd 1131 3d3e fb9f dfbd
000001b0: 7a1e a63d e512 003e 5484 73bd 63d7 e13b
000001c0: c7af 19be 7f5a 0fbe 9097 edbb c2bd 023d
000001d0: b257 c8bd 9d0d cabc d8a4 e7bd 8683 3c3e
000001e0: 830b 9c3d 4873 6c3d 6145 b93c 0a17 963d
000001f0: a7ad 163e ded9 67bc 334f 23bd 42e8 383d
00000200: 7c3b 86bd 93c1 f8bd 28a8 13be 0c0a 73bd
00000210: e377 663d 372b 583e 19c4 173c c1af d2bc
00000220: 916e 553c 9881 793d ab1a 123c 628e 9f3d
00000230: f703 a03d bb09 08be 99c1 223e 8341 4ebd
00000240: 6ccf 0a3c 2bf6 6fbd 2d89 57bd 05d6 7abe
00000250: 4711 c8bd cade 93bd 96a2 5b3d f557 85bc
00000260: 8323 093b 7f5d b33d 16ba 12be fc54 6abe
00000270: 7c7b f5bc cd96 ac3e 68bd afbd 719c c23d
00000280: bc91 91be 0a8b f3bc 389a 733d af2a 62bd
00000290: c477 bf3d 7872 97bd 7c16 42be c61f a43e
000002a0: cee5 02bd 3b52 8f3e 4c54 0c3e b6d4 7c3d
000002b0: 29d2 423e 5224 47be 3ecc 123e dc9c 89bd
000002c0: ff07 26be c059 5bbc 1442 60bc fd5c 2f3c
000002d0: 68cb 813b fbaa a73d ede3 3a3d 6e84 20be
000002e0: 508c 84bd 07f2 96bd df0d e5bd 51bf 133e
000002f0: 938c b63d 87e1 45bc a708 7c3c fe6a ff3d
00000300: dd0a 283e c224 103e 064f 0b3e 6d28 0ebd
00000310: c497 02bd f495 43be fc39 8f3d a78b 87bd
00000320: ce6e 2e3d 8d82 23be 118a 833d ba45 083e
00000330: b76e ae3d 018c 8ebd b033 cbba 9017 df3c
00000340: d92c 843e cb23 dcbc 8ea7 edbd b00a 153e
00000350: d1ae debd 82f5 80bd 0622 aabc 78ed a03d
00000360: 9025 66bd b876 2cbd f1e8 a0bc 1456 09bd
00000370: eec8 8ebd 2c92 433e 08a1 df3d cb22 5c3d
00000380: 0085 503e ccfa 1eba 63f5 01bd 6547 433c
00000390: d43a 3f3d 6edf 993c cea2 debd 980f c7bd
000003a0: c572 ef39 3629 4e3c 9969 4d3d 7720 8bbe
000003b0: 29d6 0fbe 9ec2 673e 3acd 533d c8ca 933d
000003c0: 10e5 eebd 1317 d1bd 5240 ff3d 8949 c1bb
000003d0: 6872 8bbe 07fb b53d a6d8 27be afb1 72bb
000003e0: 5c0f 0fbe 314e 4c3d b1e7 bc3c 7cae 97bd
000003f0: 03a7 953c 53f3 94bd 3f5c ebbd 8748 783d

ode_func.linear1.bias f4 [16]
0.055099584 0.036698867 0.056899093 0.0 0.072442174 0.03461151 0.07307313 0.0065923296
0.011212214 0.022681747 0.0029123668 -0.00791994 -0.012875626 0.056582343 0.051117133 0.025384707
00000000: 1ab0 613d 8d51 163d 060f 693d 0000 0000
00000010: 905c 943d ccc4 0d3d 5da7 953d 7804 d83b
00000020: 6fb3 373c 12cf b93c 68dd 3e3b a3c2 01bc
00000030: 4af4 52bc e3c2 673d 3360 513d 97f3 cf3c

ode_func.linear2.weight f4 [16, 16]
-0.0528786 0.0670293 -0.016314382 0.12476659 -0.035446774 0.15896347 -0.062151726 -0.1401311
-0.033611447 -0.14868526 0.025666758 -0.18453303 -0.013595938 -0.0016787703 0.0020721434 0.0055486206
0.3749908 0.19241653 0.1368913 -0.017577892 0.2609251 -0.04913616 0.17347842 -0.11058164
0.04614169 0.09270632 -0.22932272 -0.009785084 -0.13026981 -0.09002203 0.23749274 0.16399078
-0.040240947 -0.08147051 -0.027900761 0.0053220256 -0.022187015 -0.035663523 0.036642797 0.054337144
0.05248508 -0.035428196 0.17514394 0.17442113 0.08698547 -0.11362864 -0.19786876 0.07220438
-0.10173277 0.0040866304 0.0019344682 0.056316275 -0.17755274 -0.07660227 -0.054817475 0.21131673
-0.040160302 0.041039072 -0.0358811 -0.09612809 0.08415875 -0.07722725 -0.07761531 0.0097965775
-0.11146696 -0.0006847637 0.11933575 -0.06269455 0.123907454 -0.06466974 0.1435887 0.036077254
-0.20125659 0.036268942 0.07839277 -0.044581633 -0.0774696 -0.090044305 -0.21734415 0.21473245
-0.22661394 -0.02371672 -0.15432134 0.12360175 0.051614985 -0.076899506 -0.060695525 0.07783755
-0.0047643827 -0.07873826 0.19121595 0.015161451 0.033930816 0.1306902 -0.19574653 0.13677782
-0.17335609 -0.20537394 -0.035176046 0.03627562 0.103075996 -0.0576845 0.038008988 0.021462785
0.1912976 -0.18119796 0.08487242 -0.037556168 0.025922386 -0.04028922 -0.16719268 0.21938998
-0.06315755 -0.05396228 -0.1164546 -0.037896425 0.07367617 -0.036360644 0.03354007 0.069557786
-0.02392996 -0.3578776 0.124886476 0.011902207 -0.036089137 0.013117579 -0.18699491 0.067985125
-0.07125064 -0.03371517 0.21063374 -0.08956075 0.2641621 -0.13029848 0.23960085 0.10850002
-0.09918 -0.091432855 -0.105154246 -0.03863385 -0.000950962 -0.28602925 -0.16112211 0.005836413
-0.12621702 -0.05212965 -0.15715629 0.050346147 -0.17091596 -0.15203495 0.09497328 0.058794152
-0.052906122 -0.07152027 0.053213887 0.07294203 0.054623276 -0.011180888 -0.018300654 0.09491697
-0.15196477 -0.25651377 -0.041399978 0.13971414 0.29941887 -0.2641003 -0.011735296 0.018919418
-0.13885595 -0.12103829 -0.030954318 -0.025864271 0.0132270595 -0.099536784 -0.03531882 -0.017237417
-0.036333755 -0.14055935 -0.17197734 -0.077147275 0.042897537 -0.01367511 -0.22047238 0.07205563
-0.04932229 -0.036238782 -0.11131304 0.17752081 -0.091598995 0.027238226 -0.0076957257 0.12570843
0.08555313 0.051956806 0.095424265 0.1529545 0.06766551 0.2211932 0.19537878 0.07490923
0.06678741 0.117828086 0.12328992 -0.046156425 -0.028989343 0.10902079 0.25678048 -0.02645433
-0.13848998 0.014563805 -0.0058088694 -0.024129272 -0.08667106 -0.00022800344 -0.088537514 -0.010915212
-0.053420782 -0.11929372 0.15575972 -0.02361163 -0.03464236 0.021034975 -0.09142529 0.2313311
0.037857533 0.07750476 0.08251681 -0.06539234 0.20727134 0.17489712 0.07533293 0.07023349
-0.08386733 0.07459481 -0.18443951 -0.15180174 -0.19737947 0.03269494 -0.07917835 0.07867718
0.10447196 0.1137689 -0.06280119 -0.1382658 0.012571441 -0.13784485 -0.081520565 -0.0983036
-0.03777898 0.038016494 0.05364492 0.21739793 -0.040397745 -0.03201465 -0.21997114 -0.21860395
00000000: 3b97 58bd a846 893d bda5 85bc a085 ff3d
00000010: a330 11bd 52c7 223e cf92 7ebd 877e 0fbe
00000020: 28ac 09bd f340 18be 1843 d23c 3af6 3cbe
00000030: 7fc1 5ebc 2f0a dcba cccc 073b 34d1 b53b
00000040: cbfe bf3e d708 453e 3c2d 0c3e 83ff 8fbc
00000050: fa97 853e 0043 49bd 54a4 313e a078 e2bd
00000060: 12ff 3c3d d0dc bd3d 93d3 6abe 9e51 20bc
00000070: 7365 05be 785d b8bd 4c31 733e 33ed 273e
00000080: b1d3 24bd 03da a6bd 2390 e4bc 6364 ae3b
00000090: 8bc1 b5bc ea13 12bd c216 163d a090 5e3d
000000a0: 98fa 563d 281d 11bd ef58 333e 749b 323e
000000b0: 7025 b23d 22b6 e8bd 1c9e 4abe e4df 933d
000000c0: 4559 d0bd 24e9 853b fb8d fd3a e5ab 663d
000000d0: 63d0 35be a7e1 9cbd 4a88 60bd 6a63 583e
000000e0: 217f 24bd 9618 283d 0ff8 12bd cede c4bd
000000f0: 6c5b ac3d 5229 9ebd c7f4 9ebd d381 203c
00000100: ca48 e4bd b781 33ba 4d66 f43d 0066 80bd
00000110: 31c3 fd3d 9271 84bd eb08 133e bec5 133d
00000120: 3516 4ebe be8e 143d 638c a03d 3b9b 36bd
00000130: 62a8 9ebd 2669 b8bd 778f 5ebe d3e2 5b3e
00000140: 7c0d 68be 9149 c2bc 6a06 1ebe ea22 fd3d
00000150: 3c6a 533d 7d7d 9dbd df9b 78bd 4b69 9f3d
00000160: 8a1e 9cbb 8641 a1bd 1dce 433e bc67 783c
00000170: 0afb 0a3d a7d3 053e c771 48be 7c0f 0c3e
00000180: 4284 31be 8c4d 52be c214 10bd bf95 143d
00000190: 8219 d33d 9546 6cbd 50af 1b3d b9d2 af3c
000001a0: 85e3 433e f58b 39be 97d1 ad3d 7fd4 19bd
000001b0: 2f5b d43c 4f06 25bd 8f34 2bbe c4a7 603e
000001c0: bf58 81bd 8d07 5dbd c07f eebd 4839 1bbd
000001d0: 88e3 963d e6ee 14bd 5061 093d 5074 8e3d
000001e0: c308 c4bc bc3b b7be 7bc4 ff3d 7901 433c
000001f0: 34d2 13bd 1deb 563c 987b 3fbe c93b 8b3d
00000200: dbeb 91bd eb18 0abd 5fb0 573e a06b b7bd
00000210: 4140 873e f76c 05be ed59 753e 4235 de3d
00000220: e21e cbbd 2641 bbbd 1c5b d7bd 873e 1ebd
00000230: fb49 79ba 6d72 92be 32fd 24be 613f bf3b
00000240: 093f 01be e685 55bd 94ed 20be c337 4e3d
00000250: 9804 2fbe 0daf 1bbe 5a81 c23d 23d2 703d
00000260: 17b4 58bd 3879 92bd cef6 593d a262 953d
00000270: a8bc 5f3d 0b30 37bc 41eb 95bc d463 c23d
00000280: a79c 1bbe c655 83be 0693 29bd 3911 0f3e
00000290: 6e4d 993e 2838 87be 6645 40bc e5fc 9a3c
000002a0: 4130 0ebe ece2 f7bd e993 fdbc 4fe1 d3bc
000002b0: 4fb6 583c f1d9 cbbd 78aa 10bd 7c35 8dbc
000002c0: b4d2 14bd caee 0fbe d41a 30be 64ff 9dbd
000002d0: 54b5 2f3d 920d 60bc 83c3 61be e791 933d
000002e0: 2b06 4abd 1e6f 14bd 17f8 e3bd 04c8 353e
000002f0: 4198 bbbd b322 df3c 6d2c fcbb b6b9 003e
00000300: 7b36 af3d a9d0 543d cc6d c33d 1ba0 1c3e
00000310: 3794 8a3d 7880 623e 6011 483e 036a 993d
00000320: d6c7 883d da4f f13d 6d7f fc3d 850e 3dbd
00000330: 0f7b edbc 4b46 df3d bb78 833e c0b6 d8bc
00000340: 51d0 0dbe 079d 6e3c 5458 bebb c0aa c5bc
00000350: 9980 b1bd 3514 6fb9 2853 b5bd b8d5 32bc
00000360: c0cf 5abd 4450 f4bd 7a7f 1f3e 2d6d c1bc
00000370: 26e5 0dbd 8a51 ac3c 2f3d bbbd 0fe2 6c3e
00000380: 8010 1b3d d1ba 9e3d 93fe a83d 6bec 85bd
00000390: f03e 543e 3b18 333e 2748 9a3d 93d6 8f3d
000003a0: a2c2 abbd 2ac5 983d b6dd 3cbe ea71 1bbe
000003b0: d81d 4abe 21eb 053d 4228 a2bd 8021 a13d
000003c0: 65f5 d53d abff e83d e99d 80bd 8d95 0dbe
000003d0: 72f8 4d3c 3327 0dbe 41f4 a6bd 6653 c9bd
000003e0: 22be 1abd 2fb7 1b3d c7ba 5b3d 909d 5e3e
000003f0: 1b78 25bd cb21 03bd 1d40 61be b7d9 5fbe

ode_func.linear2.bias f4 [16]
0.0 0.09309865 0.03808253 0.0 0.018322835 0.02961897 0.02945459 -0.009495204
0.08436737 -0.0532834 0.0484986 0.0 0.07281156 0.026082028 0.037434738 0.0
00000000: 0000 0000 81aa be3d 6dfc 1b3d 0000 0000
00000010: c519 963c 7ba3 f23c c14a f13c c691 1bbc
00000020: cdc8 ac3d b23f 5abd 78a6 463d 0000 0000
00000030: 3a1e 953d faa9 d53c 2b55 193d 0000 0000

ode_func.linear3.weight f4 [16, 16]
-0.040765714 0.07761229 0.12156131 -0.04579663 0.092224695 0.071708634 0.13110794 0.10706569
-0.08330787 0.07333618 0.05240118 0.07523025 0.017802967 0.09798854 0.008059153 0.042254645
0.10601977 -0.07815148 0.18479924 0.05237931 -0.07928888 0.07617848 -0.04364219 -0.038360175
0.13823876 -0.017607523 -0.10267856 -0.084416 0.03565518 -0.028044727 -0.20783639 -0.07121643
-0.027134849 -0.122891486 0.1095957 0.09884999 0.20214796 0.116994634 -0.014710285 0.017564116
0.097092606 -0.017355148 0.21130788 0.0645841 0.06579152 0.014782282 -0.16585559 0.0833926
0.07007875 -0.22983223 0.1231464 0.031411115 -0.06814801 0.052266728 0.14781632 -0.0029852442
-0.067167364 -0.0268162 -0.10275723 -0.05921916 0.034603927 0.16373385 -0.15914108 0.09052168
-0.05657455 0.107171305 0.020566987 -0.13870616 0.15423295 -0.07814235 -0.20363641 -0.105200894
0.16934341 -0.034989577 -0.095508955 0.017713664 -0.1250757 -0.122515984 0.15677987 -0.0040463596
-0.09382656 0.039451547 -0.08194003 -0.109371975 0.026329143 -0.016525304 -0.11879903 -0.09671364
-0.132883 -0.14368545 0.021802342 0.11833984 -0.11321119 0.025112022 -0.06534677 0.17988287
0.07240491 0.096347556 -0.14799157 -0.19430934 0.24355601 -0.00827647 0.052526437 -0.15574694
0.17767261 -0.18862315 -0.014410953 0.10899091 0.116587065 -0.10608513 0.12823354 -0.07909683
-0.17905508 0.022632143 -0.0854494 0.052174367 -0.0286344 0.1968913 -0.07959376 -0.11228419
-0.08297051 0.14807333 -0.112960584 -0.07902198 0.20267795 0.027216079 0.013800506 -0.037794072
-0.0076245777 -0.044624556 -0.07282325 0.18609248 -0.043887656 -0.029260216 -0.18714654 -0.0685786
0.13930698 -0.016248157 -0.15833238 0.1517032 -0.18675111 0.036826067 0.031225068 -0.04890388
0.07964911 -0.2507688 0.022041257 -0.14227682 -0.033891983 0.254701 0.082018174 0.21122263
-0.11676723 0.0236744 -0.20889938 -0.037356574 0.09320005 0.17214425 -0.11355145 0.068866365
-0.06803619 -0.117165975 -0.0018655325 -0.015961347 -0.11231635 -0.24459119 0.1403617 -0.06962003
-0.047323048 0.05969922 -0.04116745 0.00091033784 0.072756425 -0.02046732 0.16255124 0.026862407
-0.05127097 0.0023964418 -0.011835734 0.09815557 -0.14303555 0.124192975 -0.15210752 0.21218185
-0.07785072 0.07547498 -0.019803261 -0.0337853 -0.0895064 -0.25924134 0.05358506 0.22253063
0.2137539 0.21915106 -0.19137028 0.09249093 -0.051759336 -0.13569002 -0.12354176 -0.117244564
0.07291999 0.010451882 -0.12170116 -0.037612982 0.29025015 -0.23990038 0.12897977 -0.08541162
0.040656388 0.024680512 0.089653835 -0.10857391 -0.12410996 -0.22519957 0.013597637 -0.11382934
-0.096312396 0.17239581 -0.092213 -0.27738675 0.026365444 0.17670655 -0.102796115 0.115688436
-0.03952738 -0.018966667 0.22570303 0.10687035 0.108993255 0.08311239 0.15210426 0.0018776578
0.04886919 -0.115497194 0.33572564 -0.03096859 -0.055175036 0.0084297415 0.20139186 0.23937874
-0.17655319 -0.10856646 0.26619554 -0.27507594 0.026560431 0.21747983 0.08366156 0.11147382
0.02028345 0.05032436 0.11443405 -0.16210805 0.1600384 0.15555207 -0.027197478 -0.053255927
00000000: f3f9 26bd 31f3 9e3d 23f5 f83d 3f95 3bbd
00000010: 4de0 bc3d fadb 923d 2941 063e 4245 db3d
00000020: 519d aabd 4731 963d 9fa2 563d 5112 9a3d
00000030: 87d7 913c 37ae c83d 8a0a 043c 3513 2d3d
00000040: e520 d93d e20d a0bd 033c 3d3e b08b 563d
00000050: 3562 a2bd 7703 9c3d 27c2 32bd 8f1f 1dbd
00000060: 768e 0d3e a73d 90bc 2349 d2bd 4ce2 acbd
00000070: 2b0b 123d 0ebe e5bc 10d3 54be ebd9 91bd
00000080: e749 debc 88ae fbbd b673 e03d dd71 ca3d
00000090: e0ff 4e3e e29a ef3d 6803 71bc 9fe2 8f3c
000000a0: 7dd8 c63d 622c 8ebc 1861 583e ab44 843d
000000b0: b4bd 863d 6231 723c 0cd6 29be bdc9 aa3d
000000c0: 7385 8f3d 2459 6bbe 2e34 fc3d f1a8 003d
000000d0: 2f91 8bbd a315 563d 295d 173e 16a4 43bb
000000e0: 0b8f 89bd a6ad dbbc 6272 d2bd ca8f 72bd
000000f0: d9bc 0d3d d9a9 273e e1f5 22be 6e63 b93d
00000100: b7ba 67bd a17c db3d 197c a83c fd08 0ebe
00000110: 3eef 1d3e 1909 a0bd 1086 50be 9173 d7bd
00000120: 5c68 2d3e 3b51 0fbd 339a c3bd 3f1c 913c
00000130: d813 00be a9e9 fabd e78a 203e 5397 84bb
00000140: 2428 c0bd f297 213d 2dd0 a7bd 6afe dfbd
00000150: 37b0 d73c 1360 87bc e84c f3bd cd11 c6bd
00000160: 7b12 08be 4722 13be d39a b23c 285c f23d
00000170: 45db e7bd bab7 cd3c 87d4 85bd 3733 383e
00000180: 0749 943d de51 c53d 1a8b 17be 07f9 46be
00000190: bf66 793e 089a 07bc f625 573d 207c 1fbe
000001a0: cfef 353e 6d26 41be eb1b 6cbc a036 df3d
000001b0: 33c5 ee3d 2943 d9bd a74f 033e 85fd a1bd
000001c0: 375a 37be 0b67 b93c 1800 afbd cab4 553d
000001d0: b092 eabc df9d 493e 0e02 a3bd 41f5 e5bd
000001e0: 71ec a9bd 89a0 173e e157 e7bd 47d6 a1bd
000001f0: cf8a 4f3e 41f4 de3c 841b 623c f5cd 1abd
00000200: 98d7 f9bb 3dc8 36bd 5b24 95bd 078f 3e3e
00000210: 8bc3 33bd 1fb3 efbc 58a3 3fbe f072 8cbd
00000220: 7da6 0e3e db1a 85bc e221 22be 1558 1b3e
00000230: af3b 3fbe eed6 163d b7cb ff3c 6f4f 48bd
00000240: 131f a33d c564 80be de8f b43c 04b1 11be
00000250: 52d2 0abd 2b68 823e 25f9 a73d bf4a 583e
00000260: a823 efbd d1f0 c13c b8e9 55be 3503 19bd
00000270: abdf be3d 9546 303e aa8d e8bd cf09 8d3d
00000280: 8f56 8bbd b7f4 efbd e284 f4ba 5fc1 82bc
00000290: 1d06 e6bd 1d76 7abe faba 0f3e f294 8ebd
000002a0: d0d5 41bd 2b87 743d 339f 28bd bda3 6e3a
000002b0: 5201 953d 15ab a7bc d573 263e 8d0e dc3c
000002c0: 8201 52bd 9f0d 1d3b abea 41bc ca05 c93d
000002d0: e977 12be e358 fe3d 13c2 1bbe 3346 593e
000002e0: 3370 9fbd a092 9a3d 733a a2bc 7462 0abd
000002f0: 224f b7bd 48bb 84be 027c 5b3d 12df 633e
00000300: 4de2 5a3e 2369 603e 92f6 43be e26b bd3d
00000310: 9901 54bd 53f2 0abe 7603 fdbd eb1d f0bd
00000320: 1357 953d 5f3e 2b3c 753e f9bd 1210 1abd
00000330: ab9b 943e 72a8 75be 4613 043e 4aec aebd
00000340: 5087 263d c92e ca3c 6e9c b73d 005c debd
00000350: 5d2d febd b79a 66be a0c8 5e3c 5b1f e9bd
00000360: 6f3f c5bd 8788 303e 2bda bcbd a305 8ebe
00000370: 58fc d73c 90f2 343e c586 d2bd 0fee ec3d
00000380: 76e7 21bd fc5f 9bbc b21e 673e d8de da3d
00000390: db37 df3d d436 aa3d 38c1 1b3e be1b f63a
000003a0: 0f2b 483d cb89 ecbd 3be4 ab3e d7b1 fdbc
000003b0: 38ff 61bd e61c 0a3c ab39 4e3e b31f 753e
000003c0: 5cca 34be 1858 debd c84a 883e c1d6 8cbe
000003d0: 4395 d93c 08b3 5e3e c156 ab3d 634c e43d
000003e0: 7a29 a63c eb20 4e3d 665c ea3d a7ff 25be
000003f0: 1be1 233e 0b49 1f3e 3fcd debc e322 5abd

ode_func.linear3.bias f4 [16]
0.010312987 0.026011588 0.039398707 -0.009062949 0.015948508 0.0 0.031234154 0.026491296
0.0 -0.0542456 -0.01046 -0.0051556495 0.0552755 -0.0193314 -0.001866948 0.017658956
00000000: cdf7 283c 4116 d53c 8a60 213d c37c 14bc
00000010: 72a6 823c 0000 0000 c5de ff3c 4604 d93c
00000020: 0000 0000 a230 5ebd 6b60 2bbc b9f0 a8bb
00000030: 9068 623d e25c 9ebc 61b4 f4ba 84a9 903c

ode_func.linear4.weight f4 [16, 16]
-0.07942409 -0.0957905 -0.049714103 -0.1513795 -0.21124709 -0.060243715 -0.054963186 -0.035414148
0.061410137 -0.0115763685 -0.011607693 -0.1837437 -0.19049975 0.0027970634 0.04053777 -0.12866011
0.030847138 0.07752637 0.13052134 -0.13078175 0.05257338 0.06206357 -0.056010272 0.039369885
-0.026203914 -0.08081745 -0.080801845 -0.03721416 -0.121257916 0.007995747 -0.14051592 -0.03443564
-0.08183385 0.026537033 -0.13070105 0.0488781 0.11371709 -0.052528925 0.14845464 -0.002778217
0.14705758 0.14695618 0.007716225 0.13525014 0.34182602 0.08777691 -0.032316837 -0.12904252
0.04930089 0.10211578 -0.010944351 -0.021540444 0.1713831 0.030805511 0.069723874 -0.20175606
0.056663275 -0.20021574 0.12140295 0.02356674 -0.22903265 0.23701867 -0.0029884262 -0.08576996
-0.13185349 -0.09430026 -0.08026927 -0.028715035 -0.20629226 -0.024527965 0.038581047 -0.101203404
0.12134018 -0.060564864 0.16027291 -0.21199639 -0.23713249 0.056808855 0.1306323 0.060383465
0.13906309 -0.12705758 -0.016830558 -0.044313945 -0.098530024 0.0076559037 -0.09270232 0.082852565
0.13357918 0.22129372 -0.0066672955 0.12891288 -0.058412597 -0.026517972 -0.035979304 0.17230155
-0.18916175 0.15634187 0.07434635 0.23519863 0.032316003 0.07926198 -0.3184914 0.2037546
0.14782487 0.068108246 -0.075543374 0.21400234 -0.12632094 -0.10869383 -0.12983045 0.085032664
-0.0075477744 0.057760693 0.047358677 -0.039098546 -0.09144468 -0.11275869 0.09255915 -0.15550338
-0.050260246 0.031885777 -0.2019149 -0.14359544 -0.060698308 -0.0062340675 0.08435329 0.035780035
0.054810714 -0.21796809 0.07526599 0.28127086 -0.0038163105 0.011846039 -0.22788705 0.087333195
0.07498751 0.23164071 0.029529227 0.06808237 -0.0021424626 0.08927078 -0.04921137 -0.0775462
0.04927978 -0.16315301 0.27472985 -0.041957945 -0.203281 0.103536226 -0.098066464 0.18216774
-0.1714806 -0.006728816 0.017652562 0.11478054 -0.055064566 0.047910657 0.13028486 0.16712019
0.13166563 0.06678432 -0.030034086 -0.009047488 0.07441808 0.07888488 0.10672986 0.08766669
-0.049699362 0.114834994 0.027162965 -0.0067159273 0.20303462 -0.05991266 -0.007566289 -0.082066804
0.11173502 0.06381343 0.0841566 -0.12400235 -0.01052003 0.034940198 -0.10270311 -0.11348737
-0.054033644 -0.16785026 -0.11035861 -0.07096701 -0.027395615 -0.14382273 0.04724849 -0.052433513
-0.02381784 0.27472144 -0.07627 -0.11149336 0.08042261 0.048521485 0.07861941 0.1472983
0.12249718 0.053201284 0.18604752 -0.17693475 0.10107455 -0.023183316 -0.060643025 0.021866458
0.027218014 0.045757055 -0.1349348 0.10379155 -0.04688409 0.16836967 -0.04245013 0.08202122
-0.15930186 -0.093425386 -0.05954641 0.14385894 -0.038256064 0.11899629 -0.12794627 -0.15373112
0.07011588 -0.10676119 0.11488087 -0.12460575 -0.00053948426 0.019826885 -0.099234134 -0.085612565
-0.02332349 0.109223165 0.13948382 0.00041932732 -0.11341514 -0.046603944 0.052181818 0.24365535
0.06445598 0.118636265 -0.050263062 0.09101728 0.060760517 0.012645933 -0.14563552 0.0047435504
-0.112215176 0.19638114 0.18095754 -0.06261697 0.00976916 -0.019801315 -0.06815219 -0.09949767
00000000: 19a9 a2bd cf2d c4bd 04a1 4bbd 3a03 1bbe
00000010: 2851 58be 1dc2 76bd 1421 61bd 6d0e 11bd
00000020: 3289 7b3d cfaa 3dbc 312e 3ebc 4f27 3cbe
00000030: 5e12 43be f04e 373b ef0a 263d 7abf 03be
00000040: 23b3 fc3c 25c6 9e3d 63a7 053e a7eb 05be
00000050: 2f57 573d 5f36 7e3d 076b 65bd 5142 213d
00000060: 97a9 d6bc 9f83 a5bd 707b a5bd e06d 18bd
00000070: 1256 f8bd 9800 033c 68e3 0fbe 630c 0dbd
00000080: 8198 a7bd 3164 d93c 7fd6 05be 6734 483d
00000090: 81e4 e83d 9228 57bd 7e04 183e bf12 36bb
000000a0: 4396 163e ae7b 163e 63d8 fc3b 037f 0a3e
000000b0: d203 af3e 61c4 b33d a95e 04bd b923 04be
000000c0: bbef 493d 1422 d13d ef4f 33bc 9675 b0bc
000000d0: 0d7f 2f3e d75b fc3c 64cb 8e3d 2499 4ebe
000000e0: c017 683d 5b05 4dbe 1ca2 f83d 090f c13c
000000f0: 8987 6abe 06b5 723e 79d9 43bb 29a8 afbd
00000100: 9a04 07be 7f20 c1bd 3764 a4bd cb3b ebbc
00000110: 473e 53be dfee c8bc 2907 1e3d bb43 cfbd
00000120: 3381 f83d dd12 78bd 951e 243e 9515 59be
00000130: dcd2 72be 67b0 683d 79c4 053e a754 773d
00000140: 8e66 0e3e 621b 02be 3de0 89bc 8a82 35bd
00000150: 1cca c9bd 60de fa3b b7da bdbd 9bae a93d
00000160: fbc8 083e d29a 623e 5479 dabb bd01 043e
00000170: 0c42 6fbd 383c d9bc 095f 13bd d16f 303e
00000180: 9eb3 41be 1518 203e e642 983d e9d7 703e
00000190: c95d 043d 1b54 a23d 4e11 a3be 0ca5 503e
000001a0: 675f 173e 567c 8b3d 7cb6 9abd 6e23 5b3e
000001b0: 475a 01be df9a debd 46f2 04be 9b25 ae3d
000001c0: 5253 f7bb 7a96 6c3d 2cfb 413d cc25 20bd
000001d0: 5947 bbbd 07ee e6bd a78f bd3d 473c 1fbe
000001e0: b0dd 4dbd a99a 023d c8c2 4ebe af0a 13be
000001f0: ca9e 78bd 2647 ccbb 6bc1 ac3d 168e 123d
00000200: 3381 603d 0733 5fbe 0e25 9a3d bc02 903e
00000210: 111b 7abb e415 423c 395b 69be bfdb b23d
00000220: 0d93 993d 3933 6d3e 47e7 f13c c56e 8b3d
00000230: 8f68 0cbb 99d3 b63d dd91 49bd 8bd0 9ebd
00000240: 98d9 493d 9511 27be 64a9 8c3e 18dc 2bbd
00000250: e528 50be cd0a d43d 12d7 c8bd 2e8a 3a3e
00000260: 9c98 2fbe 667d dcbb 1b9c 903c 0f12 eb3d
00000270: 628b 61bd f73d 443d 6569 053e 8e21 2b3e
00000280: 5bd3 063e 38c6 883d 0b0a f6bc ea3b 14bc
00000290: 8268 983d 658e a13d 2f95 da3d 988a b33d
000002a0: 8f91 4bbd 9c2e eb3d de84 de3c 4811 dcbb
000002b0: 4fe8 4f3e fa66 75bd a2ee f7bb a412 a8bd
000002c0: 55d5 e43d 9eb0 823d 4c5a ac3d f2f4 fdbd
000002d0: 345c 2cbc 741d 0f3d 0256 d2bd 116c e8bd
000002e0: 6252 5dbd f0e0 2bbe b203 e2bd 2757 91bd
000002f0: c56c e0bc 4446 13be a287 413d 86c4 56bd
00000300: a11d c3bc 4aa8 8c3e 7233 9cbd a156 e4bd
00000310: 9cb4 a43d 77be 463d 3703 a13d 5ed5 163e
00000320: cddf fa3d 97e9 593d 3e83 3e3e 622e 35be
00000330: 2c00 cf3d f0ea bdbc d264 78bd 4921 b33c
00000340: 50f8 de3c c06b 3b3d 592c 0abe aa90 d43d
00000350: 8809 40bd 1969 2c3e 30e0 2dbd befa a73d
00000360: 0720 23be cf55 bfbd f0e6 73bd c24f 133e
00000370: 64b2 1cbd 54b4 f33d 5904 03be b16b 1dbe
00000380: ea98 8f3d 9ca5 dabd a946 eb3d 4d31 ffbd
00000390: 2d6c 0dba fe6b a23c 443b cbbd a455 afbd
000003a0: e710 bfbc 65b0 df3d d9d4 0e3e 29d9 db39
000003b0: 3246 e8bd c7e3 3ebd 9abc 553d ca80 793e
000003c0: 7f01 843d 92f7 f23d a4e0 4dbd 4567 ba3d
000003d0: 05e0 783d e330 4f3c 7a21 15be c96f 9b3b
000003e0: 12d1 e5bd 2318 493e ef4c 393e 533d 80bd
000003f0: d40e 203c 5e36 a2bc 6093 8bbd 6fc5 cbbd

ode_func.linear4.bias f4 [16]
-0.06538072 -0.021659512 0.0228619 0.009649192 -0.0068062586 -0.020480622 -0.016262248 0.010926618
-0.03716308 -0.0039890436 0.042369336 0.020399872 0.017466895 -0.05901659 -0.0071350764 0.0054799113
00000000: 54e6 85bd 4a6f b1bc e148 bb3c a517 1e3c
00000010: 0907 dfbb fac6 a7bc 6838 85bc 8f05 333c
00000020: 5038 18bd 86b6 82bb 788b 2d3d a21d a73c
00000030: bc16 8f3c 61bb 71bd 5ccd e9bb d490 b33b

ode_initial.weight f4 [16, 3]
0.35224816 -0.51888865 0.11476831 -0.5657411 0.41329002 0.12241676 0.43510216 0.21691854
-0.3465614 0.10552328 0.045262665 -0.077189706 0.2683941 0.3239421 -0.24459445 -0.2299797
0.13745862 0.35845163 -0.55916345 0.29089513 0.41846627 -0.5607339 -0.3162867 -0.44923437
-0.51942074 -0.12481769 -0.23354268 -0.40712693 -0.29986292 0.2599557 -0.3198272 -0.1777341
0.40673977 0.07060603 0.33326972 -0.03388846 -0.022264158 0.643224 -0.026071046 0.16209957
-0.40567183 0.084806636 -0.5617129 0.19273612 -0.046055153 -0.27471152 -0.31640175 0.3221218
00000000: df59 b43e e3d5 04bf a60b eb3d 69d4 10bf
00000010: c09a d33e a3b5 fa3d b6c5 de3e e51f 5e3e
00000020: 7f70 b1be 971c d83d 5865 393d a315 9ebd
00000030: f46a 893e bddb a53e f876 7abe cc7f 6bbe
00000040: f4c1 0c3e f986 b73e 5625 0fbf 35f0 943e
00000050: 3641 d63e 428c 0fbf 55f0 a1be 0c02 e6be
00000060: c2f8 04bf 6ba0 ffbd d025 6fbe f172 d0be
00000070: a287 99be ea18 853e 64c0 a3be eeff 35be
00000080: 3240 d03e e599 903d 54a2 aa3e a0ce 0abd
00000090: 5363 b6bc 54aa 243f f292 d5bc 6efd 253e
000000a0: 38b4 cfbe 1aaf ad3d 6bcc 0fbf 9e5c 453e
000000b0: 54a4 3cbd fda6 8cbe 69ff a1be 26ed a43e

ode_initial.bias f4 [16]
0.23043407 -0.36622122 -0.3711275 -0.35089725 -0.022952853 -0.35891056 -0.25898957 -0.063461274
0.19791408 -0.04520051 0.12779135 -0.6323445 -0.17211531 0.013598819 -0.46469858 0.1999951
00000000: e9f6 6b3e 5981 bbbe 6c04 bebe cea8 b3be
00000010: 9f07 bcbc 20c3 b7be 489a 84be fcf7 81bd
00000020: fda9 4a3e 2c24 39bd bcdb 023e 54e1 21bf
00000030: ff3e 30be 95cd 5e3c f9ec edbe 84cb 4c3e

ode_readout.weight f4 [2, 16]
-0.21732274 0.06378928 0.17726293 0.25196165 0.21674986 -0.10237745 -0.19966933 0.09934817
-0.1494835 -0.18219496 -0.029688537 0.20671117 0.08244569 -0.18282016 0.080787584 -0.1826018
0.21547738 0.018583454 -0.38288495 0.15698306 0.0046413797 0.05664269 -0.13833141 0.05787076
-0.061724618 0.33738416 -0.055666648 -0.0059894617 -0.33078697 0.10284463 0.05168266 -0.11134772
00000000: da89 5ebe f4a3 823d 6a84 353e 1e01 813e
00000010: adf3 5d3e 45ab d1bd 1e76 4cbe 0e77 cb3d
00000020: 3412 19be 5191 3abe 6035 f3bc 18ac 533e
00000030: 49d9 a83d 3535 3bbe f673 a53d f7fb 3abe
00000040: 1aa6 5c3e 543c 983c 7f09 c4be 2bc0 203e
00000050: b716 983b 2a02 683d c0a6 0dbe e409 6d3d
00000060: f4d2 7cbd 9ebd ac3e b602 64bd 3f43 c4bb
00000070: e95c a9be 35a0 d23d 32b1 533d 460a e4bd

ode_readout.bias f4 [2]
0.09693244 0.25729162
00000000: 8484 c63d babb 833e
