experiments/ERA5Forecasting/logs/node_model.pth (torch, 72235 bytes, 12 tensors)

ode_func.linear1.weight f4 [64, 64]
000000 ee 45 49 3e bd 38 30 3d 58 08 b9 3d a8 d0 8d 3d
       0.19655582 0.04302286 0.090347946 0.06924564
000010 30 06 65 3c 4d e8 23 3d b3 29 e4 bc 32 24 68 3c
       0.013978526 0.04001646 -0.027851915 0.014168786
000020 0e b2 ec bd 70 77 f6 3c cc 76 14 3d 64 ad 5d 3d
       -0.11557399 0.03008625 0.036246106 0.054120436
000030 a2 00 2b be d3 62 d5 bc 14 3c 54 bd ae ce 40 3d
       -0.1669946 -0.0260481 -0.051815107 0.047072105
000040 c6 eb 73 3e 20 8f 7f bd c3 c7 be 3d d0 5f 3b 3e
       0.23820409 -0.062392354 0.09315445 0.18298268
000050 c2 96 1b 3e e9 88 9a 3d 49 6e d3 bd 45 9c 40 bd
       0.15194228 0.07545645 -0.103237696 -0.04702403
000060 7e f2 28 3e 5b dc bd bd 20 c6 85 3e f5 89 af 3d
       0.16498753 -0.09270545 0.2612772 0.08571235
000070 12 f4 f9 bc f2 b6 9c bd c9 e3 c9 3d 14 2f 8e 3d
       -0.03051189 -0.076520815 0.098579 0.06942573
000080 8d 57 34 3d fb 23 71 3d ee 2a 8b bd 5a c8 cc 3d
       0.044028807 0.058872204 -0.067952976 0.099991515
000090 04 1d 95 be 70 79 9c 3e d0 38 c3 3d 73 3a 81 bd
       -0.291237 0.305614 0.095323205 -0.063099764
0000a0 4b 83 63 3e c9 03 35 bd 23 4a 22 3d 5d a6 24 3e
       0.22218053 -0.044193063 0.039621484 0.16079088
0000b0 c5 ae 3e bc 46 60 10 bd 86 d8 af 3d fa 04 10 3e
       -0.011638348 -0.035248064 0.085862204 0.14064398
0000c0 71 3e c7 3c 6e bd 2e 3e 4d cc 0f be 1b b7 5c 3c
       0.024321767 0.17064449 -0.14042778 0.01347139
0000d0 af f6 35 be b1 21 fc 3b e0 7f 10 bc e4 eb 28 3d
       -0.17769884 0.007694446 -0.00881955 0.041240588
0000e0 96 df 5e 3c 31 f0 5a 3d ec 21 86 be f1 ef 26 bd
       0.013603112 0.05345172 -0.26197755 -0.04075617
0000f0 13 17 a8 bd 8c f9 0f 3a ea 5a 89 3e c7 5f 0d ba
       -0.08207526 0.00054922025 0.26827174 -0.0005392995
000100 e5 40 a7 3b a1 60 a6 bc af 61 b3 3d db f2 bb 3c
       0.0051041716 -0.020309748 0.08758866 0.022942951
000110 73 d8 b1 3c bf 9e 4f 3d 8e 38 81 3c 6d 6f 21 be
       0.021709656 0.0506885 0.015774038 -0.15765162
000120 8a a5 b2 3d 6f c8 fd bc 28 c0 53 3d d2 43 21 3d
       0.0872298 -0.030979363 0.051696926 0.03937132
000130 e3 d5 0d be 86 3a 2a 3e 46 a3 15 3e cb 99 c1 3c
       -0.13851123 0.16623887 0.14613065 0.023632905
000140 ba 78 b0 bd 9a b2 13 be ba ff 73 3c 0b 25 4b 3c
       -0.08616777 -0.144236 0.014892513 0.012398968
000150 3f b8 80 3d db c8 2b 3e 2c d6 20 bc 1a fc 60 bd
       0.06285142 0.16775839 -0.009816688 -0.054927923
000160 fb 96 85 3e f0 e4 34 bd 0b 37 09 bd 23 53 23 3d
       0.2609175 -0.044163644 -0.03349976 0.039874207
000170 6a 07 d7 bd 3f 75 7a be bf 0f 26 3d 57 4f 1f 3d
       -0.10499461 -0.24458788 0.04054236 0.038894024
000180 1f af 3f 3c 22 c7 cf 3d 08 8c 81 bd 1b cd a8 3d
       0.011699467 0.101454034 -0.06325537 0.08242246
000190 ea da 41 3e ab aa 17 bd a4 58 b5 bc 07 d7 b7 ba
       0.18931165 -0.037027996 -0.022136994 -0.0014025875
0001a0 82 06 17 bd ea 50 f0 bd 3c 87 2c 3e 73 11 a1 3d
       -0.03687144 -0.11734183 0.16848463 0.07864656
0001b0 37 24 09 be 83 f6 05 be 18 23 02 3c 73 43 c1 3c
       -0.13392721 -0.13082318 0.007942937 0.023591733
0001c0 ad 2f de bd 96 09 8e 3d 05 77 7a 3d 8f b0 14 3e
       -0.10848937 0.06935422 0.061148662 0.14520477
0001d0 cb e2 0b 3e 7d 60 d2 3d 1b c3 82 3d 1a c9 ee bd
       0.13660733 0.1027231 0.0638487 -0.11659451
0001e0 99 66 9a bc d7 40 27 bc b8 b9 83 3e 76 e8 a4 bd
       -0.01884775 -0.01020833 0.2572763 -0.08052151
0001f0 42 69 ee bd 45 46 56 bb ad 9a b7 3d 35 fd 2b bc
       -0.1164117 -0.0032695692 0.08965049 -0.010497381
000200 66 a0 c9 bc 5e 4e 19 bd 90 3b c5 bc 4c d3 14 bd
       -0.024612617 -0.037428252 -0.024076253 -0.03633432
000210 a1 66 87 bd 39 71 18 be 80 4b e2 bd a6 af c3 bd
       -0.06611372 -0.14886941 -0.11049557 -0.09554987
000220 f7 0b 68 3d 5b 5b ff 3c 60 a6 06 3e 0c ab 1e be
       0.056652036 0.031171491 0.13149405 -0.15494937
000230 c5 ac bf bd fa b5 01 3e fb 0e a1 bc 55 20 ec bd
       -0.09359125 0.12667075 -0.019660464 -0.11529604
000240 5e 18 23 bd 80 6e e1 bd 5d 89 81 3d 47 83 56 3d
       -0.03981816 -0.11007404 0.06325028 0.05237129
000250 07 0a c4 3d 63 99 9c bd c5 c4 78 3e ef fb 64 bd
       0.09572225 -0.07646444 0.24293812 -0.055904325
000260 36 53 90 3d ca 47 b7 bd a8 63 5e 3d b2 12 93 3d
       0.07047121 -0.089492396 0.05429426 0.071813
000270 f8 69 5d 3c e8 ac 04 be 22 07 ca 3c e5 4f 00 bc
       0.013514034 -0.12956583 0.024661604 -0.007831548
000280 96 9f ec 3d b0 19 80 3c f1 13 d1 bc d3 a1 11 3d
       0.11553876 0.015637249 -0.025522204 0.03555472
000290 c3 37 1b 3e 80 e9 14 be 6d 0d 61 3d 20 1b f4 bc
       0.1515799 -0.14542198 0.054944444 -0.02979809
0002a0 09 27 3d 3d 53 df 2b bd 0a cf af bd 1e a6 ff bd
       0.046179805 -0.041961025 -0.085844114 -0.12482856
0002b0 00 b1 1c 3e 2b 87 c8 3d 70 62 a8 bc f3 1a c6 bd
       0.15301895 0.09791406 -0.020554751 -0.09673109
0002c0 38 5a d4 bd b5 a7 4e bd 45 71 3c be 01 39 8b 3d
       -0.1036877 -0.050452907 -0.18402584 0.06797982
0002d0 c7 6f df 3d 80 b9 55 3b 44 2a 3c 3d 3d ff f7 3b
       0.10909992 0.0032611787 0.045938745 0.0075682686
0002e0 04 73 fa 3b ae 55 82 3d f0 78 7e 3d 6f 3d e9 3c
       0.0076431055 0.06363998 0.062127054 0.028471677
0002f0 79 4a 86 3d c3 00 2c be 41 b2 de bd 16 55 d4 3d
       0.06557173 -0.16797166 -0.10873843 0.10367791
000300 9a c5 0c bd 40 e0 53 3e 0c 5f b1 bd 6a 13 1e bd
       -0.034368135 0.20691013 -0.08660707 -0.038592733
000310 23 a3 40 bd 0f 39 5e 3d ef 8b 09 be a6 4a 08 3e
       -0.04703058 0.054253634 -0.13432287 0.13309726
000320 ab 3a 30 bd f3 d2 3a be 5c 7e 43 bd ad ab 65 bd
       -0.0430247 -0.18244533 -0.047727928 -0.056071926
000330 9d 10 13 3c 88 27 81 bc cc 90 c2 bb 9b f4 a5 3d
       0.008976129 -0.01576592 -0.0059376713 0.081032954
000340 a3 ac 3e be e4 ff b9 bd 01 3b 29 be 7c fd 9a bd
       -0.18620543 -0.090820104 -0.16526414 -0.075678796
000350 2d 1e fd 3c f3 24 8b 3e 47 51 8c bc 40 fc 0d be
       0.030898178 0.27176628 -0.0171286 -0.13865757
000360 8f 37 bf bd bf 83 ef bc 6c e8 16 be 20 e9 e8 bd
       -0.09336769 -0.029237626 -0.147371 -0.1137259
000370 7d db 58 be a3 37 6c bd 1b b4 ef 3d 83 c4 e6 bc
       -0.21177478 -0.057670247 0.11704274 -0.028169876
000380 97 aa c3 bc 76 33 a9 3d 0c 2b b9 bd 65 71 10 be
       -0.023885055 0.082617685 -0.09041414 -0.14105757
000390 53 20 05 3d e8 c6 e0 bc 1f b0 f6 bc 6e fc 82 3d
       0.03250153 -0.027438596 -0.030113278 0.063958034
0003a0 6d 72 34 3e 6f 3c 25 3c 43 ac 09 bd ab 22 d5 3c
       0.17621775 0.010085209 -0.033611547 0.026017508
0003b0 43 d6 80 3b 87 d3 b1 3c 15 75 e7 3d 1d c1 6a 3c
       0.003931792 0.02170731 0.113016285 0.014328268
0003c0 23 07 b1 bd f1 8c 00 be 3b 7d 1a bd 6d 69 51 be
       -0.08643939 -0.12553765 -0.037717085 -0.20450373
0003d0 ca 92 ed 3b 5f a5 cf bd 6e 9b a1 3c 27 7f 0d be
       0.0072501646 -0.10138964 0.019727435 -0.13818036
0003e0 e5 be f0 bd 97 75 b2 bd 23 2e 03 3e 80 16 12 3d
       -0.1175516 -0.08713835 0.12810569 0.03566599
0003f0 03 46 9f 3d ba 2b c3 bd ba ae 67 bc f2 f2 9c bd
       0.077770256 -0.095298246 -0.014140779 -0.07663526

ode_func.linear1.bias f4 [64]
000000 d7 c3 4d ba 00 00 00 00 d1 3b 98 3a 00 00 00 00
       -0.0007849312 0.0 0.0011614506 0.0
000010 8c 23 68 bb 21 b4 fe bb 95 be bb 3b 5f fd 83 3c
       -0.0035421578 -0.007772938 0.0057295063 0.016112028
000020 e7 96 b9 3c a2 f0 a3 3b 59 c0 a3 bc de c3 06 bc
       0.022654964 0.005003051 -0.01998918 -0.008225409
000030 54 d4 64 bb b8 11 ee 3c fd dc 30 3c 59 53 68 3c
       -0.0034916596 0.029061183 0.010794875 0.014180028
000040 40 d1 25 3b 00 00 00 00 51 09 89 3a 0d bd 45 bb
       0.0025301725 0.0 0.0010455047 -0.0030172497
000050 dd 58 c3 bb b6 b4 f4 3b d7 7d b0 bb 2c 08 31 3c
       -0.005961521 0.0074678315 -0.005386095 0.010805171
000060 04 58 94 3a bf b4 32 3b 82 ad 94 3c 94 0b 50 39
       0.0011317735 0.0027268378 0.018149141 0.00019840739
000070 88 aa 4e bc c7 ac 3f 3b 19 75 d9 b8 c3 52 2a 3c
       -0.0126139 0.002924727 -0.000103691775 0.0103957085
000080 ff 5f ff bb 55 72 41 bc 7f 82 d6 bb c5 ce 83 bb
       -0.007793426 -0.011807044 -0.006546318 -0.0040224516
000090 f5 e5 25 bc 32 b5 81 bb cd 8f a6 3b 8a 36 b3 bc
       -0.010125627 -0.0039583677 0.0050830604 -0.021876592
0000a0 58 32 bf bc 24 7d 0e 3b b0 99 1f bc ad 8f d8 bc
       -0.023339435 0.002174207 -0.009741232 -0.026435697
0000b0 af 04 46 b7 8c 7e 95 bb dc bf e2 bb 9e f0 a8 bb
       -1.180281e-05 -0.0045622047 -0.006919844 -0.005155637
0000c0 20 b2 a5 bc 98 de 1f 39 cd 78 bb 3a 72 14 9a bb
       -0.020226538 0.00015246344 0.0014302969 -0.0047021443
0000d0 00 00 00 00 0b 9d 56 3c b0 a1 0c bc 5e 6a f4 ba
       0.0 0.013098965 -0.008583471 -0.0018647423
0000e0 9f 54 1d bc 50 8a 78 bb 7a 9e bb ba 8d 6e b4 bc
       -0.009602695 -0.0037924238 -0.0014314197 -0.022025371
0000f0 e3 9e 44 3b 46 e5 ca bb 92 e7 10 3c fb c0 50 bc
       0.003000193 -0.0061918823 0.008844273 -0.012741323

ode_func.linear2.weight f4 [64, 64]
000000 47 57 7c 3d 07 2d 9e bb 0f 69 58 3e b1 d2 28 be
       0.06160667 -0.004827145 0.21133827 -0.16486622
000010 8c 15 97 3d cf c0 09 bd cc 72 74 bd a7 3d 53 3d
       0.073771566 -0.033631142 -0.05967979 0.051572468
000020 e3 99 10 be 01 e5 5e 3d 7a e0 3b 3d 35 e0 50 3d
       -0.14121203 0.054417614 0.045868374 0.05099507
000030 19 81 54 3d aa 4d 74 3d dc 64 9b bd 5f cb f6 bc
       0.05188093 0.05964438 -0.07587597 -0.030126272
000040 8d ec cd 3d 08 7c 61 3e c5 41 01 bd 59 00 c6 bc
       0.10054884 0.2201997 -0.031556863 -0.024170088
000050 c4 cd bc 3d 3a 07 02 3e 14 fc 65 bd ef 7d f1 bd
       0.09218934 0.12698069 -0.056148604 -0.11791598
000060 03 be 97 3d fa fb 91 bd 0d 4f 9e 3d 43 2b 4b be
       0.07409289 -0.07128139 0.077299215 -0.19840722
000070 6c 24 ca bd ff f4 28 be 93 a9 b3 bc c2 da 33 3e
       -0.09870228 -0.16499709 -0.021931445 0.17563918
000080 e2 fd 82 bc 89 50 66 3e 3a 74 19 3e 97 5a 9d bd
       -0.015990201 0.22491659 0.14985743 -0.07683294
000090 c5 c6 8e bd 36 87 15 be 23 e5 f0 3d e7 5b a6 3d
       -0.06971506 -0.1460236 0.11762454 0.08122998
0000a0 00 3a 4e bd 35 36 ee bd ff 7d 0f 3e 53 6e 1e be
       -0.05034828 -0.11631433 0.14012907 -0.15471773
0000b0 e8 13 38 be 56 e5 a8 3d 36 b1 77 3d 06 ba 2c be
       -0.17976344 0.08246867 0.060471736 -0.16867837
0000c0 d4 ba ef bd af ef dc 3d 96 5e e9 bc 8b a9 db 3d
       -0.117055565 0.107879035 -0.028487485 0.10725697
0000d0 df 3d 5a bc 4a a7 11 bc d1 88 2b be c9 d1 cc bd
       -0.013320415 -0.0088899825 -0.1675141 -0.10000951
0000e0 14 f2 91 3c 5c 32 6d bd da 09 2d bd 92 e1 1a bd
       0.017815627 -0.057909355 -0.042245723 -0.037812777
0000f0 b8 f5 8c bd 03 01 8d 3d 0c c0 30 be f5 a9 29 be
       -0.06882805 0.068849586 -0.1726076 -0.1656874
000100 e6 84 76 bc 46 d0 1d be 71 39 4a be 3f ef 26 3e
       -0.015046334 -0.15411481 -0.19748475 0.16302203
000110 2a 50 7a bc fe 5c 8f b9 e3 31 72 3d 58 80 35 bd
       -0.015277902 -0.0002734437 0.059129607 -0.04431185
000120 3c 1a 28 3e cd b5 9e bd ea a3 7d bd 89 cc 29 bd
       0.16416258 -0.077495195 -0.0619239 -0.041454826
000130 6f 78 cc bd b1 68 db 3c 40 08 c9 bd 9d 0a f7 3c
       -0.099839084 0.02678332 -0.09816027 0.030156428
000140 be 16 3b 3d 4a a0 d1 bd 8d fe 97 bd ce 77 05 be
       0.045675986 -0.10235651 -0.074215986 -0.13033983
000150 62 50 bc 3c 7d cf f7 3c 2e 02 d7 3c 6b 13 2f be
       0.022987548 0.030250305 0.026246157 -0.17097251
000160 f9 23 8e 3c 47 bf a2 bd 3a 3c 00 3e f7 5c 7b 3c
       0.017351137 -0.079466395 0.12522975 0.015341989
000170 0e 80 bb bd 7f 38 dd bc 3e 1c 25 3c 3c 80 cb 3d
       -0.09155284 -0.027004478 0.010077534 0.09936568
000180 9d 02 75 3e 53 a7 5a 3e cd 3e 89 3d 8d fb 91 3d
       0.23926778 0.21352892 0.067014314 0.07128058
000190 db d4 df bc 6d 18 0f 3e f1 37 87 3d b5 ac 1c be
       -0.027323177 0.13974161 0.06602467 -0.15300258
0001a0 c9 a4 3b 3d 53 18 18 bd 8a 3b 02 bd 44 25 84 bc
       0.04581145 -0.037132572 -0.031795062 -0.01613105
0001b0 21 69 05 3e 7b 33 ee 3d 1c 5b 98 bc 27 7d c8 3c
       0.13028385 0.11630913 -0.018598132 0.02447374
0001c0 26 ad 81 3a a9 b8 d4 bd 7e 8a c3 bc 27 db c7 3d
       0.0009893521 -0.10386784 -0.02386975 0.09758597
0001d0 3f 84 5f bd 86 6c 4b bd 5b 6d af bb ca 9d 15 be
       -0.05456948 -0.049664043 -0.0053536124 -0.14610973
0001e0 0e 3c ab 3c c1 07 bf 3d 2d 71 6d 3e 61 f1 56 3a
       0.02090266 0.09327651 0.23187704 0.00081994204
0001f0 bf b3 4a bd 7f 10 ef bc a3 a4 c7 3c 4c 5d e2 bd
       -0.049487825 -0.02918267 0.024370497 -0.11052951
000200 6d a3 b0 bd 73 72 84 bc 48 df 0d bc 07 8e 02 3e
       -0.08624921 -0.016167855 -0.008659191 0.12749492
000210 6d b6 0e 3e 8f a5 e9 bb 56 ba ca 3d 76 a6 55 3d
       0.13936777 -0.007130332 0.09898822 0.052160703
000220 88 8c 21 be c4 6b 71 bd 2c ca d2 3c a1 b3 45 bc
       -0.15776265 -0.058940664 0.025731169 -0.012066753
000230 cd 70 0a 3c 35 17 01 be 79 3c ca 3d 83 b5 82 3c
       0.008449745 -0.12606509 0.098748155 0.015955692
000240 f0 2b 40 bc a0 3d 13 be f6 37 94 bd d3 6d 88 bc
       -0.0117292255 -0.14378977 -0.07237236 -0.01665393
000250 ce 51 3a 3d 5e 54 8a bc 25 7f b6 bd c3 b6 96 3e
       0.04548817 -0.016885933 -0.0891097 0.2943631
000260 e5 41 08 3d 12 10 39 3d 13 b7 0e 3e c5 d0 a0 bd
       0.033265967 0.04518134 0.13937025 -0.0785232
000270 56 e2 f2 bb 8f 07 69 3d d2 34 3f 3e 65 1b bc bd
       -0.0074122353 0.056891974 0.18672493 -0.091849126
000280 98 25 09 bd 03 46 03 3e 0c 9e 33 bd 77 50 a1 3c
       -0.033483118 0.12819676 -0.043851897 0.019691689
000290 35 e1 49 bb 17 71 a0 3d 03 c8 c9 3d a2 bb 0c bd
       -0.00308044 0.0783407 0.09852602 -0.034358628
0002a0 04 7d bb 3d df 05 05 bd 17 57 85 3e 16 c0 01 3e
       0.09154704 -0.032476302 0.26043007 0.12670931
0002b0 ca 37 02 3e 03 e4 06 3c 38 bf 74 bc 9b b2 03 be
       0.12716594 0.008233073 -0.014938168 -0.12861101
0002c0 f5 b4 33 3e 89 7a 22 be e6 e7 63 bd c3 74 0b 3d
       0.17549498 -0.15867056 -0.055641077 0.0340469
0002d0 b0 d9 fc bd 06 e2 17 3e ae 64 63 3b b7 ed 80 3d
       -0.12346208 0.14832315 0.003469746 0.062953405
0002e0 2c 04 3a 3d 01 08 4a 3d 2f c9 ea 3d 0e 03 35 3e
       0.045414135 0.04932404 0.11464154 0.17676947
0002f0 7d a4 0f 3c 35 13 47 be 47 07 86 bc 65 9e c6 bd
       0.008767244 -0.1944092 -0.016360892 -0.0969818
000300 d9 c7 79 3d 0b d5 37 3d 5a 4f 2e 3b b2 0e 6e bc
       0.060981605 0.044880908 0.002659759 -0.014529871
000310 98 cb 16 be 6e 4e 50 bd 21 7c 3b bc c7 0c 4c 3d
       -0.14726102 -0.050856046 -0.011443169 0.049816873
000320 0f 1a a6 3d 0d bf 9d bd 3f e2 0d be c3 96 3d be
       0.08110439 -0.07702456 -0.13855837 -0.18514542
000330 62 5a cc 3d dd ba c0 bd 0e 27 44 3d e1 f5 54 3e
       0.09978177 -0.09410641 0.047888808 0.2079692
000340 a9 85 52 bc 22 0a 30 bc d2 b1 ef bc b8 98 25 bd
       -0.01284925 -0.010744603 -0.029259596 -0.040428847
000350 47 84 99 3d bb 63 31 3d 40 93 03 3e 92 d1 03 bd
       0.07495933 0.043308 0.1284914 -0.032182284
000360 f9 82 1e bd 4d 88 2a 3e 21 2a b8 bd 33 cb 2e 3e
       -0.038699124 0.16653557 -0.089924105 0.17069702
000370 5a 12 2f 3d f2 da cc 3d 0f 7d 33 be 1e 28 74 3d
       0.04274211 0.10002698 -0.17528175 0.05960857
000380 db 62 db bd 21 71 38 3c 78 0c 78 3e 5b 79 27 be
       -0.107122146 0.011257441 0.24223506 -0.16354887
000390 b4 36 d9 3d 99 98 ea bb 58 67 a6 bc eb 8b 25 3e
       0.10606137 -0.0071593043 -0.02031295 0.16166656
0003a0 29 66 92 bd dd 56 b4 bd 51 b4 fd bc b3 6e 3a 3e
       -0.07148392 -0.0880563 -0.03096977 0.18206291
0003b0 c1 f9 09 be 68 c7 58 be 5e 5c 7e 3d 83 32 ac bc
       -0.1347418 -0.21169817 0.062099807 -0.02102018
0003c0 ea 09 1a be 3f 67 e1 3d bf 01 09 be 9e 7f 90 3d
       -0.15042844 0.11006021 -0.13379572 0.07055591
0003d0 b2 2a cf bd d7 91 78 3c 9a bf 1f bd 66 b3 a6 3c
       -0.10115565 0.01517149 -0.039001085 0.020349216
0003e0 16 b7 9c bd 7b f2 1d be 65 37 80 3d fa 6e f7 bc
       -0.07652108 -0.1542453 0.06260566 -0.030204285
0003f0 91 d4 72 3e 09 0d 41 3d b5 16 bc bd eb 16 bd bd
       0.237139 0.047131572 -0.091840185 -0.09232887

ode_func.linear2.bias f4 [64]
000000 cb 3e 2b bc 7f 2c 6d bb bc 2d 87 bb 6b 14 12 3c
       -0.010451983 -0.0036189852 -0.004125325 0.008916001
000010 00 00 00 00 8e be 76 bc 35 bd 5e bb 1e 5f 09 3d
       0.0 -0.01506008 -0.0033987288 0.033537976
000020 f1 ce 0f 3d 21 2a 4c bb 8c 08 cd bb 1a b8 96 bb
       0.035109464 -0.003115304 -0.0062571224 -0.0045995833
000030 49 58 6c bc 1c 36 98 3b ea ba 0e bc 30 2c 1f bc
       -0.014425346 0.004645122 -0.008711556 -0.009715125
000040 48 8c ba 3c 00 00 00 00 92 a4 fd 3b 59 d7 61 bb
       0.02277197 0.0 0.0077405656 -0.0034460633
000050 d3 59 80 bb bd c3 b5 bc 3e 82 17 bc 50 19 2f bc
       -0.003916958 -0.022188062 -0.009247361 -0.010687187
000060 95 cd 6f bc cb 20 4b bb fe 32 f0 3a 0b 09 d0 3b
       -0.014636417 -0.0030994888 0.0018325744 0.0063487343
000070 00 00 00 00 1b 5b ee 3b 43 fe 48 bc 02 a5 53 3c
       0.0 0.007274044 -0.012267652 0.012917759
000080 03 83 8b bb c4 b4 f8 3c 23 4f 83 bb 39 9c c3 ba
       -0.004257561 0.030359633 -0.0040072366 -0.0014923877
000090 9b b3 4a 3c 3b 3b bd bb db 2c cf 3b 87 a4 ba bb
       0.012371923 -0.005774883 0.006322486 -0.0056958827
0000a0 ca ce 0e bb 78 f6 0e bc b7 f5 c3 bb 42 71 bd bb
       -0.0021790736 -0.008725755 -0.005980219 -0.0057813236
0000b0 1e 01 67 3c 2f 4a 9e 3c 6d f9 bd 3b 38 c4 08 3b
       0.014099387 0.019322483 0.005797556 0.0020868909
0000c0 08 94 78 ba 61 c7 b0 b9 b9 80 02 bc 34 92 b1 3c
       -0.00094825076 -0.00033717885 -0.00796526 0.02167616
0000d0 bf 18 9c ba e3 c2 a7 bc 22 9d 12 3b e0 c0 94 bb
       -0.001190923 -0.020478671 0.002237149 -0.004539594
0000e0 e2 94 ba bb e2 e0 8f bb 00 00 00 00 09 a4 07 3b
       -0.0056940177 -0.004390822 0.0 0.0020697138
0000f0 c2 37 b2 3b 39 ee e9 bc 35 1f c8 3b 7f b4 1b 3c
       0.0054387758 -0.028555976 0.006107236 0.009503483

ode_func.linear3.weight f4 [64, 64]
000000 11 18 e8 3c 8c b9 69 bc 99 90 b2 3d b0 53 49 bd
       0.028331788 -0.014265429 0.08718986 -0.049152076
000010 7f 8e 9e bd 02 79 80 bc 7b 65 c6 3d df 77 9c 3d
       -0.07742023 -0.015682701 0.096873246 0.07640051
000020 0f e8 48 3d 6a aa 9a 3d dc 52 bd bc 80 6f 5a 3e
       0.049049433 0.07552035 -0.0231108 0.21331596
000030 c5 83 c5 3b ba cf f9 bd ac ef 1b 3d 23 df 17 be
       0.006027671 -0.12197824 0.038070366 -0.14831214
000040 eb 7c 19 3e 30 32 3c 3e d6 24 1e 3e cc e7 0b 3e
       0.14989059 0.1837852 0.1544374 0.13662642
000050 72 05 8a bd ab 55 b9 bb 6f 44 ca 3b 69 89 f3 bd
       -0.0673932 -0.0056559644 0.0061727087 -0.11891443
000060 85 32 02 3e 24 a9 ef bd 27 b6 0e 3d ae 40 d6 3d
       0.12714584 -0.11702183 0.034841683 0.104615554
000070 f4 44 c8 3d 82 a1 dd bd 0a 73 95 3d f8 24 d4 3b
       0.09778777 -0.10821821 0.072973326 0.0064741336
000080 2c b5 51 3c 7d 94 9c 3e 5f 1a 2f 3e 35 53 8a 3c
       0.012799542 0.30582038 0.17099904 0.01688538
000090 d4 99 da 3d 6c 0a 06 be 2f ed 3e 3d 8e d4 76 bb
       0.10673872 -0.13089913 0.046612915 -0.0037663314
0000a0 60 80 d4 3d ee c5 17 3e a7 0b f3 3b 39 ae bf 3b
       0.10376048 0.14821598 0.0074171606 0.0058496264
0000b0 e3 e1 1c 3d fb 74 92 3d e3 a1 17 be 6e 63 d6 bc
       0.03830136 0.071512185 -0.14807849 -0.026170459
0000c0 fd bc 33 3e d9 d6 e6 3c 88 ae cc 3d 8c 1a e9 3d
       0.17552562 0.02817862 0.09994227 0.113820165
0000d0 fd 35 2e bd c5 fd 5e 3b a6 93 ef 3c d3 1b 05 be
       -0.042531956 0.003402577 0.029245209 -0.12998895
0000e0 b4 82 9a bd 77 60 22 bc 82 d5 b6 bd 52 09 a7 3d
       -0.07544461 -0.009910694 -0.08927442 0.081560746
0000f0 22 85 a5 3c 67 4f 82 bc d2 0b a0 bd 0d 02 03 3d
       0.020205084 -0.015907003 -0.078147545 0.031984378
000100 a9 40 25 be f3 07 c2 bc 34 2c 65 3d e3 ec 2e bd
       -0.16137947 -0.023685431 0.05595036 -0.04270638
000110 07 fa 8f 3d ac 82 9c 3d 6a 63 41 bd 65 d4 2a 3d
       0.07030111 0.07642111 -0.04721395 0.04170646
000120 7a 90 9b 3d d2 15 16 bd 4d e0 f0 bc fe 24 ab 3d
       0.07595916 -0.036641903 -0.02940383 0.08356665
000130 3a 91 fe 3d 93 88 93 3d f8 3e 02 3d a3 a1 65 3d
       0.124300435 0.07203784 0.031798333 0.056062352
000140 b0 a0 3c be 3f e6 3c 3e 69 43 d6 3d 81 41 9a bd
       -0.18420672 0.18447207 0.10462076 -0.07532025
000150 1e 46 7c 3e 8c bf 1d bd a0 44 d4 3d 6f ec 90 bc
       0.24636123 -0.03851275 0.10364652 -0.017690865
000160 99 55 d8 bc 62 c6 92 bd e9 fe 3d be ef 1d 09 3b
       -0.026408004 -0.07166745 -0.18554272 0.0020922383
000170 18 28 6f bd 69 0a f8 bd 59 c5 2e be 26 b3 70 be
       -0.058387846 -0.121113606 -0.1706747 -0.2350584
000180 51 53 c0 bd 1f 43 d9 3d 93 9d 39 3c a9 6a df 3c
       -0.09390891 0.106085055 0.0113290725 0.02727254
000190 1c 24 aa bd 35 90 de bc 87 87 00 be 60 20 20 bd
       -0.083076686 -0.027168373 -0.125517 -0.039093375
0001a0 71 6b 3f 3d 66 fc d5 bc d0 ad c2 bd 68 af d3 3d
       0.046733323 -0.02612133 -0.09505808 0.103361905
0001b0 37 8f 6e be db 35 44 3c 87 f8 1e bc 9b 39 8e 3d
       -0.2329682 0.011975731 -0.009702808 0.06944581
0001c0 a1 b8 17 3e 0e 71 91 bd 5b 32 2b 3e 59 5e 0c be
       0.14816524 -0.071016416 0.16718428 -0.13707866
0001d0 02 23 c3 3c 04 c0 26 bc 93 97 4b bc 0a 41 63 bc
       0.023820404 -0.010177616 -0.012426275 -0.013870487
0001e0 b3 70 87 bc ad e3 4e be 92 de 55 bc 0d b5 87 be
       -0.016533231 -0.20204039 -0.013053553 -0.26505318
0001f0 c6 2c 91 bb 47 69 6a 3c 91 21 40 3e fa e3 12 be
       -0.0044303862 0.014307327 0.18762805 -0.14344779
000200 ff 7d 98 bd 9a 41 40 3d 19 99 40 bd 13 66 dc 3d
       -0.07445907 0.046937563 -0.047021005 0.107616566
000210 7c e3 3f 3e ba 36 69 3e d1 ea fd 3d 94 ff a1 bd
       0.18739122 0.22774783 0.12398303 -0.07910076
000220 87 4d 13 be 7c 46 a6 3d 0d 39 35 bd e3 ed 34 3d
       -0.14385043 0.081189126 -0.04424386 0.04417218
000230 30 35 4c 39 a3 35 df 3c 57 ec 4f 3e bb 17 0d 3e
       0.0001947477 0.027247256 0.20305 0.13778584
000240 ee bf a7 bd 4e 02 43 3e 0a 7d 55 bd e3 8f 10 3e
       -0.081909046 0.19043848 -0.0521212 0.14117388
000250 c8 56 8e bd 82 e5 ee 3c ec 94 03 3d 88 23 88 3d
       -0.06950146 0.029162172 0.032124445 0.06647402
000260 ba b4 67 ba 60 6c 96 bc 75 e6 14 3d 0b d6 82 bd
       -0.0008838881 -0.018362224 0.036352593 -0.06388482
000270 ba 1b a2 3d a0 8e d2 bc 0b f6 66 3d ee 22 16 bd
       0.07915445 -0.025702775 0.05638699 -0.036654405
000280 6e 75 42 3d ba 1a 65 bd 2e 74 b1 bd 61 d8 ed bd
       0.04747527 -0.05593369 -0.08664738 -0.116135366
000290 f7 e3 aa bd ca c2 e0 3d d5 10 05 bc 78 97 6c be
       -0.08344262 0.10974653 -0.008121689 -0.23104656
0002a0 60 84 37 3d de 0b 95 bb b9 3c 5a 3d 3f 67 64 be
       0.044803977 -0.004548534 0.053280566 -0.2230501
0002b0 d7 5f 20 bd 89 10 2f bd 37 8e b6 bd 1d fb f8 3c
       -0.0391539 -0.04274038 -0.08913844 0.030393178
0002c0 bb 1f 09 be 4d e3 4a 3c eb 3e 8b 3d 44 d8 16 be
       -0.1339101 0.012383294 0.0679911 -0.14730936
0002d0 88 06 b2 3d b3 b3 f0 3c 44 98 ad bd 33 d2 38 3d
       0.08692652 0.029382562 -0.08476308 0.045122337
0002e0 0a f7 49 be b3 e5 84 3d 93 85 d0 3d 91 d7 81 3b
       -0.19723144 0.06489124 0.10181727 0.003962465
0002f0 2c 88 90 bd c3 e1 52 be 90 5f a4 bd 11 ab 81 bc
       -0.07057223 -0.20593934 -0.080260396 -0.015828641
000300 6c bf 0f be 1d 89 55 3d 72 5c 2c 3d 47 cc a2 bd
       -0.14037865 0.052132715 0.04208035 -0.07949119
000310 77 db 8b 3c 92 21 ac 3d 5b a2 c4 bd 66 3c 95 3d
       0.017072422 0.084048405 -0.09601279 0.07286911
000320 22 59 28 3e 14 5c b7 bd 6a 84 16 3d 7b f3 45 bd
       0.16440251 -0.089531094 0.036747374 -0.048327904
000330 63 b6 95 bd 87 10 4d bd e4 a2 3e 3b 72 f1 6c 3d
       -0.07310178 -0.05006459 0.002908879 0.057847448
000340 c5 44 da bc cf 83 31 3e c6 3f 11 be 57 96 2e be
       -0.02664412 0.17335437 -0.14184484 -0.17049538
000350 4e a7 d5 bd 8b 39 e3 3c 3f aa aa 3d f7 b5 a7 3b
       -0.104323015 0.0277374 0.08333253 0.0051181274
000360 1e 1c 80 bd 5b 62 7f bb de 65 94 3a 60 c4 a3 bd
       -0.06255363 -0.0038968537 0.0011321863 -0.0799644
000370 7b 45 ef 3c 07 b0 31 bd 42 0d 79 bd 6e 4f cc 3d
       0.029207936 -0.043380763 -0.06080366 0.099760875
000380 ab 73 0c bc f8 54 7f 3d e2 ea 64 bd 44 07 a5 bd
       -0.008572499 0.062336892 -0.055888064 -0.080580264
000390 23 2a b8 bd ed 1c bd bd 8d 30 82 bd 83 2c 34 bd
       -0.08992412 -0.09234033 -0.063569166 -0.043987762
0003a0 6d f9 f3 39 8e 02 04 3d dd bb 18 bc 0e 0b 2a bd
       0.00046534408 0.032229 -0.009322134 -0.04151445
0003b0 d5 8e d9 bd 8e 5f 3c bd 15 c7 e2 3d 5c 86 c4 3d
       -0.10622946 -0.045989566 0.11073128 0.095959395
0003c0 11 37 cc bd 71 f8 a3 bd d4 59 11 3e 0f 20 fd bd
       -0.099714406 -0.08006371 0.14194423 -0.1235963
0003d0 2d f7 10 3e d7 37 ff bc 1f a6 e8 bd 86 f8 07 be
       0.1415679 -0.031154556 -0.1135981 -0.13278398
0003e0 8d 8c e6 bd 7f 0b 9d bd b8 80 c5 bd cb fc 8e bc
       -0.11257277 -0.07668208 -0.09643692 -0.017454525
0003f0 5a 10 3b be b3 2c bb 3d 9d f9 f8 bd e7 ec e7 3c
       -0.18267956 0.09139385 -0.12156985 0.028311206

ode_func.linear3.bias f4 [64]
000000 da f8 0d 3c 51 fa 37 bc a3 a8 4f bc 3f 8f 94 bc
       0.008665288 -0.011229114 -0.0126744835 -0.018134711
000010 80 54 5c 3c d0 7e ce bc 10 af 3b 3c 00 00 00 00
       0.013447881 -0.025206953 0.011455312 0.0
000020 07 c3 80 bc cf 42 8c bc 00 00 00 00 66 d4 d0 ba
       -0.015717996 -0.0171217 0.0 -0.001593244
000030 2b 65 14 bc 3d 5d a1 3b bd c9 1b bd db 19 f7 3b
       -0.009057323 0.004924445 -0.03803419 0.007540924
000040 02 74 c1 bb bf ec 9e 3a 45 4e 4e bc 50 33 11 bc
       -0.005903722 0.0012124999 -0.012591903 -0.0088623315
000050 86 00 33 bc 90 ef 66 3b 72 d7 04 3a 9a 08 2d ba
       -0.010925418 0.0035238005 0.0005067504 -0.0006600708
000060 16 7a 04 3a 45 2f f7 bb 34 6b b1 3c e4 72 64 3c
       0.00050535926 -0.0075434768 0.021657564 0.013943408
000070 11 af 9f 3a 3b e1 f4 b9 50 a7 15 bc 14 cc 04 bc
       0.0012182911 -0.00046707116 -0.009134129 -0.008105297
000080 08 37 d1 bc a0 e6 07 bc b1 df c2 bb cf ba 2b bc
       -0.025538936 -0.008294731 -0.0059470762 -0.01048155
000090 a9 ed b2 3b 2f 0a 53 3b cf 26 f8 bc 75 fd 9f ba
       0.00546046 0.0032202115 -0.030291943 -0.0012206273
0000a0 8f 2c fd 3b aa 98 0e 3b 33 92 ce b9 37 39 f1 3a
       0.007726259 0.0021758475 -0.0003940031 0.0018403892
0000b0 17 f5 26 bc f4 d6 55 bc a0 40 ec bb a8 26 4f 39
       -0.01019027 -0.013051737 -0.0072098523 0.00019755459
0000c0 c4 2c 57 3c 05 3a 2a bb 43 df 31 bb 0f 62 4f bc
       0.013133232 -0.0025974524 -0.002714113 -0.012657656
0000d0 1f 2b dc 39 0d 67 7c bb 00 00 00 00 a5 11 c0 3b
       0.00041993798 -0.0038513571 0.0 0.0058614784
0000e0 64 ce 05 bc b1 15 ed bc 90 e6 7d 3b 28 2a 10 bc
       -0.008166883 -0.028941007 0.0038742162 -0.008799113
0000f0 43 e5 b3 3c f5 a8 83 bc 8a 31 13 bc e0 aa 28 bc
       0.021959906 -0.016071776 -0.008983979 -0.010294646

ode_func.linear4.weight f4 [64, 64]
000000 03 1a 81 3d 34 27 9e bc 1a 54 29 3c a5 80 07 bc
       0.063037895 -0.019305803 0.010334993 -0.008270417
000010 ec 86 8f bd f3 82 56 be 27 8b 18 3e ba 64 d8 bc
       -0.07008156 -0.2094839 0.14896832 -0.026415218
000020 f9 f1 65 be c3 ed a7 bc 7c 59 26 bd f5 de 87 bc
       -0.22455586 -0.020499116 -0.040612683 -0.016585806
000030 2e 00 08 3d bc 7d 5d be a9 d4 5b 3e 74 bc 1a 3c
       0.033203296 -0.21629995 0.21467842 0.009444345
000040 25 1a 9b bd 84 b5 51 3d aa ee 8b 3e 68 ca b2 3d
       -0.07573346 0.051198497 0.27330524 0.08730012
000050 84 a4 aa bd 3b 0a 21 bb c1 9d 99 bd 22 44 0c be
       -0.0833216 -0.0024572748 -0.07500792 -0.13697866
000060 e3 c2 6a 3d f0 30 91 3e 21 40 c7 3d 4f 2a 93 3e
       0.057314765 0.2835765 0.097290285 0.28743216
000070 f1 77 1b 3d aa 66 1a 3e dd cb 12 3d 30 c2 17 bd
       0.037956182 0.15078226 0.03583895 -0.037050426
000080 2c 2e 27 be ad 12 19 be a1 1e a2 3d 74 ea 7d 3c
       -0.16326207 -0.1494853 0.07915998 0.0154977925
000090 2d 04 f7 bc e8 94 be 3b 2b e7 45 3e 32 aa 58 bd
       -0.030153358 0.005816091 0.19326465 -0.052896686
0000a0 35 d6 26 bd dc c2 6e bd 59 e2 b0 3c 87 97 4b 3d
       -0.040731627 -0.0582913 0.021592306 0.049705055
0000b0 10 ef 8e 3b 0a c4 10 bd b4 d2 06 3d ef 0f bb 3c
       0.0043619946 -0.035343207 0.032915786 0.022834746
0000c0 66 71 59 3d d7 b4 09 3d 21 6f 34 3d 22 37 e1 3c
       0.05308666 0.033619728 0.044051293 0.02749211
0000d0 d6 c7 59 bd 76 2e bf 3c 2d d6 94 bd 5f 6a e5 3c
       -0.053169094 0.023337584 -0.07267413 0.028004823
0000e0 7a 61 53 bd 32 01 c1 3d 9a 33 53 bd 85 cd a5 3c
       -0.051606633 0.09424056 -0.051562883 0.0202396
0000f0 a7 f8 ce 3d e8 44 34 be f3 f5 b2 bd 03 4f be bc
       0.101060204 -0.1760441 -0.08738317 -0.023231035
000100 b3 4c e2 3b bb 53 d8 3c 23 81 c3 3d a1 bc 4e bb
       0.006906116 0.026407113 0.09546115 -0.0031545537
000110 21 46 32 3c 41 53 d4 39 3c 0e ce bc 9b 01 21 be
       0.010880978 0.0004049782 -0.025153272 -0.15723269
000120 1a 06 83 3d 3c 33 a1 bc 5f c3 87 bd 88 65 1f 3e
       0.06397648 -0.01967775 -0.06629061 0.15566075
000130 77 f0 a1 bd c0 1b 5b bc ea 01 ac 3d b9 d2 a4 3c
       -0.07907193 -0.013373315 0.083988026 0.020120012
000140 16 90 92 3d a2 d1 a8 bd ab 1b 0a 3e 69 4e 05 3e
       0.071563885 -0.08243109 0.13487117 0.13018192
000150 3d 82 2d 3e be 44 42 bd 18 61 8a bc 74 67 66 3d
       0.16944213 -0.04742884 -0.016892001 0.056251004
000160 5a 75 6d 3e 34 9d 12 3b 9b e7 28 3d ed 64 21 3c
       0.23189297 0.0022371532 0.0412365 0.009850723
000170 87 a9 84 bd 58 d5 18 be 38 70 94 bd 0c 1e 8c 3d
       -0.06477647 -0.14925134 -0.072479665 0.068416685
000180 12 96 15 3d 08 8e e3 bc e5 78 33 3d c4 b9 e0 3d
       0.03652007 -0.027777687 0.043816466 0.10972932
000190 17 21 0a be e3 b8 b2 3d a7 b1 1e be 3e 0f be bd
       -0.13489185 0.087266706 -0.15497456 -0.09280251
0001a0 94 c7 97 bc e1 3c 54 3d 80 3e 1d bd b4 fb 48 3e
       -0.018527783 0.05181587 -0.038389683 0.19627267
0001b0 76 99 35 3d 5e 92 c5 3d ed 58 a2 3c d5 4c a7 bd
       0.044335805 0.09647058 0.019817794 -0.081689514
0001c0 29 9f d2 bd 91 15 ee bc ab 6e 29 3d 97 6d ec ba
       -0.10284264 -0.029063018 0.041365307 -0.0018038031
0001d0 d0 9c a3 bd 22 53 95 be 65 35 03 3e 18 33 88 3c
       -0.07988894 -0.29164988 0.12813337 0.016625926
0001e0 fe 57 b2 3d b8 96 55 be 85 1f 46 3d 35 90 b8 bc
       0.087081894 -0.20858276 0.048369903 -0.0225297
0001f0 f7 e3 b4 bd a5 5b 74 3b ef 47 09 3e bb 14 da bb
       -0.08832543 0.003728607 0.13406347 -0.0066553033
000200 b5 a9 ab bd b9 dc 41 3e 21 aa 01 3d 3e e6 90 bd
       -0.083819784 0.18931855 0.03165639 -0.07075165
000210 82 f6 5e 3e f7 58 a4 bd 2e 95 0f be 99 86 28 be
       0.21773723 -0.08024781 -0.14021751 -0.16457595
000220 f8 00 ec 3d ae ef ce 3c 2a fb 4e bc c4 8a 22 3e
       0.11523622 0.025260773 -0.012633124 0.15873247
000230 e6 88 a4 bd d2 b1 95 3d 1c 00 ce bc b7 80 f5 bc
       -0.08033924 0.07309307 -0.025146537 -0.029968603
000240 68 12 f3 bc 65 16 27 3e 75 1a 45 bd 5d 1b 39 3d
       -0.029671863 0.16317137 -0.048120935 0.04519211
000250 45 88 bd 3d 9e b2 59 bd e2 04 a0 bd 79 9c df 3d
       0.09254507 -0.05314886 -0.07813431 0.10918517
000260 47 cb 8d 3d 3f 30 1d bd 1a 84 c7 bd 4f 5f 34 3e
       0.06923538 -0.03837609 -0.09741993 0.17614482
000270 a4 45 c1 bd 08 b2 98 39 7e 97 39 3d 84 ea bc bc
       -0.09437111 0.00029124343 0.04531049 -0.023061045
000280 48 c3 a9 bd b1 a3 5b bc cd 4c 31 be 21 37 d0 3d
       -0.082892 -0.013405726 -0.17314453 0.10166765
000290 03 be b1 bd 17 f6 ba 3d c5 03 9f 3d 5a 71 87 3d
       -0.0867882 0.09128969 0.07764391 0.06613417
0002a0 5f 44 cc bc de e8 e6 3d a3 ad 29 bd 10 32 3e 3e
       -0.024934946 0.11274885 -0.04142536 0.18573785
0002b0 ba 06 e7 3c 7d c2 b6 3d 7d 5a 48 3d 8b 7b 37 3e
       0.02820145 0.089238144 0.04891442 0.17918222
0002c0 77 90 07 3e 46 d3 0b 3e 20 a0 e9 3c 30 60 0e 3c
       0.13238703 0.13654813 0.028518736 0.008689925
0002d0 04 43 84 bd 94 b1 f6 bd 08 a5 69 3c 09 78 90 3d
       -0.06458095 -0.12045589 0.014260538 0.07054145
0002e0 95 3d fd bd 4d 7c 09 be c4 1d 04 be ba ee a7 bd
       -0.123652615 -0.13426323 -0.1290198 -0.0819983
0002f0 aa 92 16 3d 53 c7 5a 3e 9c f3 4a 3e 4f bf 9c bd
       0.036760963 0.21365099 0.19819492 -0.07653677
000300 69 a6 00 3e 4f 34 ae bd f6 ea 05 bd 15 63 b0 bc
       0.1256348 -0.08506071 -0.03269478 -0.021531621
000310 cd b7 bf 3d e1 da 89 bd 79 b6 10 3d 32 55 aa 3d
       0.09361229 -0.06731201 0.03533027 0.08317031
000320 99 c4 03 3d 24 e1 33 3d e8 f0 5f bc 57 54 88 3d
       0.032169912 0.043915883 -0.013668276 0.066567115
000330 b7 90 b0 3d c6 7e 07 3e cf f5 b3 3d bc eb 80 3d
       0.08621352 0.13231954 0.08787119 0.06294963
000340 8d 0d 39 3d 67 38 fc bc 08 e2 31 be 03 79 8e 3d
       0.04517894 -0.030788613 -0.1737138 0.06956675
000350 e4 34 ea bd 74 be a8 3c 1b 7b f9 3d bf 86 09 3e
       -0.11435869 0.020598628 0.12181684 0.13430308
000360 8e 1f a7 bc 14 8a 23 bd 28 f4 f4 bc b6 1f b8 bd
       -0.020400789 -0.039926603 -0.029901579 -0.089904234
000370 e8 8a 64 3d 41 ed 5e bd 5b de 96 3d d8 52 e0 bd
       0.055796534 -0.05442548 0.0736663 -0.10953301
000380 24 1c 2a 3e 38 19 c3 bc 68 f1 63 3d c9 00 10 3d
       0.16612297 -0.023815736 0.055650145 0.035157
000390 82 c1 26 be af 3a 16 3e c4 6c bf 3d de a3 c5 bb
       -0.16284755 0.14670824 0.09346917 -0.0060314974
0003a0 b7 94 c3 bc 35 f6 28 bb 68 1a b2 3d c0 dc 07 3e
       -0.023874624 -0.0025781516 0.08696443 0.13267803
0003b0 ff bd f1 3d ee 34 3a 3e d1 cc 82 3d df 4c 8e bd
       0.11803817 0.18184254 0.06386722 -0.06948256
0003c0 b5 ca 10 be 19 4d 8b bd ef 2a 14 bd 68 fe 0b 3d
       -0.14139827 -0.068018146 -0.036173757 0.034178168
0003d0 0a 02 3a be 4a 7c 1e bd fd 91 ca bd 0b 7d a7 bc
       -0.1816484 -0.03869275 -0.09891126 -0.020445367
0003e0 35 53 05 bd 7e 6b 6e be fa d5 35 3d fd 15 45 bd
       -0.032550056 -0.23283193 0.044393517 -0.048116673
0003f0 d2 12 f4 3d 59 bc f7 3d bd 20 43 3d 51 90 87 bd
       0.11917652 0.12096471 0.047638644 -0.06619323

ode_func.linear4.bias f4 [64]
000000 7c d4 86 3b d6 52 46 3c ae 5f 37 bc f2 c3 82 3b
       0.0041146856 0.012104711 -0.011192245 0.0039906437
000010 47 75 47 3c d6 57 e5 bb 49 71 7f 3a 43 88 b1 3b
       0.012173957 -0.0069989963 0.0009744359 0.005417855
000020 14 df 65 3b 5d 3d 49 bc 72 74 ab bc 6b 3a 2d 3b
       0.0035075592 -0.012282697 -0.020929549 0.0026432525
000030 66 6c a8 39 58 c7 21 3b 50 73 a1 bb 62 b5 40 3b
       0.0003212422 0.0024685469 -0.0049270764 0.0029404988
000040 81 28 3b bc 2c 96 e9 bb 74 4f 8c bb c6 2f f0 bb
       -0.011423231 -0.0071284976 -0.0042819325 -0.007329914
000050 69 92 5f bb 4f 6d 23 bc 63 b4 5a ba b0 29 5e bb
       -0.0034114367 -0.009974792 -0.000834292 -0.003389936
000060 55 c1 45 3c fc 14 c6 ba 8a 71 6f 3b 9f 3d 6e 3b
       0.01207002 -0.0015112455 0.003653618 0.0036352647
000070 73 7a a6 3a 6a f3 29 bc 85 aa ab 3b e4 ba 24 3c
       0.0012701288 -0.010372976 0.0052388334 0.010054324
000080 eb ce 1e bb 03 3f 7b bc 3e 35 11 bc ee 6e e3 bb
       -0.002423222 -0.015334847 -0.008862792 -0.006940714
000090 89 39 20 bc 87 3e da bb 68 73 13 ba 39 b6 38 3b
       -0.009779342 -0.006660286 -0.0005624802 0.0028184785
0000a0 f4 30 fc 39 82 80 49 3c 77 02 83 3c c4 6f 03 3b
       0.00048101658 0.012298705 0.015992386 0.0020055631
0000b0 c3 cb 88 38 0c 13 84 bb 92 97 62 bb da d7 9a 39
       6.522939e-05 -0.004030591 -0.0034575206 0.0002953399
0000c0 0f 3d c1 bb f5 f5 00 3c d9 44 d7 3b de e5 40 bc
       -0.0058971713 0.007871141 0.0065694866 -0.011773555
0000d0 24 dd ca 3b 89 72 8c 3b d3 a9 fd bb 79 35 32 bc
       0.006190913 0.0042861146 -0.007741192 -0.010877007
0000e0 45 66 fc bb be 66 54 bc 0a a2 01 3c ae 08 03 bc
       -0.007702621 -0.012963949 0.007912168 -0.007997675
0000f0 3c 83 37 3c 62 67 76 b7 85 d9 8c 3a 04 0f cd bb
       0.011200722 -1.4686813e-05 0.0010745978 -0.0062578935

ode_initial.weight f4 [64, 3]
000000 3c a5 07 bf c9 99 0b bf 0b ca ac 3e 82 69 91 3e
       -0.529865 -0.5453153 0.33747897 0.2840081
000010 68 b5 1e bd 42 6f fe 3d 45 25 f1 be 3f e1 a8 3d
       -0.03874722 0.124235645 -0.47098747 0.08246087
000020 ce e2 6e be 30 66 8b 3d db 6e e2 be 4e ff fc 3d
       -0.23328707 0.068066 -0.442252 0.12353383
000030 ff ee a3 3e 6e 19 7e 3d 35 89 30 3d cc cb a4 3e
       0.32018277 0.06203597 0.0430996 0.32186735
000040 64 63 11 3f 80 bb 0e bf e0 45 3a bd 9c 87 6a be
       0.56792283 -0.5575485 -0.045476794 -0.22903293
000050 99 30 e2 3e e2 4f 0d 3f 17 66 ed 3d 57 e5 8d 3e
       0.44177702 0.55200016 0.11591738 0.27714035
000060 39 19 d4 3e 19 e7 2e 3d 2e c5 0b 3f b4 8d 07 bf
       0.41425493 0.04270086 0.5459775 -0.52950597
000070 72 06 eb be 08 fd 1f bf 00 f1 6d bd 67 57 9d 3e
       -0.45903355 -0.6249547 -0.058091164 0.30730745
000080 31 af 83 be 0f af fb 3d c0 8d 96 be 6c be e7 be
       -0.25719598 0.12289249 -0.29405022 -0.45262468
000090 1b 8b 25 3e a9 6e 5e 3e db 08 bd 3e 15 fb f4 bd
       0.16166346 0.21721901 0.3692082 -0.119619526
0000a0 db 65 9a 3e 08 7c 1a be 84 00 f3 be 48 e1 45 3e
       0.30155835 -0.15086377 -0.4746133 0.19324219
0000b0 bb d1 aa be 07 35 d1 be 90 4c 55 be 84 b5 eb ba
       -0.33363137 -0.4086077 -0.20829988 -0.0017983173
0000c0 38 ea 59 be b4 70 01 3f d3 ee 11 bf c4 e0 b9 be
       -0.21280754 0.50562596 -0.5700504 -0.36304295
0000d0 60 ba c7 3d 36 da 89 be 40 9a e2 be 77 d9 b4 be
       0.09752345 -0.26924294 -0.44258308 -0.35322163
0000e0 d9 56 96 be a9 8c 95 be 0d 0d 08 bf d1 6b c5 be
       -0.29363135 -0.29208878 -0.53144914 -0.3855882
0000f0 3c 9d ce 3e 5d c4 c6 3e f7 6b b7 3e 1f 27 ba be
       0.40354335 0.38821688 0.35824558 -0.36357972
000100 7e 1d 87 3d 71 45 7d 3e 04 d8 84 3e 7b db 2a 3d
       0.06597422 0.24733521 0.25946057 0.04171322
000110 2b d4 e7 3d f3 7e 55 be f7 3b 64 be 66 48 17 3e
       0.11319765 -0.20849209 -0.222885 0.14773712
000120 ca 38 12 3f cf 12 4a 3e 9b fe ab 3e 62 f3 d0 be
       0.57117903 0.19733737 0.33592686 -0.40810686
000130 41 b9 91 be ad be b6 bb 12 3d c4 bd a4 db 89 be
       -0.2846165 -0.0055769295 -0.09581961 -0.26925385
000140 92 b7 58 3d f3 4d 1f 3e 73 a8 93 3e 4f 36 df be
       0.05290944 0.15557079 0.28839454 -0.43596122
000150 2d a2 be bc 8a 72 d8 3c ce aa ec be 9f 62 04 bc
       -0.02327069 0.026421804 -0.46224064 -0.008080154
000160 54 dc a8 3e fc 13 b1 be 31 19 87 3e 8c c3 08 3f
       0.32980597 -0.3458556 0.26386407 0.5342338
000170 62 96 73 3e 67 ec d0 bd e2 1e 14 be a9 1e 99 be
       0.23787835 -0.1020134 -0.14464906 -0.29906204
000180 9f 89 9e 3e 8e c9 16 3e 92 fd 69 be d4 ee a5 3e
       0.30964372 0.14725325 -0.22850636 0.32408774
000190 3a 5b e4 3e 73 16 f4 be 1a 5d 01 3f bf 53 9e 3e
       0.4460085 -0.47673377 0.50532687 0.30923268
0001a0 a5 79 bd bd 22 86 c6 bc 5d a0 e4 be a0 c8 14 bf
       -0.092517175 -0.024233881 -0.44653597 -0.5811863
0001b0 4f 0e a2 bc da d1 86 3e a7 b7 89 bc f1 c5 8b bd
       -0.019782213 0.2633198 -0.016811205 -0.06824864
0001c0 65 27 7a 3e 2f 5a b7 bc 42 2e 84 be 2e 9b 78 be
       0.2442909 -0.02238187 -0.25816542 -0.24277946
0001d0 33 07 c0 3e 3a a3 20 3f c8 36 5c 3e bf 19 1b be
       0.37505493 0.62749064 0.21505272 -0.1514654
0001e0 a0 dd 92 3e e2 30 f2 3e 94 d8 62 3e 02 99 f4 3d
       0.2868471 0.4730292 0.2215293 0.119432464
0001f0 22 b1 f3 3d 1e db 11 3e e5 d7 bf bd 69 98 c1 be
       0.1189902 0.14243743 -0.093673505 -0.37811592
000200 1a 0d 26 3e 4d 7f 73 be 14 c5 de 3c b2 40 c0 bc
       0.16215935 -0.2377903 0.027193584 -0.02346835
000210 79 96 d8 3e e8 28 cc bc ae c9 ff be 9e ce 5c bd
       0.42302302 -0.02492185 -0.49958557 -0.053907983
000220 0a 8d bc be a2 82 ed be a3 59 16 3e 0b b2 de 3e
       -0.36826354 -0.46388727 0.14682631 0.4349521
000230 3d 0d 7e 3e a8 e4 1d bf 9a f3 e9 be 63 a6 9c 3e
       0.24809738 -0.61677027 -0.45693666 0.30595693
000240 c3 33 08 3d 36 a9 fb 3e e5 fe 33 3e aa ef 01 3f
       0.03325249 0.49152535 0.17577703 0.50756323
000250 e6 1f b2 3e c9 3e 7e 3e 79 f9 96 bd a6 af 86 bd
       0.34789962 0.24828638 -0.07371802 -0.06576471
000260 05 d1 a1 3e b0 b3 af be b2 55 1a 3f 8c df 0e bf
       0.31604782 -0.34316778 0.6028701 -0.55809855
000270 ef 7a 3d bd 03 ad d6 be 5f ef 03 3e f4 25 19 3f
       -0.046259817 -0.41928872 0.12884282 0.59823537
000280 1a 08 16 3e eb 71 15 3d 90 b7 be 3c 16 86 ab 3e
       0.14651528 0.036485594 0.023280889 0.33500737
000290 1f a2 f0 3e 94 00 8e be 69 f4 15 3e f9 4b a0 be
       0.4699869 -0.27734816 0.14644016 -0.31307963
0002a0 1e ce d2 3d 17 8f 1d be 17 8b 8e 3e b0 47 f7 be
       0.1029322 -0.15386616 0.27840492 -0.4829688
0002b0 fd b2 77 3d e0 97 2b be bf 08 52 3e 11 d7 72 3e
       0.06047343 -0.16757154 0.20511149 0.23714854
0002c0 6c 47 e7 3e 8f 04 85 3e 7e c4 8c bd 60 a1 07 bf
       0.45171678 0.2598004 -0.068734154 -0.52980614
0002d0 d9 79 db 3e b2 95 3b be 1e 52 d6 be 38 32 85 bd
       0.428664 -0.18318823 -0.41859525 -0.06503719
0002e0 be 59 a8 be b2 9d 07 bf 36 22 ee 3b b8 ec 07 bf
       -0.32880968 -0.52975 0.007267262 -0.5309558
0002f0 b1 83 16 3d ed d5 09 bf b6 ab af 3c ad bd c9 be
       0.036746684 -0.5384205 0.021444183 -0.39402524

ode_initial.bias f4 [64]
000000 ee e8 06 bf 49 09 5f be be 16 34 3d d9 c2 d8 3e
       -0.5269917 -0.21780886 0.043967 0.42336157
000010 4d bf dd bd 61 6a 95 be 11 ef 05 bf 48 f7 cc 3d
       -0.10827503 -0.29182723 -0.5231791 0.10008103
000020 99 cf 09 bf 17 c0 40 3d 2b 8a 99 3e 49 bc 2c 3e
       -0.53832394 0.04705819 0.29988226 0.168687
000030 62 3e b3 bd 82 ce f4 be 4c b5 e7 be d1 fe d5 be
       -0.08752133 -0.47813803 -0.45255506 -0.41795972
000040 db fc be 3d 59 6c a9 bd eb 50 b5 3d d9 0d 8d 3e
       0.09325572 -0.08272619 0.088533245 0.27549627
000050 e3 31 04 be d2 1e 67 3e cd 92 ef be 0d 52 8f bd
       -0.12909655 0.22570351 -0.46791688 -0.06998072
000060 c5 61 8b 3b 9a e7 5f be b9 16 39 bc 2c 23 0d bf
       0.0042535984 -0.21865693 -0.011296921 -0.55131793
000070 21 44 f9 3e e6 c2 11 3f 46 b3 de be 0e 77 c0 bd
       0.4868479 0.56938016 -0.4349615 -0.09397708
000080 f5 bb fa bd 4c fd c7 be e1 d3 b2 3e f8 16 08 3f
       -0.12242881 -0.39060438 0.34927276 0.5316005
000090 2d 1d ec 3d 7c e4 af bd 33 84 f8 3e 28 71 95 3e
       0.11529002 -0.08588502 0.4853836 0.29187894
0000a0 bb eb b6 3e 48 52 48 bd 46 33 fb be 31 fa e5 3e
       0.35726723 -0.048906595 -0.49062556 0.44917443
0000b0 b8 08 74 3e 18 34 ff bd 4b a5 de 3e 63 cf f8 3e
       0.23831451 -0.12461108 0.43485484 0.48595724
0000c0 f1 90 ee 3e ba d7 18 be b5 20 91 be 68 0c e9 be
       0.46594957 -0.14926043 -0.28345266 -0.45517278
0000d0 94 55 c6 3e 41 e7 0b bf af e7 f6 3e e2 08 0a 3e
       0.38737166 -0.5464974 0.48223636 0.13479951
0000e0 3b 1e 13 be 92 48 5b be 06 9f 8d be 33 8a 9a 3e
       -0.14367001 -0.21414402 -0.27660388 0.30183563
0000f0 72 93 05 be 9a ce c2 be b2 03 a3 3d 17 72 cf 3e
       -0.13044527 -0.3804825 0.07959689 0.4051673

ode_readout.weight f4 [2, 64]
000000 88 19 f9 bd 26 74 87 bb 4b 53 b1 3d 07 c7 98 3d
       -0.12163073 -0.004133719 0.08658465 0.074598365
000010 3e d1 e8 bc c5 42 d1 3d 42 ba d9 bc 5d ca dc bd
       -0.028420087 0.102178134 -0.026578072 -0.10780785
000020 5b 5e 1d 3d 2e b9 01 3e e5 1a 06 bb 4f 99 d3 bd
       0.038420063 0.12668297 -0.0020462808 -0.10331976
000030 71 1c 91 3d 6a d9 a4 bd 21 e2 d6 3d 88 ab a6 bd
       0.07085503 -0.08049281 0.104923494 -0.08138186
000040 f5 da 98 3d 7b fd 6e bc e7 00 b9 bd 19 b1 df 3d
       0.07463638 -0.014586802 -0.09033375 0.109224506
000050 4f d7 79 3d 81 4b f5 3c d0 92 60 bc ec 12 97 3d
       0.06099635 0.02994323 -0.013706878 0.07376656
000060 71 b0 65 bc 3b 3a 51 3c 63 ed c4 bd 60 3a 01 bd
       -0.014019118 0.012770231 -0.096155904 -0.03154981
000070 c4 09 a3 bd 82 c5 c0 bd bc a1 ad 3d b0 66 d4 3d
       -0.07960847 -0.094126716 0.08478114 0.103711486
000080 21 1e ae bd 5c 57 2d 3c c8 3d 63 3b 91 93 d5 3d
       -0.085018404 0.01057991 0.0034674276 0.10428537
000090 da 83 78 bd f9 0d db 3d c5 e5 bc 3c eb 86 f7 3c
       -0.06067262 0.106960244 0.023058781 0.030215701
0000a0 2d 73 46 3d fd 06 93 bd 5c 79 16 bc 34 fd 13 3d
       0.048449684 -0.07179067 -0.009184208 0.036130145
0000b0 6b 80 cc bd 7c f8 56 3d a6 f9 06 3d ff 92 86 3d
       -0.09985431 0.052483067 0.032952927 0.06571006
0000c0 22 67 d6 3d fe 63 d3 bd 75 04 1b bd e9 90 2f 3e
       0.1046889 -0.10321806 -0.037846047 0.17145123
0000d0 28 22 84 bc d1 28 fd bd 98 22 4e bd 41 c6 88 3d
       -0.016129568 -0.12361301 -0.05032596 0.06678439
0000e0 0d 72 5c 3d a2 84 4c 3d b6 36 4b 3d 41 11 68 3d
       0.053819705 0.049931176 0.049612723 0.05665708
0000f0 cd a3 c5 bd 83 f7 bc 3c 6f 8a 4a bd e3 4c 38 bc
       -0.09650383 0.023067242 -0.049448427 -0.0112488
000100 4b c9 42 3c 7c 5c b4 3d 7d 36 d4 3c 47 27 7c 3d
       0.011888812 0.088067025 0.025904888 0.061560895
000110 78 f0 d5 3d 51 67 01 be 4e 28 52 bc c6 c9 28 bc
       0.104462564 -0.12637068 -0.012826992 -0.010302013
000120 c2 f7 b8 3c 31 29 a3 bd 6a 2a 28 bc 42 09 d4 bd
       0.022579078 -0.07966841 -0.010264019 -0.10353328
000130 4f a4 29 bd 0f 24 6b 3d 30 f3 42 3d 9e ac 4c 3d
       -0.041416463 0.057407435 0.047595203 0.049969308
000140 b6 9f 08 be 57 e0 ca bd 4b f7 c2 bd e7 10 b5 3d
       -0.13342175 -0.09906071 -0.09519824 0.088411145
000150 ca af 98 bc 90 b5 a1 3d 74 64 81 3c da d9 29 3c
       -0.01863851 0.078959584 0.01579497 0.010366881
000160 3b 4e 26 3e e5 79 65 3d 1b dc 1b 3c f6 49 0f 3c
       0.1624078 0.05602445 0.009512926 0.008745661
000170 1b 6e 80 3d 91 87 03 be 03 2a fe 3d 72 27 8e 3d
       0.06271001 -0.12844683 0.12410357 0.06941117
000180 a1 af d5 bd 83 1c 09 bd 69 22 eb bd 1e c1 d7 bd
       -0.10433889 -0.033474457 -0.114811726 -0.10534881
000190 56 78 aa bd 42 6a 95 3b 7e 71 c4 3d e5 3b 65 3d
       -0.083237335 0.004559786 0.095919594 0.055965323
0001a0 ff d7 c3 3d 0f 27 f6 3d b3 81 65 3d e4 94 ab 3d
       0.09562682 0.120191686 0.056031894 0.08378008
0001b0 f6 b4 f3 bc 51 c2 70 bd 64 61 0a bd 6b c5 e3 bc
       -0.029749375 -0.058779065 -0.033784285 -0.027804097
0001c0 70 5b 61 3d ba 59 ec bc d9 3e dc 3c 9c cb 47 bd
       0.055018842 -0.028851379 0.026885437 -0.04877816
0001d0 72 c7 e1 bc bb e1 40 3d c3 68 b8 bd 2c 73 32 3d
       -0.027560923 0.047090273 -0.09004357 0.043566868
0001e0 95 62 01 bd e9 2f 48 bd f7 08 8f 3d e6 4d 93 bd
       -0.031588156 -0.048873816 0.06984132 -0.07192592
0001f0 6a ee a8 3d 36 ff 8a bd f9 50 07 bd 8b 3b a3 bc
       0.08248599 -0.06786959 -0.033036206 -0.019925853

ode_readout.bias f4 [2]
000000 77 ec 08 3e f6 7b d1 bd
       0.13371454 -0.10228722
