experiments/ERA5Forecasting/logs/rnn_model.pth (torch, 15277 bytes, 10 tensors)

rnn.weight_ih_l0 f4 [32, 2]
0.06587034 -0.14713958 -0.07188859 0.100848235 0.19887711 0.1094474 -0.17519638 0.22676939
0.016679605 -0.1154897 -0.0010885039 -0.06673968 -0.04730892 -0.15964423 -0.11924998 0.20121334
-0.16254163 0.24414481 0.037907157 0.05059564 -0.08799159 0.19713736 0.13277528 -0.22406958
0.050205026 -0.21138445 0.033272203 -0.2332866 0.0040784185 -0.14590009 -0.07795495 0.1861378
0.20679061 -0.19512911 -0.090478815 0.12120859 0.08126677 0.20235486 0.113623865 0.12650958
-0.15012981 0.19529207 -0.02553004 0.15182696 0.059745926 0.039921477 0.09447061 0.14558147
-0.03893955 0.10645744 0.050006527 0.18386498 0.11716804 0.031719875 0.056907926 -0.15852213
-0.14350626 0.0025945753 0.19280234 -0.24991964 0.09952299 0.072414994 0.07563219 -0.10299521
00000000: 07e7 863d c2ab 16be 533a 93bd 8589 ce3d
00000010: 71a6 4b3e f525 e03d ae66 33be 3c36 683e
00000020: aba3 883c dd85 ecbd 21ac 8eba d0ae 88bd
00000030: 00c7 41bd c779 23be 5539 f4bd df0a 4e3e
00000040: 5071 26be 1901 7a3e 8944 1b3d 603d 4f3d
00000050: ef34 b4bd 60de 493e 3ef6 073e 7f72 65be
00000060: c9a3 4d3d 2a75 58be 6f48 083d afe2 6ebe
00000070: 41a4 853b d566 15be d8a6 9fbd e89a 3e3e
00000080: ebc0 533e edcf 47be f54c b9bd 363c f83d
00000090: 316f a63d 1d36 4f3e a1b3 e83d ba8b 013e
000000a0: a1bb 19be a5fa 473e 6024 d1bc 8778 1b3e
000000b0: 25b8 743d b484 233d cf79 c13d 4f13 153e
000000c0: 147f 1fbd 5c06 da3d a5d3 4c3d 1a47 3c3e
000000d0: ccf5 ef3d b3ec 013d 4918 693d a053 22be
000000e0: 4ef3 12be c009 2a3b fa6d 453e efea 7fbe
000000f0: b6d2 cb3d 504e 943d 0de5 9a3d 27ef d2bd

rnn.weight_hh_l0 f4 [32, 32]
-0.10288639 -0.16811112 -0.077103116 -0.20658703 0.008566955 -0.03716875 0.11391009 0.023026112
-0.016723052 0.08397029 0.09074982 0.16587664 -0.075854175 -0.03823477 -0.0614278 -0.06515691
-0.081334054 0.10605588 0.018694555 0.06952364 -0.120206214 0.11373465 0.16774698 0.074044555
0.09554375 0.13992086 0.014158413 0.17299297 -0.0855866 0.04809696 -0.10356043 -0.11379839
-0.028530605 -0.0088002905 -0.020447472 -0.057791777 -0.13506743 -0.18071406 0.113361254 -0.1872242
-0.15657477 0.04988109 0.16232924 -0.08967149 -0.11215594 0.098572604 0.0006016948 -0.09788948
0.10965588 -0.13463137 -0.007873283 0.043675996 0.08580944 0.08287913 -0.036797106 -0.15354757
-0.0793459 -0.09384352 0.17939058 -0.03396599 0.03848035 0.09782078 -0.063732944 -0.08671673
0.03508851 0.06913033 0.07958265 -0.14396836 0.096972406 0.12959632 0.09619873 0.16102579
-0.16412602 0.04159513 -0.081677325 0.04725725 0.074958734 -0.027141964 0.1993786 -0.18446551
0.19391555 0.0014350681 -0.17015523 -0.056921143 -0.1312385 -0.17707336 0.011318434 -0.12603454
0.04627287 0.106263295 0.006525887 0.023388455 0.011344568 0.12705044 0.00080055895 0.18230875
-0.19611377 -0.020058572 0.0749388 0.21394962 0.09037229 -0.010568406 -0.0600165 0.08674592
0.08028417 0.049050435 -0.089532904 -0.18054458 -0.20657265 -0.028962083 0.037268646 -0.08829174
0.10375357 0.081429325 0.0075254985 0.07972389 0.17428517 0.18376839 0.15397984 -0.02534848
0.032093517 -0.04558034 0.03543891 -4.5547804e-05 -0.09794331 -0.04942475 -0.07275639 0.120141044
0.035876755 -0.07105523 0.095263876 -0.026852809 0.17580283 0.13914426 -0.1553489 0.011410357
0.011260103 0.045989443 0.072806954 0.11469133 -0.012422201 -0.19088687 -0.16281883 0.15399465
-0.08071135 0.06642861 0.063483365 0.055151705 -0.041747138 -0.15750352 -0.08638193 0.08131613
0.12534049 0.09226186 0.021451015 0.10323569 0.032770798 -0.07173266 0.163891 0.044901192
-0.025758412 -0.087596096 -0.19437005 0.081385665 -0.15536903 0.15198837 0.103674814 0.10128034
0.1940956 -0.14693016 -0.029187812 -0.0068105143 -0.16596371 0.01893292 -0.027069641 -0.03445694
-0.24156168 0.105699964 -0.032473654 0.025408674 -0.09186609 -0.107460536 -0.20139846 0.074265145
-0.107578285 0.04367048 -0.14661896 -0.16868547 0.038763583 0.041550927 -0.19330329 0.09768625
-0.15580235 -0.042271316 0.09456939 -0.11258746 -0.035826955 0.039230637 -0.10043273 0.15937746
-0.1557038 -0.027636796 -0.108811304 -0.084690474 -0.014029829 -0.09668989 0.10617315 -0.13524345
0.018961573 0.098478876 -0.031827107 0.08341388 -0.1075303 -0.071597904 -0.14665003 0.13352886
0.09489861 0.17730421 -0.056043405 0.1869453 -0.11651321 0.021335626 0.028884633 0.03280141
-0.035201132 0.13607723 -0.025496902 0.0055534933 -0.029518766 -0.050191574 -0.07310084 0.09202204
0.028101427 -0.13480823 0.17264794 -0.15242966 -0.1695861 0.08109006 0.18375547 -0.09248717
0.090760805 0.06397031 -0.1043581 -0.0244571 0.12702037 -0.114685945 0.13931035 -0.15116313
0.1218432 -0.111262776 0.056434322 -0.0015286757 0.12806019 0.022190046 0.0021210758 -0.004304928
00000000: 1ab6 d2bd 5225 2cbe 3de8 9dbd 8d8b 53be
00000010: 6a5c 0c3c 423e 18bd b149 e93d 42a1 bc3c
00000020: c8fe 88bc 9ef8 ab3d 0bdb b93d 91db 293e
00000030: 6f59 9bbd 109c 1cbd b89b 7bbd fc70 85bd
00000040: 7892 a6bd d333 d93d 5325 993c 6962 8e3d
00000050: ad2e f6bd b6ed e83d ddc5 2b3e aca4 973d
00000060: 71ac c33d 6a47 0f3e b0f8 673c 1225 313e
00000070: 0748 afbd 5101 453d 7e17 d4bd 210f e9bd
00000080: 04b9 e9bc 182f 10bc 7581 a7bc 12b7 6cbd
00000090: 1e4f 0abe 1b0d 39be f229 e83d b3b7 3fbe
000000a0: 2355 20be 1d50 4c3d a339 263e b0a5 b7bd
000000b0: 03b2 e5bd 6fe0 c93d 0ebb 1d3a 487a c8bd
000000c0: 4393 e03d cedc 09be f1fe 00bc 9ae5 323d
000000d0: dcbc af3d 89bc a93d 90b8 16bd 933b 1dbe
000000e0: 1a80 a2bd 0831 c0bd 2ab2 373e ec1f 0bbd
000000f0: 929d 1d3d 4356 c83d 6b86 82bd 8a98 b1bd
00000100: f8b8 0f3d 3494 8d3d 3afc a23d 716c 13be
00000110: 7899 c63d e6b4 043e d703 c53d f2e3 243e
00000120: a710 28be a85f 2a3d 7146 a7bd d190 413d
00000130: f783 993d d358 debc e729 4c3e 87e4 3cbe
00000140: cc91 463e e518 bc3a 2c3d 2ebe 2526 69bd
00000150: 6363 06be b852 35be f470 393c 330f 01be
00000160: 9f88 3d3d 92a0 d93d 1cd7 d53b 2599 bf3c
00000170: 91de 393c 8319 023e 9adc 513a 25af 3a3e
00000180: 0cd2 48be e051 a4bc 8379 993d 9c15 5b3e
00000190: 1b15 b93d 1c27 2dbc ddd3 75bd d8a7 b13d
000001a0: 076c a43d 1ce9 483d 075d b7bd aee0 38be
000001b0: c887 53be e441 edbc 02a7 183d 4dd2 b4bd
000001c0: c07c d43d 6bc4 a63d 7598 f63b 4746 a33d
000001d0: d077 323e c82d 3c3e e4ac 1d3e 9ea7 cfbc
000001e0: 7e74 033d 73b2 3abd 6428 113d 950a 3fb8
000001f0: 8196 c8bd 9b71 4abd 4d01 95bd 820c f63d
00000200: 81f3 123d 6885 91bd b519 c33d 6cfa dbbc
00000210: a805 343e d57b 0e3e c813 1fbe 82f2 3a3c
00000220: 4c7c 383c 6d5f 3c3d d01b 953d 4ae3 ea3d
00000230: 7d86 4bbc d977 43be fbb9 26be c6b0 1d3e
00000240: fe4b a5bd b90b 883d 9103 823d c1e6 613d
00000250: 0cff 2abd 9a48 21be 02e9 b0bd 1289 a63d
00000260: 4259 003e c9f3 bc3d 0aba af3c 3c6d d33d
00000270: ac3a 063d 93e8 92bd 0bd3 273e 50ea 373d
00000280: 4e03 d3bc 9565 b3bd f108 47be 87ad a63d
00000290: 0f19 1fbe d7a2 1b3e 7653 d43d 116c cf3d
000002a0: ffc0 463e dc74 16be 471b efbc bc2a dfbb
000002b0: 64f2 29be 3619 9b3c 27c1 ddbc b822 0dbd
000002c0: f25b 77be 3979 d83d 1803 05bd da25 d03c
000002d0: 4a24 bcbd 4514 dcbd 663b 4ebe 5318 983d
000002e0: 0152 dcbd d1df 323d 4823 16be e2bb 2cbe
000002f0: 90c6 1e3d 4e31 2a3d 4cf1 45be bb0f c83d
00000300: a78a 1fbe b024 2dbd 99ad c13d 4194 e6bd
00000310: 49bf 12bd 4eb0 203d adaf cdbd d833 233e
00000320: d170 1fbe 9066 e2bc 76d8 debd 3372 adbd
00000330: 5edd 65bc 5905 c6bd 4f71 d93d 427d 0abe
00000340: 4d55 9b3c 4baf c93d 245d 02bd e5d4 aa3d
00000350: d938 dcbd eca1 92bd 6d2b 16be cabb 083e
00000360: 345a c23d 3c8f 353e c58d 65bd 976e 3f3e
00000370: 7a9e eebd 0dc8 ae3c 779f ec3c c55a 063d
00000380: 102f 10bd d457 0b3e e1de d0bc 14fa b53b
00000390: 57d1 f1bc ae95 4dbd e5b5 95bd 0d76 bc3d
000003a0: f734 e63c 2b0b 0abe 9fca 303e 8516 1cbe
000003b0: fba7 2dbe 8c12 a63d 652a 3c3e ea69 bdbd
000003c0: cde0 b93d de02 833d b3b9 d5bd 425a c8bc
000003d0: a111 023e 77e0 eabd 5fa7 0e3e 82ca 1abe
000003e0: ed88 f93d bddd e3bd ad27 673d d85d c8ba
000003f0: 3622 033e e6c7 b53c bf01 0b3b 5a10 8dbb

rnn.bias_ih_l0 f4 [32]
-0.0005841766 -0.20104353 -0.1766559 -0.07019123 -0.06630458 -0.09822601 -0.10153019 0.11003285
-0.06519723 -0.044832837 -0.09279354 0.003436538 -0.13730437 -0.11518731 -0.028980618 0.06525626
-0.10556117 0.053301368 0.0845912 -0.0689217 0.057798315 0.20062165 0.08069516 0.17232859
-0.08882407 0.17863281 -0.15394469 -0.099928446 0.08589814 -0.16734585 0.16848022 -0.14930356
00000000: 6e23 19ba 5bde 4dbe 49e5 34be 6bc0 8fbd
00000010: b2ca 87bd b82a c9bd 0fef cfbd e758 e13d
00000020: 2086 85bd a3a2 37bd 8a0a bebd 8a37 613b
00000030: 8499 0cbe 53e7 ebbd c368 edbc 13a5 853d
00000040: 7430 d8bd 8952 5a3d 273e ad3d d226 8dbd
00000050: edbd 6c3d c36f 4d3e 8143 a53d e876 303e
00000060: 65e9 b5bd 85eb 363e ada3 1dbe 49a7 ccbd
00000070: 5deb af3d b65c 2bbe 1486 2c3e 08e3 18be

rnn.bias_hh_l0 f4 [32]
0.06872313 -0.018591097 0.13362256 0.15419939 0.08896584 0.10190657 0.08565387 0.15845104
0.08842813 -0.043419864 -0.1703856 0.024228066 0.11410561 -0.20487605 0.007872399 -0.08511351
-0.19348462 -0.15282963 -0.14668187 -0.13205355 0.07091602 0.13674341 -0.06779807 -0.01524663
0.080804646 0.028536633 -0.11612199 0.097960494 0.12276811 -0.03100787 0.10117636 -0.18903379
00000000: b6be 8c3d 5b4c 98bc 5ad4 083e 72e6 1d3e
00000010: b933 b63d 64b4 d03d 4c6b af3d fd40 223e
00000020: cf19 b53d 07d9 31bd 9079 2ebe f079 c63c
00000030: 34b0 e93d 07cb 51be 3cfb 003c fe4f aebd
00000040: d520 46be 5f7f 1cbe c633 16be 0c39 07be
00000050: 6b3c 913d 7706 0c3e b7d9 8abd 00cd 79bc
00000060: e87c a53d a8c5 e93c 5ed1 edbd 839f c83d
00000070: d96d fb3d 3704 febc 8d35 cf3d 1392 41be

rnn.weight_ih_l1 f4 [32, 32]
0.17996699 0.010057866 -0.16107371 0.031359456 -0.08768297 0.20978993 -0.08534411 -0.053050198
-0.099076755 0.027910043 0.0387709 0.1341088 0.18504503 0.23957948 -0.09069044 0.0046482887
0.19952647 0.103797525 -0.18423589 0.06458364 -0.090476096 0.035669554 -0.04115815 -0.08280832
-0.013463007 -0.1832976 0.014834107 -0.02237177 -0.029571284 0.009667726 0.0036947294 -0.09898575
-0.10916045 -0.12330169 -0.072316654 -0.0642292 -0.20982306 0.17742282 -0.07315849 0.08208502
0.12459137 0.08772206 0.10662224 0.14936472 0.098964415 -0.19817786 -0.12674938 -0.13781863
-0.20402928 0.032426756 0.007897577 0.09620484 0.051499624 -0.0081592975 -0.07087681 -0.002111016
-0.15048556 -0.08078248 -0.11698518 0.063437045 0.15110195 0.042845894 -0.027348476 -0.023701454
0.08443311 -0.08108749 -0.041593187 -0.033946585 0.055795968 -0.058842115 0.07757994 -0.16529351
-0.13380654 0.16240183 -0.012979423 -0.12244516 0.07283806 -0.062445905 -0.15030642 0.09220164
0.09571519 -0.013071935 -0.07533393 0.14312404 0.0719041 -0.08258325 -0.003417605 -0.13799065
0.10028861 -0.16024339 0.13778175 -0.12989533 -0.11272348 -0.085596606 -0.19221354 0.19423802
0.19072218 -0.17076345 0.111760676 -0.09839135 -0.11015194 0.01195123 0.08847066 -0.14744546
0.072195716 -0.13948448 0.13041987 0.14784019 0.21136336 -0.012258329 -0.11300012 0.07464163
0.13516787 -0.09330715 0.12852831 -0.11454388 -0.12190064 -0.058510475 0.14310507 0.16309275
0.07854841 -0.090365194 -0.040724013 -0.033140175 0.1455473 -0.013985923 -0.1070904 -0.053557485
-0.11906257 0.06205121 -0.0989801 0.13946694 0.05675797 0.032581765 0.15696052 0.015219305
-0.073755406 0.023172336 0.108861305 -0.2036113 -0.093450494 -0.07313294 -0.182879 -0.071079604
0.10096589 -0.023177087 -0.005342732 0.07426738 0.09938638 0.083427064 0.08906248 -0.10997183
-0.0902132 -0.06060328 -0.013501837 0.023261989 -0.12874001 -0.009008229 0.17884378 -0.16512166
0.15247245 -0.06763127 -0.062652014 0.056979932 -0.04757656 -0.090686396 0.079288326 0.042227067
-0.013461034 0.007643197 -0.17731754 0.018778315 0.13331321 0.088154845 -0.008756621 -0.09456564
0.18927507 -0.0056234817 0.040967517 0.17450073 0.11322182 0.003096771 -0.09573061 -0.11409492
0.086808555 -0.12146377 0.011616734 0.13917512 -0.0024748205 -0.0070120962 -0.024221266 0.17846175
0.06695565 -0.099652976 -0.15819368 0.18870921 -0.10222355 -0.01906753 -0.15840824 0.2145307
0.028390283 -0.15678348 0.03873216 -0.003277994 -0.20127584 -0.19796169 0.1455627 0.087827645
-0.172296 -0.08855603 -0.12420333 0.031025175 0.08649224 -0.09884912 -0.1766819 0.1384713
0.0089550195 0.05649922 0.08477537 0.06507242 0.16502894 -0.22283982 0.11543457 0.049006503
0.03624705 0.0871749 0.078168474 -0.012424762 -0.0039828606 0.14732377 0.041921873 0.027074238
-0.082048796 0.09104344 -0.06140297 0.2034922 -0.015297467 0.14079538 -0.07436686 -0.1327387
0.04362461 -0.12927938 -0.19863114 0.108757965 0.10275019 -0.15437262 0.042887587 0.09290203
-0.10067696 -0.013708279 0.17644356 0.13254887 -0.036261123 -0.051286355 -0.14012277 -0.03505844
00000000: 4449 383e bfc9 243c 82f0 24be c672 003d
00000010: 2193 b3bd 2cd3 563e e5c8 aebd 2a4b 59bd
00000020: c1e8 cabd 9aa3 e43c 3cce 1e3d d153 093e
00000030: 727c 3d3e 5354 753e e9bb b9bd ac50 983b
00000040: ab50 4c3e cc93 d43d 55a8 3cbe 6d44 843d
00000050: 884b b9bd 3d1a 123d 7395 28bd 6997 a9bd
00000060: f293 5cbc 5eb2 3bbe c10a 733c 0145 b7bc
00000070: 7a3f f2bc 6265 1e3c 4623 723b 0ab9 cabd
00000080: 848f dfbd 9985 fcbd c11a 94bd 998a 83bd
00000090: dbdb 56be 54ae 353e 1ed4 95bd 311c a83d
000000a0: c329 ff3d a0a7 b33d c35c da3d 11f3 183e
000000b0: dbad ca3d 23ef 4abe 97ca 01be 5420 0dbe
000000c0: 0ded 50be ebd1 043d d764 013c 0b07 c53d
000000d0: 45f1 523d 93ae 05bc dc27 91bd f958 0abb
000000e0: e318 1abe 4971 a5bd ed95 efbd 48eb 813d
000000f0: 78ba 1a3e 2d7f 2f3d e909 e0bc 8d29 c2bc
00000100: 44eb ac3d 3311 a6bd 9e5d 2abd 930b 0bbd
00000110: 508a 643d 6e04 71bd 3be2 9e3d b442 29be
00000120: 9504 09be aa4c 263e a5a7 54bc 87c4 fabd
00000130: 1f2c 953d 47c7 7fbd ede9 19be 37d4 bc3d
00000140: 5306 c43d ab2b 56bc ad48 9abd 1c8f 123e
00000150: 7542 933d 6821 a9bd e6f9 5fbb 6c4d 0dbe
00000160: 1d64 cd3d d816 24be a916 0d3e 4803 05be
00000170: 91db e6bd 464d afbd a0d3 44be 55e6 463e
00000180: ad4c 433e 9ddc 2ebe c8e2 e43d 6781 c9bd
00000190: 5797 e1bd 17cf 433c 1b30 b53d f1fb 16be
000001a0: 59db 933d 05d5 0ebe c98c 053e 6b63 173e
000001b0: a36f 583e 29d7 48bc 9b6c e7bd b6dd 983d
000001c0: 7269 0a3e d217 bfbd ed9c 033e fb95 eabd
000001d0: 0ba7 f9bd aea8 6fbd 238a 123e c901 273e
000001e0: fddd a03d 6311 b9bd 39ce 26bd febd 07bd
000001f0: 5a0a 153e 3625 65bc 3652 dbbd 185f 5bbd
00000200: 14d7 f3bd 6929 7e3d 14b6 cabd 6cd0 0e3e
00000210: 0c7b 683d 7574 053d 42ba 203e 645a 793c
00000220: 130d 97bd e9d3 bd3c adf2 de3d 7b7f 50be
00000230: f962 bfbd b9c6 95bd a244 3bbe 2f92 91bd
00000240: 34c7 ce3d e0dd bdbc 1612 afbb 7f19 983d
00000250: 168b cb3d cfdb aa3d 6466 b63d e938 e1bd
00000260: b3c1 b8bd 253b 78bd cf36 5dbc ed8f be3c
00000270: 6cd4 03be 4097 13bc d322 373e a715 29be
00000280: bd21 1c3e 4382 8abd b34f 80bd ca63 693d
00000290: a4df 42bd cab9 b9bd eb61 a23d 4af6 2c3d
000002a0: ab8b 5cbc c973 fa3b bb92 35be fbd4 993c
000002b0: 4283 083e 878a b43d ee77 0fbc a1ab c1bd
000002c0: 53d1 413e 2f45 b8bb 8ecd 273d 52b0 323e
000002d0: d7e0 e73d 32f3 4a3b 690e c4bd 99aa e9bd
000002e0: afc8 b13d ffc1 f8bd 1d54 3e3c ec83 0e3e
000002f0: 9930 22bb bac5 e5bb ad6b c6bc adbe 363e
00000300: 0b20 893d dc16 ccbd 86fd 21be fd3c 413e
00000310: 955a d1bd 8233 9cbc c535 22be f0ad 5b3e
00000320: bd92 e83c d98b 20be 9da5 1e3d 9dd3 56bb
00000330: 411b 4ebe 78b6 4abe 630e 153e fbde b33d
00000340: 5d6e 30be dd5c b5bd 515e febd 8228 fe3c
00000350: d822 b13d 6871 cabd 1aec 34be 6ccb 0d3e
00000360: 13b8 123c ba6b 673d b69e ad3d b044 853d
00000370: 59fd 283e 1f30 64be f668 ec3d 0bbb 483d
00000380: c977 143d c188 b23d cb16 a03d 3b91 4bbc
00000390: a882 82bb 0bdc 163e 45b6 2b3d cbca dd3c
000003a0: 3309 a8bd fc74 ba3d ae81 7bbd 4260 503e
000003b0: 3aa2 7abc aa2c 103e a74d 98bd a7ec 07be
000003c0: b8af 323d d061 04be f665 4bbe 7fbc de3d
000003d0: b16e d23d db13 1ebe e5aa 2f3d 6b43 be3d
000003e0: b92f cebd b098 60bc 9fad 343e e4ba 073e
000003f0: 8b86 14bd a411 52bd 587c 0fbe 7099 0fbd

rnn.weight_hh_l1 f4 [32, 32]
-0.15791182 0.1329115 -0.1345367 -0.045246653 0.17710815 -0.20197977 0.022972744 0.115727596
0.02129937 0.07185133 -0.09402587 0.13661449 -0.2360992 0.15294793 0.16571504 -0.07268057
-0.095682316 -0.054365642 -0.054565158 -0.17992684 -0.14723778 0.16809115 -0.05325185 -0.11334664
0.066333495 -0.16444546 -0.08397142 0.061787687 0.05174046 0.1491441 -0.01767042 0.07114746
0.089529485 0.095277116 0.108225085 0.14932704 0.18964364 -0.10938118 0.20566145 0.014496248
0.049637876 0.14615111 -0.1868569 -0.041440025 0.10779797 0.10473769 -0.042822327 -0.08060954
-0.052130725 -0.090929314 0.1418004 -0.18569396 0.030801628 -0.03547931 0.12471167 -0.0031640686
-0.14561723 0.069384806 0.20593075 0.0760935 0.047417026 -0.049409017 0.16044956 0.14310104
0.03703905 0.1529684 0.122961916 0.16498952 0.031089937 -0.14928523 -0.048606694 0.10501134
-0.055644255 -0.14029987 0.0060347794 0.05167022 0.055018637 -0.09528122 0.017559797 0.034335
0.09086854 0.081514575 -0.01907965 0.08748135 0.051809095 0.14404449 -0.10142026 -0.086855926
0.022248488 -0.046512574 0.12547353 0.11474925 0.17487511 -0.06311238 0.1440982 -0.1803291
-0.16964467 -0.016642658 -0.048678644 -0.07522526 0.017353332 -0.082387745 -0.119395606 0.18132591
-0.02129894 -0.010825541 -0.18566081 0.031446446 0.1310615 -0.16546054 -0.16354407 0.011325981
-0.03586675 0.050572563 -0.03441913 -0.16636409 0.10601648 -0.16885386 -0.034759212 -0.16480094
-0.14626682 0.13710034 0.075205654 -0.1022859 -0.101661235 0.08298722 0.1857142 -0.16974
-0.11349408 0.07683496 -0.008358441 -0.15195984 -0.11613363 -0.008835662 0.011988003 -0.071808234
-0.1305742 -0.09544023 -0.0793343 -0.04510312 -0.13490258 -0.09162189 -0.08934104 0.15384322
0.07085618 0.17292945 0.08362024 -0.027572902 0.12683815 0.0046310322 -0.16189511 -0.02982685
-0.10550253 0.16859348 0.10498425 0.12102745 0.030719748 0.0481483 0.025698064 0.06673036
-0.1396543 0.12555757 0.019601671 0.1678376 -0.029739043 -0.08449712 0.018660454 -0.017845783
0.10204882 -0.09990519 -0.04366458 0.05206997 0.024984092 -0.14997193 0.04204919 -0.06395904
0.09730377 0.10220165 -0.16986907 0.069936045 0.1131871 0.06537737 -0.09421335 0.0035666954
-0.061905365 0.0560617 0.051456306 -0.17403625 -0.021556007 0.029039327 0.087542266 -0.005071734
0.0500384 0.023870846 -0.050512765 -0.1935652 0.09236578 0.029939834 -0.14405182 0.117064886
0.087570116 -0.078551725 0.030113123 0.18238719 -0.045303326 -0.11611913 0.16147679 0.04365771
0.07853091 0.1172216 -0.10317799 0.0022817024 0.13104713 -0.07243869 -0.06594115 0.03602936
0.07716801 -0.0936717 0.10150136 0.062595755 -0.10268987 -0.08210562 -0.06844979 -0.17468375
-0.08262276 -0.031458184 0.010606931 0.11871026 0.13822539 0.0395771 0.061881114 -0.07160275
-0.043763824 -0.010451124 0.11386587 -0.08862287 -0.128392 0.036266793 0.05537537 0.06365861
-0.17626776 0.04254544 0.115800895 0.15682834 0.049934004 0.03910876 -0.17099011 0.15222321
0.17592955 -0.057362664 0.17476013 0.017980013 -0.041437253 0.005113753 -0.109456934 0.056505293
00000000: a3b3 21be f419 083e fdc3 09be 8e54 39bd
00000010: d75b 353e c9d3 4ebe 5631 bc3c 9702 ed3d
00000020: 047c ae3c ca26 933d a390 c0bd abe4 0b3e
00000030: fdc3 71be 629e 1c3e 34b1 293e 8dd9 94bd
00000040: 17f5 c3bd 82ae 5ebd b77f 5fbd be3e 38be
00000050: 80c5 16be 1620 2c3e 9d1e 5abd 4822 e8bd
00000060: dbd9 873d 6464 28be 35f9 abbd 1615 7d3d
00000070: ceed 533d 3bb9 183e 8fc1 90bc c2b5 913d
00000080: 3c5b b73d a620 c33d 1da5 dd3d 30e9 183e
00000090: f131 423e 3d03 e0bd ea98 523e ac81 6d3c
000000a0: 1651 4b3d a3a8 153e 6a57 3fbe 04bd 29bd
000000b0: 2fc5 dc3d b780 d63d 7766 2fbd 9d16 a5bd
000000c0: 0787 55bd 2639 babd 2034 113e 8f26 3ebe
000000d0: b253 fc3c c152 11bd d568 ff3d 435c 4fbb
000000e0: af1c 15be 9f19 8e3d 83df 523e e9d6 9b3d
000000f0: 5b38 423d 1c61 4abd e44c 243e 1489 123e
00000100: 42b6 173d c0a3 1c3e 75d3 fb3d 03f3 283e
00000110: 53b0 fe3c 3ade 18be d017 47bd 2f10 d73d
00000120: 3beb 63bd c5aa 0fbe 66bf c53b 27a4 533d
00000130: 395b 613d cd22 c3bd 90d9 8f3c dba2 0c3d
00000140: 4919 ba3d 1df1 a63d ed4c 9cbc 6c29 b33d
00000150: c635 543d 6680 133e 6db5 cfbd 85e1 b1bd
00000160: 7642 b63c f883 3ebd 227c 003e a801 eb3d
00000170: 7612 333e 1041 81bd 7b8e 133e 31a8 38be
00000180: 55b7 2dbe 2f56 88bc 4263 47bd b30f 9abd
00000190: 9328 8e3c e8ba a8bd af85 f4bd 80ad 393e
000001a0: 1d7b aebc 9c5d 31bc de1d 3ebe fdcd 003d
000001b0: fc34 063e 7d6e 29be 1978 27be 9b90 393c
000001c0: 03e9 12bd 2d25 4f3d 13fb 0cbd 595b 2abe
000001d0: 2b1f d93d 07e8 2cbe ad5f 0ebd 94c1 28be
000001e0: f8c6 15be 0864 0c3e 6c05 9a3d 457b d1bd
000001f0: c433 d0bd 34f5 a93d dd2b 3e3e 53d0 2dbe
00000200: 966f e8bd a65b 9d3d d8f1 08bc 5c9b 1bbe
00000210: 78d7 edbd 74c3 10bc 5469 443c 3210 93bd
00000220: 3eb5 05be 2b76 c3bd 057a a2bd 0dbe 38bd
00000230: e723 0abe 42a4 bbbd 6ff8 b6bd 1489 1d3e
00000240: 0b1d 913d 6b14 313e 1741 ab3d 91e0 e1bc
00000250: dce1 013e eabf 973b d5c7 25be 7057 f4bc
00000260: b611 d8bd c5a3 2c3e fc01 d73d 3ddd f73d
00000270: fba7 fb3c 2737 453d bf84 d23c eda9 883d
00000280: 8901 0fbe 2a92 003e af93 a03c 9fdd 2b3e
00000290: 4b9f f3bc d30c adbd cfdd 983c 5231 92bc
000002a0: f9fe d03d 189b ccbd a1d9 32bd 5247 553d
000002b0: 70ab cc3c 3e92 19be c53b 2c3d f5fc 82bd
000002c0: 3347 c73d 194f d13d 28f2 2dbe a13a 8f3d
000002d0: a3ce e73d 92e4 853d eef2 c0bd 38bf 693b
000002e0: 7b90 7dbd f4a0 653d d9c3 523d 8f36 32be
000002f0: 3996 b0bc e2e3 ed3c 5c49 b33d ca30 a6bb
00000300: 11f5 4c3d cb8c c33c 79e6 4ebd f535 46be
00000310: 452a bd3d 6244 f53c 5282 13be b7bf ef3d
00000320: f657 b33d badf a0bd ccaf f63c b5c3 3a3e
00000330: fb8f 39bd decf edbd 2c5a 253e 6dd2 323d
00000340: d0d4 a03d e111 f03d fb4e d3bd 9d88 153b
00000350: 3831 063e bc5a 94bd 270c 87bd 8693 133d
00000360: 430a 9e3d f3d6 bfbd f2df cf3d 3432 803d
00000370: 114f d2bd fe26 a8bd 672f 8cbd 4ce0 32be
00000380: 1f36 a9bd 4cda 00bd b1c8 2d3c 5d1e f33d
00000390: f58a 0d3e 991b 223d 0d77 7d3d 76a4 92bd
000003a0: b241 33bd 313b 2bbc 8232 e93d e87f b5bd
000003b0: 3179 03be 7d8c 143d 49d1 623d 725f 823d
000003c0: 897f 34be 2144 2e3d 0529 ed3d 9c97 203e
000003d0: 9987 4c3d 8230 203d 0818 2fbe 67e0 1b3e
000003e0: e026 343e 1df5 6abd 52f4 323e d24a 933c
000003f0: 1cba 29bd 4591 a73b f52a e0bd 1872 673d

rnn.bias_ih_l1 f4 [32]
-0.2304504 0.038650297 -0.0062330915 0.03602269 -0.1259884 -0.0059361304 -0.01011279 0.11677418
-0.11007419 -0.080096275 0.083657645 0.15883563 0.11607469 0.14951831 -0.13364139 -0.12282307
-0.060323343 -0.006556873 0.20239615 0.0919566 -0.04346166 0.04773624 0.089205585 0.10882289
0.07617406 0.15462328 0.015876453 -0.08920494 0.1622888 0.074481115 0.12354039 0.008996041
00000000: 31fb 6bbe c64f 1e3d f63e ccbb 878c 133d
00000010: 1a03 01be df83 c2bb 1eb0 25bc 4d27 ef3d
00000020: 946e e1bd 8409 a4bd b354 ab3d cfa5 223e
00000030: 91b8 ed3d 541b 193e 4ad9 08be a98a fbbd
00000040: 9c15 77bd 0adb d6bb f040 4f3e be53 bc3d
00000050: db04 32bd 1387 433d 6bb1 b63d 89de de3d
00000060: 2501 9c3d 9155 1e3e 560f 823c 14b1 b6bd
00000070: 092f 263e 8e89 983d be02 fd3d 2164 133c

rnn.bias_hh_l1 f4 [32]
-0.13094676 0.13199879 -0.10712169 0.16063286 -0.15862766 0.036668327 0.08363993 0.087636285
-0.019161154 -0.021408323 -0.18390293 -0.17555737 0.2066472 -0.06053204 -0.12411296 0.075356245
-0.11734724 -0.12116202 0.09711025 -0.07239927 0.18817171 -0.15922028 -0.098713495 -0.07749547
-0.056648716 -0.15164796 -0.09819206 -0.111752994 0.14129372 0.009185772 -0.059365753 0.061384376
00000000: e816 06be b12a 073e 9e62 dbbd f17c 243e
00000010: 4a6f 22be 8731 163d 694b ab3d a77a b33d
00000020: daf7 9cbc 8260 afbc 0d51 3cbe 50c5 33be
00000030: 539b 533e 72f0 77bd f02e febd 6054 9a3d
00000040: c053 f0bd cb23 f8bd bde1 c63d 1246 94bd
00000050: 16b0 403e a40a 23be 4d2a cabd f2b5 9ebd
00000060: 7c08 68bd 9a49 1bbe eb18 c9bd c1de e4bd
00000070: 4daf 103e ec7f 163c 8129 73bd 2f6e 7b3d

fc.weight f4 [2, 32]
0.0484138 -0.14387098 -0.06885733 -0.06629439 0.0094949445 0.11183527 -0.22761469 0.06545989
0.042618092 0.1592581 0.14492492 -0.13142839 0.038582135 -0.074756935 -0.15729657 -0.010044556
0.064785264 -0.18752357 -0.13253495 -0.06558402 -0.18338801 0.18580125 -0.13459048 0.17807062
0.030481555 -0.060014263 -0.13742255 -0.10380319 -0.06452276 0.14044304 0.050893474 0.0049387272
-0.14739884 0.044522636 -0.19542408 -0.15926939 0.05782664 -0.060293175 0.06266762 -0.12991434
-0.055579923 -0.1806605 -0.08495733 -0.07739661 0.12746727 0.19262728 -0.0039761662 -0.2322571
0.03821093 0.10358756 0.10007564 0.17657836 -0.07157513 0.038748927 0.081625395 -0.10633981
-0.09905972 0.15117115 -0.18007612 -0.13629739 -0.018417679 0.07875388 0.004247902 -0.038844414
00000000: 8c4d 463d ea52 13be 1205 8dbd 5ac5 87bd
00000010: af90 1b3c e409 e53d d313 69be d60f 863d
00000020: 4f90 2e3d 8e14 233e 3367 143e 2a95 06be
00000030: 4d08 1e3d 2a1a 99bd 5a12 21be ec91 24bc
00000040: 23ae 843d 2e06 40be 3eb7 07be ea50 86bd
00000050: 11ca 3bbe af42 3e3e 16d2 09be 2558 363e
00000060: 74b4 f93c 84d1 75bd 7fb8 0cbe c496 d4bd
00000070: 8224 84bd 4dd0 0f3e ad75 503d 0cd5 a13b
00000080: b9ef 16be 5e5d 363d 401d 48be 8417 23be
00000090: a0db 6c3d faf5 76bd e257 803d 4408 05be
000000a0: c6a7 63bd 11ff 38be 1cfe adbd 1d82 9ebd
000000b0: c886 023e 1640 453e 804a 82bb ced4 6dbe
000000c0: 1083 1c3d b725 d43d 75f4 cc3d f5d0 343e
000000d0: fb95 92bd 32b7 1e3d 372b a73d b0c8 d9bd
000000e0: d3df cabd 9ccc 1a3e e065 38be 8b91 0bbe
000000f0: ace0 96bc b749 a13d fc31 8b3b 521b 1fbd

fc.bias f4 [2]
-0.17671834 0.09457157
00000000: a7f5 34be bdae c13d
